ai/models/joint_classifier_fc.pt (torch, 2757 bytes, 2 tensors)

weight f4 [2, 96]
0	0xbcee64a8	-0.029100731
1	0x3ccc52a8	0.024941757
2	0x3c65c140	0.014023125
3	0x3dcd2fca	0.10018881
4	0xbe0802be	-0.13282296
5	0xbcee6a71	-0.02910349
6	0x3d4a6178	0.04940936
7	0xbb833710	-0.0040043667
8	0x3da5c981	0.080950744
9	0x3db2286c	0.08699116
10	0x3c953ce8	0.018217519
11	0x3dabc2da	0.08386774
12	0xbd5c04d3	-0.05371554
13	0x3d84af74	0.064787775
14	0xbe41a948	-0.18912232
15	0xbd603bdc	-0.054744586
16	0x3bba57b8	0.0056867264
17	0xbd792bc0	-0.06083274
18	0xbd980944	-0.07423642
19	0xbd48e8d1	-0.049050156
20	0x3d15abb8	0.036540717
21	0xbd2d87bf	-0.042365786
22	0x3c737428	0.014859237
23	0x3d25389e	0.040337197
24	0x3d3b1c1b	0.0456811
25	0xbdb862fd	-0.090032555
26	0x3d7455f0	0.05965227
27	0xbd88aff0	-0.066741824
28	0xbd624e13	-0.05525024
29	0xbdc8a758	-0.09797543
30	0x3e01bc5a	0.12669507
31	0xbc7d49fa	-0.015459532
32	0xbd50181b	-0.05080424
33	0xbc0e4a0a	-0.0086846445
34	0xbd4b2e48	-0.049604684
35	0xbd829d1c	-0.063776225
36	0xbe275ff8	-0.16345203
37	0x3d8858fc	0.066575974
38	0xbce5cd80	-0.028052092
39	0xbdc01d68	-0.09380609
40	0x3baf93b1	0.0053581824
41	0x3e06abcb	0.13151471
42	0xbd985d5c	-0.07439682
43	0xbe0a1e9c	-0.13488239
44	0x3cad1c87	0.021131767
45	0xbddc927c	-0.10770127
46	0x3da1cc38	0.0790028
47	0xbcce41e1	-0.025177898
48	0xbc52ed16	-0.0128739085
49	0xbdad0f47	-0.084501795
50	0xbd019d38	-0.031644076
51	0x3e0abe81	0.13549234
52	0xbd476b47	-0.048686292
53	0x3dca7fdd	0.09887669
54	0x3d3c7d44	0.0460179
55	0xbd32ca87	-0.043650176
56	0xbda46259	-0.08026571
57	0xbdb28901	-0.08717538
58	0x3df2582f	0.11833226
59	0xbe1d0547	-0.15334044
60	0x3bb1e89b	0.00542934
61	0xbdc3bc37	-0.095573835
62	0xbd75bf97	-0.059997167
63	0xbd5c89df	-0.05384242
64	0x3d9da5c5	0.07697634
65	0x3df8f223	0.12155559
66	0x3ca8a98d	0.02058866
67	0x3dac2520	0.084055185
68	0xbd865daf	-0.065608375
69	0xbc28c385	-0.010300522
70	0x3c2d0405	0.01056004
71	0xbde4f5d3	-0.111797
72	0x3c810044	0.015747197
73	0x3d546ab2	0.051859565
74	0x3d1e8b14	0.038706854
75	0xbd111eea	-0.035429873
76	0x3d3ae17d	0.0456252
77	0xbd9b53dc	-0.07584354
78	0x3da0ec81	0.078576095
79	0x3c02b9de	0.0079788845
80	0xbd042b39	-0.032267783
81	0xbb940889	-0.004517619
82	0x3d911b0d	0.07085238
83	0xbd5bf61b	-0.0537015
84	0xbc815edc	-0.015792303
85	0x3c3f3117	0.011669419
86	0x3d516413	0.05112083
87	0x3db93a26	0.09044294
88	0xbbba6d55	-0.005689303
89	0x3dfe6bc8	0.124229014
90	0xbdcaea0f	-0.099079244
91	0xbde50e26	-0.11184339
92	0xbda473db	-0.0802991
93	0xbd1a096f	-0.037606653
94	0x3d955fcc	0.072936624
95	0xbd4571ea	-0.04820434
96	0x3daf6d9e	0.0856583
97	0x3da984bc	0.0827727
98	0x3daf0bac	0.08547148
99	0xbd0e738e	-0.03477817
100	0x3e0652bd	0.131175
101	0x3d490c3a	0.049083926
102	0xbd8f3314	-0.06992164
103	0x3be37c50	0.0069423094
104	0xbcf79702	-0.030223373
105	0xbcfc799b	-0.030819705
106	0xbe21813e	-0.15771958
107	0xbdc09fb0	-0.09405458
108	0x3dcff36a	0.101538494
109	0x3da11247	0.07864814
110	0x3cb7503f	0.022377132
111	0xb8163000	-3.580749e-05
112	0xbde6dca5	-0.11272553
113	0x3dc61b3e	0.09673165
114	0xbd941f8d	-0.0723258
115	0xbdc19543	-0.094522975
116	0xbdca6ed6	-0.098844215
117	0xbd872790	-0.06599343
118	0xbd38e38e	-0.045138888
119	0xbd82706b	-0.06369098
120	0x3d421c20	0.047390103
121	0x3ddb797e	0.10716532
122	0xbd8fc28f	-0.07019531
123	0xbd9bb260	-0.07602382
124	0x3aec0508	0.001800687
125	0x3d52f408	0.051502258
126	0xbdcd13cd	-0.10013542
127	0xbdbdea7c	-0.0927324
128	0xbb899890	-0.004199095
129	0x3daaffb3	0.08349552
130	0xbdf5348b	-0.119729124
131	0x3c777968	0.015104629
132	0x3d861278	0.065464914
133	0x3d7124bc	0.058872923
134	0xbd701923	-0.058617722
135	0x3d54116c	0.051774427
136	0x3d3eb025	0.046554703
137	0xbe0951c7	-0.13410102
138	0x3d849b56	0.064749405
139	0x3d170d21	0.036877755
140	0x3d379d7a	0.044827916
141	0x3d9799f4	0.07402411
142	0xbd833a3e	-0.06407593
143	0xbd888302	-0.06665613
144	0x3dd03dcc	0.10168037
145	0x3d70f196	0.058824144
146	0x3db7b07f	0.08969211
147	0xbdf4578d	-0.119307615
148	0xbcbfa54a	-0.023394246
149	0xbbf85f3a	-0.0075797113
150	0xbd1a5f0a	-0.037688293
151	0x3d4c985c	0.04994999
152	0x3cae737c	0.021295302
153	0x3d3cc3ca	0.046085157
154	0x3beaf740	0.007170588
155	0x3da498cc	0.08036956
156	0xbde64072	-0.11242761
157	0xbc6e10c3	-0.0145303635
158	0x3e0dc756	0.13845572
159	0xbd1b1fd2	-0.037872143
160	0x3c5be2b5	0.01342075
161	0x3c89024c	0.016724728
162	0x3da7192d	0.08159099
163	0xbbb163c0	-0.0054135025
164	0x3c433a1a	0.011915708
165	0xbdd261c5	-0.10272554
166	0xbd0463d9	-0.032321785
167	0xbd159719	-0.03652105
168	0x3d97f3d8	0.074195564
169	0xbbf62ed5	-0.007512907
170	0x3dc8c32b	0.0980285
171	0xbd3ff7cf	-0.046867188
172	0xbdb48de6	-0.088161275
173	0x3dd8b42e	0.105812415
174	0xbdaedca8	-0.085381806
175	0xbdb5459a	-0.08851166
176	0x3d184045	0.037170667
177	0x3d80d31e	0.062902674
178	0x3d06802f	0.03283709
179	0xbd4cdaff	-0.05001354
180	0xbd83a64b	-0.06428202
181	0xbdaf4eff	-0.08559989
182	0xbd54f197	-0.05198821
183	0x3ce696c5	0.028148064
184	0x3d7dc106	0.06195166
185	0xbddc8bb0	-0.10768831
186	0xbc87b470	-0.016565531
187	0x3dd1727f	0.102269165
188	0x3c12234e	0.00891955
189	0x3b7514c0	0.0037396401
190	0x3c9bea40	0.019032598
191	0xbd7388dd	-0.059456695

bias f4 [2]
0	0xbc82ae6c	-0.015952311
1	0xbd8620fb	-0.06549259
