ai/models/tab_encoder_contrastive.pt (torch, 11065 bytes, 8 tensors)

net.0.weight f4 [32, 16]
000000 b5 ad 2c be 3c b5 01 3e 79 48 06 3d 48 b7 5f 3d
       -0.16863139 0.12666792 0.03278396 0.05461815
000010 9e ac 10 3e 66 30 48 be 8f 66 1d be b7 c0 c6 3d
       0.14128348 -0.19549713 -0.15371154 0.09704726
000020 0b fb 3a be 88 7a 14 3e e3 f0 c5 3d f7 42 71 3e
       -0.18259828 0.14499867 0.09665086 0.23560701
000030 87 35 97 be ca 4c 23 bc b8 69 74 be 35 7e 3b be
       -0.29533026 -0.009967038 -0.23868454 -0.18309863
000040 bf 67 85 bd b1 71 4c be 66 38 12 be f4 3c e1 3d
       -0.065139286 -0.19965245 -0.14279327 0.10997954
000050 e0 08 61 3d 80 ba 79 3e d2 55 e8 bd 2c b8 8f 3d
       0.054940104 0.2438755 -0.11344494 0.0701755
000060 a7 66 9e 3e 69 2f 8d 3d 98 55 27 be 69 01 3e be
       0.30937693 0.068938084 -0.16341245 -0.18555225
000070 4a db fa bd 26 7b 82 3e 8d fa 96 bd b6 0c 51 3e
       -0.12248857 0.2548458 -0.073720075 0.20415005
000080 05 62 80 be 53 45 b4 3b 3d 01 05 be d8 bb 67 bd
       -0.25074783 0.005501428 -0.12988754 -0.056575626
000090 8f 92 cf bd 8f 55 33 3c 3a 51 95 3d 60 fe 47 3e
       -0.10135376 0.010945692 0.07290883 0.1953063
0000a0 12 2e 8b bd 67 2a 22 be dc 88 41 be 3f 71 0a be
       -0.067958966 -0.15836488 -0.18899864 -0.13519762
0000b0 cf 61 65 3e 34 4d 30 be aa d3 58 3e df 5b 46 3e
       0.22400592 -0.1721695 0.21174493 0.19370984
0000c0 a0 97 c0 3c 07 15 40 be fb ec 29 be f0 3a bb bd
       0.0235098 -0.18758021 -0.16594307 -0.09142101
0000d0 28 c9 34 bd 2b 95 74 3d 33 e5 63 be 09 01 39 be
       -0.04413715 0.05971257 -0.22255401 -0.18066801
0000e0 c3 4c a3 3d 10 3b 8e 3d 77 3c 12 be e5 b8 44 3e
       0.079736255 0.06944859 -0.14280878 0.19211157
0000f0 bb 1d 54 3e 6f d5 16 be 2f 75 5b 3e 19 9f c5 3d
       0.20714466 -0.14729856 0.2143142 0.09649486
000100 2e cd 99 3e 61 8e 85 3e 9b cd c6 3d 90 53 70 3e
       0.30039352 0.2608519 0.09707185 0.23469377
000110 3c f5 6e be 77 b8 c7 bd 94 bd 57 be 32 ab 17 3e
       -0.23335737 -0.09751981 -0.21068412 0.148114
000120 20 39 9e 3d ae 35 ad bd 9d 00 5b 3e 3a 4e 1b be
       0.077257395 -0.08457504 0.21386953 -0.1516656
000130 57 85 da 3c 6a ab 09 bb ff 8c 04 be 5b e2 ef 3c
       0.02667491 -0.0021006712 -0.1294441 0.02928274
000140 96 0b 25 3e 3c bb 5e 3e d8 ac 05 3e 88 96 44 bd
       0.16117701 0.21751112 0.13054216 -0.04799512
000150 92 bc 0b be ba 01 55 3e 4a 5b 97 3d 9d 53 5e 3e
       -0.13646153 0.2080144 0.07390459 0.21711583
000160 9a a7 87 be 47 4b 82 be a4 6c 97 3d 9c 89 f2 3d
       -0.26495057 -0.25448057 0.073937684 0.11842653
000170 94 46 67 be 87 90 2e be 3b 5c 14 be 25 4a 5e be
       -0.22585517 -0.1704732 -0.14488308 -0.21707971
000180 a0 e6 6d be 02 40 4a 3e 9a 06 05 3e 78 37 2c be
       -0.23232508 0.1975098 0.129908 -0.16818035
000190 e9 16 21 be 3d f6 48 3d f7 c1 b4 3d ea df fd bd
       -0.15731396 0.049062956 0.08826058 -0.12396224
0001a0 e1 21 08 3e be 9c 0f 3e df da fa 3d 18 52 4c be
       0.13294174 0.14024636 0.122487776 -0.19953191
0001b0 f5 d0 28 3e 7b d8 7a be 09 fb ad bd 0a 1c 09 3e
       0.16485961 -0.24496643 -0.08495147 0.13389602
0001c0 79 b9 0a 3e 3f 7c 41 3e ab 66 f5 bd 82 ab 58 3e
       0.13547315 0.18895052 -0.11982473 0.21159175
0001d0 2f 67 cd 3c 5d 2e 30 3b 35 87 47 be af ee 8c 3d
       0.025073616 0.0026883103 -0.19485171 0.06881463
0001e0 40 b4 5a be f2 71 28 bd ea f2 8a be 2c ce 71 3e
       -0.21357822 -0.04112429 -0.27138454 0.23613805
0001f0 e7 5c 5f 3e d8 c9 80 3d 8b 4e 17 be d8 ed 0e be
       0.21812783 0.06288499 -0.14776056 -0.13957918
000200 72 b2 a4 3d 0b 21 0d 3e 12 54 d9 bd 50 72 05 be
       0.08041848 0.13782136 -0.10611738 -0.13031888
000210 a2 d0 2a 3e 69 06 30 3e e2 af 04 be 49 3a b3 3b
       0.1668115 0.17189945 -0.12957719 0.0054695946
000220 35 42 13 3e 29 5a 14 bc dd 90 cf 3d 29 0c 05 be
       0.14380725 -0.009054699 0.10135052 -0.1299292
000230 d4 2b 5c 3e 5d c6 a1 3d ff 45 57 3e 97 e4 37 3e
       0.21501094 0.07899163 0.21022795 0.17958294
000240 da 3e 9e bd 01 42 bd 3c 0e f3 c0 3d ac 1d bc bd
       -0.07726832 0.023102762 0.09421359 -0.09185347
000250 fb 44 5d 3e 64 36 99 3e ba 12 29 be 9f 8d a6 3d
       0.21608345 0.2992431 -0.1651105 0.08132481
000260 81 94 0a be cc 8c a1 bd 8a 6e 14 3e 77 f8 54 3d
       -0.13533212 -0.07888183 0.14495292 0.051994767
000270 1e 52 ed bb 30 fa b3 bd 83 96 41 be 28 8d 2f 3e
       -0.007242455 -0.08787954 -0.18905072 0.1714369
000280 36 37 84 bd 84 15 0f be 37 2b db 3c 98 71 1f 3d
       -0.06455843 -0.13973051 0.026754005 0.03892669
000290 04 53 44 be 24 c5 34 3e ca a8 82 3e d1 92 de bd
       -0.19172293 0.17653328 0.255194 -0.10867847
0002a0 6b c9 36 3e aa 6c af 3d 55 a7 d0 bd e5 b0 70 bd
       0.17850272 0.08565648 -0.10188166 -0.05876245
0002b0 43 7a 4d 3e a6 14 fe 3d 75 a9 ec 3c 8d fa 71 3e
       0.2006617 0.12406282 0.028889397 0.23630734
0002c0 d8 70 a0 3d d4 ba b7 be c7 ff 64 3d dc 9f 49 be
       0.07834023 -0.35884726 0.05590799 -0.19689888
0002d0 de ae d1 bd 26 7c c3 3d 11 83 55 3d db ac bb 3c
       -0.102384314 0.09545164 0.052126948 0.022909572
0002e0 cf 2d 3f be 00 1a 21 3e fe d2 b0 bd fc e1 83 bd
       -0.18669818 0.15732574 -0.086339936 -0.064395875
0002f0 35 37 fa 3c cc a4 3e 3e 50 b7 67 be 47 04 e7 3c
       0.030543903 0.18617553 -0.22628522 0.028200282
000300 d5 a0 07 3e a8 45 05 3e 3d 90 4d 3c 50 74 4d be
       0.13244946 0.13014853 0.012546596 -0.20063901
000310 ed 2e 19 be fa 47 27 3e 27 0e 38 be 5f 27 3a 3e
       -0.14959307 0.1633605 -0.17974149 0.18179081
000320 70 58 4e be 87 67 4f be 83 5e d2 bd 82 a2 e5 bc
       -0.20150924 -0.20254336 -0.10271933 -0.028031591
000330 e9 51 88 be 25 5a dc 3d d6 13 33 3e a7 a9 71 3e
       -0.26624992 0.10759381 0.17488036 0.23599873
000340 25 64 58 bd 7d c0 7b 3e 89 0f 63 3e ec 96 7f be
       -0.05282988 0.24585147 0.22173895 -0.24959916
000350 fb 51 37 3e 36 0d 11 be 68 05 2e bc f9 8d dd bd
       0.17902367 -0.14165196 -0.010621406 -0.10818095
000360 9b 2f 40 3e bb 03 0e be 72 51 71 be 4d cf 0f be
       0.1876816 -0.1386861 -0.23566225 -0.14043923
000370 23 4f 2b 3e d0 b7 e3 3c b1 64 43 be 88 27 7f bc
       0.16729407 0.02779761 -0.1908138 -0.01557339
000380 e0 3b 06 be de 1e 5a 3d 5a e8 b6 3d 90 09 42 bd
       -0.13108778 0.053252093 0.08931036 -0.0473724
000390 18 58 0a 3e a9 ee 34 3e 8c 59 47 be 52 b4 22 be
       0.13510168 0.17669167 -0.19467753 -0.15889099
0003a0 76 28 45 be 9a d8 f7 3d a9 d9 c6 bd d6 60 fe 3d
       -0.19253716 0.1210186 -0.09709484 0.12420814
0003b0 f2 23 72 bd 1a f8 29 3b 9a 0e 09 3e df a0 27 bc
       -0.05911631 0.0025935234 0.13384476 -0.010231226
0003c0 ba 9a bc bc 86 ac 80 bd 5c cb d7 bd 6c 9f 63 be
       -0.023022998 -0.06282906 -0.105368346 -0.22228783
0003d0 21 f1 5a 3e 0d e9 cf bd 7d ba ba bd 49 6b 91 3d
       0.21381046 -0.10151873 -0.09117601 0.07100541
0003e0 a1 c2 3d 3e 6e 2e 81 3e 42 64 82 be f3 64 21 be
       0.18531276 0.25230736 -0.25467116 -0.15761165
0003f0 4a 2f 3a 3e 65 5f 28 bd 65 e9 a7 3d 0a 59 ea 3d
       0.18182102 -0.0411066 0.08198813 0.11442764

net.0.bias f4 [32]
000000 c4 e4 20 3d 03 fb 5b be 2c 2a 16 3e 3b 33 17 be
       0.039280668 -0.21482472 0.14664525 -0.14765637
000010 42 56 03 bd 7d 4e a1 bc cb 06 32 3e 2f a3 4d be
       -0.032064684 -0.019690746 0.17385404 -0.20081781
000020 7e 8f 93 bd b5 99 16 bd 5c 70 c2 bd 8a 21 88 3c
       -0.07205103 -0.03676768 -0.09494087 0.016617555
000030 34 03 5d 3e 70 b7 74 be d5 91 a3 3d a1 06 71 bc
       0.21583253 -0.23898101 0.079868 -0.014711053
000040 63 e9 8a 3d 4b 07 47 be 24 e7 3e 3e 22 02 09 be
       0.06782796 -0.19436376 0.1864286 -0.1337972
000050 6d a4 18 3e df eb 86 bd c9 c3 f5 bd ab 3d 5c be
       0.14906473 -0.065879576 -0.12000234 -0.215079
000060 5a 6a 60 be 32 e0 78 bd 2c 0f 51 3e 37 82 bd 3d
       -0.2191557 -0.060760684 0.20415944 0.09253352
000070 20 08 4e 3e 57 b9 53 bd 22 5e 45 3e 53 79 1b be
       0.20120287 -0.051690426 0.1927419 -0.15183

net.1.weight f4 [32]
000000 56 e4 84 3f ff 87 75 3f 91 29 80 3f 04 6d 7b 3f
       1.0382183 0.9591064 1.0012685 0.9821322
000010 30 2a 86 3f 2f 18 75 3f 00 18 83 3f 72 75 74 3f
       1.0481625 0.95740026 1.0241699 0.9549171
000020 9c 15 70 3f 17 d7 82 3f 6d b7 70 3f 68 c5 89 3f
       0.93782973 1.022189 0.94029886 1.0763369
000030 85 02 87 3f 56 ad 6d 3f ad d6 71 3f 07 b6 8e 3f
       1.0547644 0.92842615 0.94468194 1.11493
000040 23 8d 89 3f 23 7b 77 3f 8c 08 7e 3f 7e 1e 67 3f
       1.0746197 0.96672267 0.9923179 0.902809
000050 68 03 8a 3f 58 8c 71 3f da 5d 86 3f f1 ae 74 3f
       1.078229 0.9435477 1.0497391 0.9557944
000060 1a 85 83 3f a7 32 6a 3f cb ed 81 3f dd 24 85 3f
       1.0274994 0.9148354 1.0150694 1.0401875
000070 70 78 75 3f 1a de 7a 3f 00 8f 8f 3f 63 47 76 3f
       0.958869 0.9799515 1.1215515 0.9620268

net.1.bias f4 [32]
000000 95 c5 83 3d 91 df a5 3d aa 12 7d 3d 6a c8 45 3b
       0.0643417 0.080992825 0.061785378 0.003017927
000010 0e 1c 06 3e 78 66 e0 3c 43 0d 14 3e 2d 29 b4 3d
       0.1309664 0.02739261 0.14458184 0.08796916
000020 48 4a 85 bc 25 3f 96 3d 8a 5f 2b 3d 66 76 8d 3d
       -0.016270772 0.073362626 0.04183916 0.06907348
000030 41 74 a9 3d d0 3b ce 3d c1 01 31 bc 29 39 cd 3d
       0.08274127 0.10070002 -0.010803641 0.10020668
000040 61 da bf 3d c2 54 2d bd c9 1e fc ba 02 82 7e bd
       0.09367824 -0.04231716 -0.0019235249 -0.062135704
000050 f0 72 7a 3d f7 5c 24 bb a5 57 77 3d 42 32 b3 3c
       0.06114477 -0.0025079825 0.06038632 0.02187455
000060 b9 82 94 3d ef c4 3a bd 16 02 4c 3d ca e8 2a 3d
       0.07251496 -0.045597967 0.049806677 0.04172591
000070 22 55 7d 3d 3e 66 b0 3d f9 6f e9 3d ec 9e 89 3d
       0.061848767 0.08613251 0.1139831 0.06719765

net.1.running_mean f4 [32]
000000 d6 d2 4b 3d 8b 5d 80 be cb a2 fe 3d 0d 38 1f be
       0.049761616 -0.25071368 0.12433394 -0.15548725
000010 31 13 4f 3c 5c b0 1a 3d c6 24 1b 3e 59 00 2f be
       0.012638853 0.037765846 0.15150747 -0.17089976
000020 d9 96 b2 bd fd 00 8d bc fa 79 06 be 39 fd fc 3c
       -0.08720178 -0.017212385 -0.13132468 0.030882465
000030 fd 37 7c 3e e6 04 83 be a0 6e 9e 3d 58 9b 97 bd
       0.24630733 -0.25589675 0.07735944 -0.07402676
000040 7b 35 1d 3d b8 d1 7e be 80 b9 30 3e ba bb d0 bd
       0.03838108 -0.24884689 0.17258263 -0.10192056
000050 f1 bc 49 3e 32 95 e4 bd af 83 f6 bd 49 e3 76 be
       0.19700982 -0.11161269 -0.120368354 -0.2411014
000060 4b d0 3a be bd e4 e9 bd 28 01 40 3e c4 90 b4 3d
       -0.1824352 -0.114205815 0.18750441 0.08816674
000070 ad c8 10 3e 03 32 34 bd ac cf 59 3e 8a 18 33 be
       0.14139052 -0.043993007 0.21270627 -0.1748983

net.1.running_var f4 [32]
000000 b0 bc b0 3e f9 b8 d1 3e 2a d4 aa 3e 59 e1 70 3e
       0.34518957 0.40961435 0.33364993 0.23523463
000010 09 77 92 3e 12 6f b4 3e 1a 5b af 3e 65 55 c8 3e
       0.28606442 0.3524099 0.34249192 0.3912765
000020 18 60 15 3f f6 de 8d 3e b2 e0 92 3e 60 b5 9e 3e
       0.5834975 0.27709168 0.28687054 0.30997753
000030 1c b1 6d 3e f1 64 99 3e d2 42 16 3e f9 cb b9 3e
       0.23212093 0.29959825 0.14673927 0.3628843
000040 3a ad 88 3e df eb 5a 3f 91 2e 36 3e 45 40 86 3e
       0.2669466 0.8551616 0.17791201 0.2622091
000050 a9 70 59 3e 6d 8f 38 3f 7d 31 5a 3e d4 92 8c 3e
       0.21234383 0.7209385 0.21307941 0.2745577
000060 7a 7f 46 3f 8d 5a a5 3e dc cb 5b 3e 62 68 1e 3e
       0.77538264 0.32295647 0.21464485 0.15469506
000070 40 02 2e 3f ed 92 a7 3e 7a c9 24 3e 47 e9 ac 3e
       0.67972183 0.32729283 0.16092482 0.33771726

net.4.weight f4 [32, 32]
000000 7b 6d 4e be ac 32 d7 bd da 43 a1 bd 11 09 d8 bb
       -0.20158951 -0.10507712 -0.0787427 -0.0065928777
000010 b1 d8 5c bc e2 1f ca bd 46 9f 10 bc e6 c1 a2 ba
       -0.013479398 -0.098693624 -0.008827036 -0.0012417405
000020 c0 94 0b be 52 5f d2 bc 67 67 73 bd b9 92 99 bd
       -0.13630962 -0.025680218 -0.059424784 -0.07498688
000030 d6 70 28 3d a2 17 92 3d 41 90 a0 bc f3 2a fa 3c
       0.041123234 0.07133414 -0.019600036 0.030538058
000040 07 93 e4 bd 1c 56 34 3c f2 29 0d be 70 bc 2c be
       -0.11160856 0.011006858 -0.13785532 -0.16868758
000050 98 a4 92 bd b3 e4 c9 bc 23 f3 1d 3e 37 3f 07 bd
       -0.071603 -0.024645185 0.1542478 -0.03301927
000060 8c 25 e8 3c 19 44 e8 bb 66 7b c3 bc 3f e7 54 bd
       0.028338216 -0.007088196 -0.023862552 -0.051978346
000070 b0 f8 9b bd 34 75 30 3d b1 f9 75 bc 4a b4 84 bd
       -0.07615793 0.043080524 -0.015013144 -0.064797
000080 53 28 52 be 7b 36 b5 bd 31 4c 23 be d2 b8 06 be
       -0.20523195 -0.08848282 -0.15947033 -0.13156441
000090 de c6 94 3d b6 4a 17 bd 0c a0 c3 3b 18 74 02 be
       0.072644934 -0.036936484 0.005970007 -0.12739599
0000a0 68 a9 ba 3c e6 cb ad bd 6c fe 77 bd 2e 3c 62 bd
       0.022785857 -0.08486156 -0.06054537 -0.055233173
0000b0 0a d7 b3 3c eb 3b 17 be ce 50 ed 3b 85 67 05 be
       0.021953125 -0.1476895 0.0072422987 -0.13027771
0000c0 a0 77 b8 bd 19 1e 3f be 94 93 c5 3c d7 e8 36 bd
       -0.09007192 -0.18663825 0.024118222 -0.044655647
0000d0 2d 82 2b 3d f8 80 e0 bd 43 7b 0d 3e 66 20 fe bc
       0.041872192 -0.10962099 0.13816552 -0.031021308
0000e0 d7 6e cd bd 84 d2 9c 3d 88 74 f7 3c 83 34 40 be
       -0.10030907 0.0765734 0.030206934 -0.18770032
0000f0 16 26 14 be cd 03 ef 3d 2e 4d 22 be 7f 08 2d bd
       -0.14467654 0.11670647 -0.15849754 -0.04224443
000100 e9 3f a1 bd 6c 8f 2f be bf d9 3b 3d 03 38 3c 3d
       -0.07873518 -0.17144555 0.045861956 0.045951854
000110 60 6f df bd 6b 07 27 be 16 1d 3e be 4a 9d 86 bd
       -0.10909915 -0.16311423 -0.18565783 -0.06572969
000120 87 17 36 3d ab 04 2b be e4 37 f0 bc 7c 9c 22 38
       0.04445603 -0.16701 -0.029323526 3.8769547e-05
000130 48 6b a3 bd dc 32 14 be 23 30 03 3d 3d 3c 01 be
       -0.07979447 -0.14472526 0.03202833 -0.12620635
000140 c9 6b 18 bb 86 c1 39 be 52 00 d5 bd e9 9c 25 be
       -0.0023257604 -0.1814023 -0.10400452 -0.16173138
000150 e2 f4 91 bd ac 45 64 3d 57 2b 7f be 26 bb 78 bd
       -0.07126786 0.055730507 -0.24918877 -0.060725354
000160 1b cc 82 bd 58 52 0c 3d b9 17 d3 3b 6c ba ee 3c
       -0.06386586 0.034258217 0.006442037 0.029141627
000170 98 0c 50 3d 24 1d 1d be 30 0a 9d 3c 52 5f 61 bd
       0.05079326 -0.15343148 0.019169897 -0.055022545
000180 38 d6 11 bd ac ac a5 bd 4b ab 15 3d 55 e3 08 be
       -0.035604686 -0.08089575 0.03654031 -0.1336797
000190 d6 36 e5 3d 00 03 01 3e 3b b1 33 3d 34 9f 99 bd
       0.111921 0.125988 0.043870192 -0.07501069
0001a0 06 74 3a bd 6a 21 d3 3c 77 c1 14 3c 26 3a f8 bd
       -0.045520805 0.025772769 0.009079329 -0.12120466
0001b0 5d 34 9b 3b 96 29 b1 bd 26 8b ec bd d5 59 37 bd
       0.004736467 -0.0865051 -0.11549978 -0.044763405
0001c0 f4 2d 8a 3d 4f d6 4a 3c d5 1c d5 bc f8 a2 8a bd
       0.06747046 0.012380197 -0.026014725 -0.06769365
0001d0 49 70 32 3d ca ff 0f be a3 62 41 3d 4a bb 20 bd
       0.043564115 -0.1406242 0.047213208 -0.039241113
0001e0 78 1f 20 be 97 f3 99 3d ef 33 08 be 4d 9a 8f bd
       -0.15637004 0.07517164 -0.13301061 -0.070118524
0001f0 94 b2 01 be ed 81 92 3d f3 d2 a6 bd b1 7e 1b bd
       -0.12665778 0.071536876 -0.08145704 -0.03796262
000200 6e 32 c9 3c b8 ab 57 3d da 0a 34 3d f6 2a 63 3d
       0.02456018 0.052653998 0.04395566 0.055460893
000210 2d 3f 29 be 5f 50 0f be 67 c0 90 bd 56 68 ae bd
       -0.16528006 -0.13995503 -0.07067948 -0.08515994
000220 0a 3f 39 bd 20 d8 31 be 0d 4b 32 be 80 07 02 3d
       -0.045226134 -0.17367601 -0.17411442 0.031745434
000230 a7 94 ad bc 1b 34 1a bd fa e6 81 3d 73 39 e6 3c
       -0.021189047 -0.037647348 0.063428834 0.028103566
000240 c1 e9 df bb 33 06 87 3d 69 13 e8 3d 38 27 c4 bd
       -0.0068332856 0.06592979 0.11331827 -0.09577793
000250 1b d7 64 bb 1d df 12 bb 38 e8 4f bd 1d ec a9 bd
       -0.0034918252 -0.0022410818 -0.05075857 -0.08296988
000260 9e f3 ea bd 76 e6 21 be 71 16 55 3b 67 02 19 3e
       -0.114722475 -0.1581057 0.0032514597 0.14942323
000270 4c 96 a8 bd 84 6e 12 3d a1 5c 58 bd 61 a4 a2 bd
       -0.08231792 0.035749927 -0.052822713 -0.07941509
000280 b2 8e 01 bc 93 97 cf bd 8a 3c 3d be 1c 92 33 3d
       -0.007907556 -0.10136332 -0.18480125 0.043840513
000290 b9 9e 06 bd 83 c1 93 3d c4 1c a2 3d 73 8e 3b bd
       -0.032866213 0.07214644 0.07915643 -0.045790147
0002a0 39 d0 3e 3d cc 1e 08 bc b8 93 ec bd ed eb a6 3c
       0.046585295 -0.008308124 -0.115516126 0.02037617
0002b0 ec 8a 00 3e 64 94 66 bc 55 c3 46 3d 48 f5 ed bd
       0.12552994 -0.014073465 0.048526127 -0.11619049
0002c0 bb 2e 34 3d 53 2f 2e 3d 8c 3a 75 bd 8b 60 89 3d
       0.04398988 0.0425256 -0.059870288 0.06707867
0002d0 9e f1 91 bc 35 58 09 3d d7 d2 9f bd 3b a6 46 bd
       -0.017815407 0.033531386 -0.078038864 -0.048498373
0002e0 66 b3 9e bc af 9d 16 3c 19 37 fa bc 27 ce 3b be
       -0.019372653 0.009192868 -0.03054385 -0.1834036
0002f0 eb 15 9e 3d 33 ee 90 3d ea 75 a7 bd 29 2d 8c bd
       0.07719024 0.07076683 -0.08176787 -0.06844551
000300 33 e0 c4 3b ec ad 1e 3e 22 3a f7 3c 10 b7 6b bd
       0.006008172 0.15496033 0.030179087 -0.05754763
000310 6b 8e c3 3d 85 b0 1b 3e b7 9b 53 3e ab 46 c2 3d
       0.095486484 0.15204056 0.20664869 0.09486135
000320 a1 2b e0 3d ec ac de 3d 7c 62 be 3d 3e 53 92 3d
       0.109458216 0.10872826 0.09296128 0.071447834
000330 98 59 19 3e e5 1b 1b 3e 35 50 f6 3c 00 6a 94 3d
       0.14975584 0.1514736 0.030067543 0.072467804
000340 52 e9 45 3e e3 68 18 3e 1e f0 b0 3c 0a 57 43 3e
       0.19327286 0.14883761 0.021598872 0.19076172
000350 4b a5 9e 3d 04 21 a8 bd de 9a 0b 3e c2 11 80 3d
       0.07746371 -0.08209422 0.13633296 0.06253387
000360 16 0f d9 3d 88 bd 34 bc cf 29 3b bd 4e cf 45 3b
       0.105985805 -0.011031516 -0.04569417 0.0030183378
000370 94 ad 97 bc 0e 5c 22 3d fb 0e 5e 3d d6 7b d4 bc
       -0.018515386 0.03963857 0.054213505 -0.025937956
000380 0c 2c 9a 3d 05 96 b3 3d 0e 98 73 bc ef a7 f2 bc
       0.075279325 0.08768848 -0.014867796 -0.029621093
000390 e7 a6 3f 3d e3 f7 04 be f2 3b b9 3c 19 dd 5f 3d
       0.04679003 -0.12985186 0.022611592 0.054654215
0003a0 bb 8a ed 3d cb c6 24 3c 08 9f 0f 3e 22 50 c5 3d
       0.11598726 0.010057162 0.1402551 0.09634425
0003b0 41 d8 d0 bd 11 22 23 bc 20 c5 16 3d bb eb ce 3d
       -0.10197497 -0.0099568525 0.036809087 0.10103556
0003c0 c8 14 f4 3d ce a7 b1 3d c1 5c ad 3d a8 46 d7 bc
       0.11918026 0.08674584 0.08464957 -0.026278809
0003d0 dc a8 0a 3e 98 2d 35 3e cf 2b 26 bd 8e 38 5e 3d
       0.13540977 0.17693174 -0.040569123 0.054253154
0003e0 f7 38 33 3e 35 51 1f 3d 20 22 22 3e f4 9a 36 3e
       0.17502199 0.038895804 0.1583333 0.17832547
0003f0 65 7f a1 bd 0e 5c 89 3d cf 88 aa 3d f1 4f a7 3d
       -0.07885627 0.06707011 0.083268754 0.081695445

net.4.bias f4 [32]
000000 0d a6 0e be ed 06 35 be 40 2f 25 be 2c 71 4b bd
       -0.13930531 -0.17678423 -0.16131306 -0.049668476
000010 01 33 2c be aa 01 08 bc 27 28 4e 3e c0 8e 59 3e
       -0.16816331 -0.008301178 0.20132504 0.21245861
000020 7d f7 4b 3e 9c c9 7f 3e f2 2a 31 3e 52 fb 28 3e
       0.19918628 0.24979252 0.17301539 0.16502121
000030 87 1d 2e 3e c3 9e 71 ba e4 ae 71 3e 57 a4 0e be
       0.17003451 -0.0009217078 0.23601872 -0.13929878
000040 ac b7 5d bd 89 2a f3 bd 9a 09 01 be 26 29 38 3e
       -0.05413024 -0.11873347 -0.12601319 0.17984447
000050 0c 93 75 3e 94 33 86 3d 9c 75 42 bd d9 78 06 be
       0.23981875 0.065528065 -0.047475442 -0.13132037
000060 87 6e 9a bd ba 73 46 3e f1 12 0f 3e f7 84 04 3e
       -0.07540613 0.19380084 0.1397207 0.12941347
000070 39 e6 d6 bc e1 bc 6e 3e fc 3b ac 3b 68 39 0a 3c
       -0.026232826 0.23314239 0.005256174 0.008436538
