ai/models/ts_encoder_contrastive.pt (torch, 67359 bytes, 8 tensors)

lstm.weight_ih_l0 f4 [128, 28]
000000 a4 3a 66 bd d1 a1 39 3d 1f 67 0f bd f1 ac c6 bd
       -0.056208268 0.045320336 -0.035010453 -0.09700955
000010 ed 2f bb bc 19 bc e3 3d fd 62 af 3c a0 42 b2 bd
       -0.022850001 0.11119861 0.021409506 -0.08704114
000020 a8 29 38 3e 10 19 4d 3d 6e 97 a8 bd 5b 73 18 3d
       0.1798464 0.05007273 -0.08232008 0.037219387
000030 f8 b3 1d bd 89 d7 8a bd 84 33 51 3d c5 45 04 3e
       -0.03850171 -0.06779391 0.05107452 0.1291724
000040 61 00 86 bd 73 64 27 3d 67 ba 86 3d 02 48 c1 bd
       -0.06543041 0.04086728 0.06578522 -0.094375625
000050 06 de 1a 3e ec 17 13 3a 80 88 a1 bc 6e fc d7 bd
       0.15123758 0.00056111696 -0.019718409 -0.10546194
000060 c4 d8 f6 bd 5d 86 ae bc 6e 62 e8 3d ee cb 82 bd
       -0.120530635 -0.021304304 0.11346899 -0.06386553
000070 a9 53 bf bd 30 4c 53 3d 4c c3 43 bd be 50 f1 bd
       -0.09342129 0.05158633 -0.04779367 -0.117829785
000080 46 b4 a8 bc f3 d1 d3 3d 01 7f 91 3c 49 95 59 bd
       -0.020593774 0.10342779 0.017760755 -0.053120885
000090 29 03 07 3e 46 41 a4 bd cd e2 5d ba 11 47 37 3d
       0.13184799 -0.080202624 -0.0008464277 0.04474551
0000a0 99 cb 86 3d 5d 61 ec bc 45 9c cb 3d 4b 2a 43 3e
       0.06581802 -0.02885502 0.099419154 0.19059102
0000b0 53 2e 2a bd 34 08 03 be f7 8d 9c 3d 02 f3 33 3c
       -0.041548084 -0.12796098 0.07644265 0.010983231
0000c0 08 81 0d bd 83 23 89 bd 61 85 db bc 80 fe ce bd
       -0.034546882 -0.066962264 -0.026796998 -0.10107136
0000d0 60 6b 18 be ea 48 a9 bd 5c a6 f7 3d 21 54 dd bd
       -0.1488471 -0.082658604 0.120922774 -0.10807062
0000e0 de b2 aa bc a5 c2 ae bc 78 ab 0a 3e 94 3c 9c 3d
       -0.020837244 -0.021333048 0.13541973 0.07628742
0000f0 8a b9 3d 3e 2c b2 57 bd 59 89 34 3d 5d 6f 31 3d
       0.18527809 -0.052660152 0.044076297 0.043319095
000100 63 23 bf 3d cf 4f 9e 3b 6a ea 31 3e 01 a7 26 be
       0.09332921 0.0048312913 0.17374578 -0.16274644
000110 f6 de 59 bd 75 80 28 3d 9b 9c 71 bd 95 5c 1d be
       -0.053191148 0.04113813 -0.05898724 -0.15367348
000120 60 46 a4 3c 01 41 0e be b1 58 ad bd f4 9b a7 bd
       0.020053089 -0.13891985 -0.08464182 -0.081840426
000130 79 3d 2a 3e 1e 8c 04 be ae c5 07 be e9 7c 94 3d
       0.16625012 -0.12944075 -0.13259003 0.07250387
000140 94 40 37 bd 7c 1a 8b 3d db 13 ae 3c 75 ed e1 bd
       -0.04473932 0.06792161 0.021249702 -0.110316195
000150 71 32 38 3e 2c b4 45 bd 7b fd a7 3d b0 3f 4b 3e
       0.17987992 -0.04826753 0.082026444 0.19848514
000160 bb 52 41 bc aa a4 a0 bd 4d 92 48 3e b6 4b 31 3e
       -0.01179951 -0.07843907 0.1958706 0.17314038
000170 4a aa cb 3c 58 41 fc bd 32 58 12 3e 05 b1 e8 bc
       0.024861474 -0.12317151 0.14291456 -0.028404722
000180 09 d5 64 be d9 89 18 3e 3b 9e 36 bd f0 e3 ad bc
       -0.22346891 0.14896335 -0.044584494 -0.021226853
000190 29 f0 14 3e 29 74 2e be 60 b3 a7 3d 2d 11 c1 bd
       0.14544739 -0.17036499 0.0818851 -0.09427104
0001a0 f8 45 4d 3d 29 77 2f be 7d 10 09 bd 3b 75 de bd
       0.050115556 -0.171353 -0.03346299 -0.10862204
0001b0 7a f7 c9 3d 8f 4a ec 3d c4 fd d3 3d 88 96 31 be
       0.098616555 0.115376584 0.10351136 -0.1734258
0001c0 83 46 6a 3d 69 19 08 be da 14 aa bd 78 81 d6 3d
       0.05719615 -0.13290943 -0.08304758 0.10473913
0001d0 01 ee c4 bd 31 fb 07 bd 6e 97 0a 3d 36 ed 9f 3d
       -0.09615708 -0.03319854 0.03383582 0.07808916
0001e0 cf e9 3a 3d da 0e ad bd 24 fb 49 3e c3 17 81 bc
       0.045633134 -0.08450098 0.19724709 -0.0157584
0001f0 c1 c3 f6 3d e6 88 51 bd ed b2 b9 bd 6b 4b 19 bd
       0.12049056 -0.051155947 -0.090673305 -0.03742544
000200 6d cb d4 3d 30 6f ca bd b4 b8 e6 3d 61 15 99 bd
       0.10390363 -0.098844886 0.11265698 -0.07474781
000210 ff 8c a5 bc eb 5d b0 3a 5d 70 35 3e f4 be 1e 3e
       -0.020208834 0.0013455724 0.17718644 0.1550253
000220 7d 78 45 bd 04 99 1e 3e 0b ed a5 3d 6c 82 96 bc
       -0.04821061 0.15488058 0.08101853 -0.018372737
000230 3a fb 76 bd 79 77 97 bd f1 2c 07 be 57 e6 0b bd
       -0.060298182 -0.073958345 -0.13200738 -0.034155216
000240 75 95 03 3e 2b e4 6c bd d9 3c 09 3d 76 61 84 3d
       0.12849982 -0.057834785 0.033505294 0.06463902
000250 3e a8 94 bd 72 aa 5c bd 4e d3 28 3d ca 4e c9 3d
       -0.07258652 -0.053873487 0.04121714 0.09829481
000260 15 3a 85 3d 27 55 13 be ec 14 b4 3d 4c c6 95 3d
       0.06505219 -0.14387952 0.08793053 0.07313213
000270 e1 eb bd bd fb 7b dd bc 9b 7e 42 bd 45 13 45 bd
       -0.09273506 -0.027036658 -0.04748402 -0.04811408
000280 20 93 06 be 36 72 b8 bd 13 56 16 3e b6 f1 d0 3b
       -0.13142061 -0.09006159 0.14681272 0.0063764704
000290 71 ee 0b 3e 08 b7 e2 bd b9 30 0a bd bf 83 13 bd
       0.13665177 -0.11070067 -0.03373787 -0.036014315
0002a0 49 55 97 3d e8 53 51 bd 14 a5 c8 bc 90 cb 88 3d
       0.07389314 -0.05110541 -0.024492778 0.066794515
0002b0 31 1f 96 3d f9 1d e9 3b d9 83 23 bd 35 30 6b 3d
       0.07330168 0.0071141687 -0.03992066 0.05741902
0002c0 aa dd cd bd f9 d6 1e be 20 ff fc 3d c3 3f e3 bd
       -0.10052045 -0.15511693 0.12353349 -0.11096146
0002d0 0a 31 cd 3d 49 7c 04 3e ba 8a fc bd f6 78 a9 bc
       0.10019119 0.12938036 -0.123311475 -0.020687561
0002e0 9d 42 85 bc 4a 22 da 3d 66 61 49 3d 48 a9 af 3c
       -0.016267115 0.10651071 0.049165152 0.021443024
0002f0 52 a5 cd 3d cb 6c 36 bd 59 b6 e1 bd 75 2d ed bd
       0.10041298 -0.044537347 -0.11021108 -0.11580936
000300 fc 72 8c bd a3 c8 9e bd b3 91 0a 3e 87 46 ca bd
       -0.06857869 -0.07753112 0.13532142 -0.09876733
000310 4f d2 1f bd 31 32 8a bd 93 93 81 3d eb 50 e5 bc
       -0.039018925 -0.067478545 0.06326976 -0.027992686
000320 e4 62 73 bc 7a ba 53 3d 82 8b 92 bc 1f b5 3a bd
       -0.01485512 0.05169151 -0.017888788 -0.045582887
000330 08 67 21 3e 4f 82 10 be f7 aa e0 bd 50 f3 03 bc
       0.1576196 -0.14112209 -0.10970109 -0.008053616
000340 6d 4a b1 3d bb a2 0c be 8a 7e 17 3e 0f 72 a3 bd
       0.08656774 -0.13733952 0.14794365 -0.07980739
000350 ce 4c 13 3d 1b 95 c5 3d 21 c0 49 bd d7 3f 10 3d
       0.03596192 0.0964758 -0.049255494 0.035217132
000360 6a 47 c9 3d 0b a6 2b ba 75 78 23 3c 97 d5 f1 bd
       0.09828074 -0.00065478747 0.00997745 -0.11808317
000370 36 a0 09 be d8 77 7a 3d 43 61 c7 3d 3d db 38 be
       -0.13440022 0.06114945 0.09735348 -0.18052383
000380 4d 16 0e be 0a 1e 9f bd 85 cd ea bc cd 43 04 3e
       -0.13875695 -0.07769401 -0.028662452 0.12916489
000390 62 a2 55 3d 7a fc 83 3d 93 21 94 bd 98 7b 56 bc
       0.052156813 0.064446405 -0.07232966 -0.0130909905
0003a0 63 8b 5d 3d 7f c9 8c bd 35 b4 2d bd 32 ae 87 bb
       0.054088008 -0.0687437 -0.042408187 -0.0041406387
0003b0 d3 02 5a be a7 2e 68 bd 4e ed 91 3d f6 a0 36 3d
       -0.2129014 -0.056685116 0.071253404 0.044587098
0003c0 2b 8f 96 3c 4f 63 10 3e 29 2e 18 3d 23 55 a5 bd
       0.018378815 0.14100383 0.037153397 -0.08072879
0003d0 2c 93 ef bd df e4 17 3d 33 e5 b8 bc e1 8d c2 bd
       -0.11697993 0.037083503 -0.022570228 -0.094997175
0003e0 81 ad 00 3e ca 1c 2c 3d 34 7c 00 bd 30 e2 a7 3c
       0.12566186 0.042019643 -0.03136845 0.020493597
0003f0 89 4e ac bd 8e 30 79 3d 95 4b d6 bd ea 3d 74 bc
       -0.08413417 0.06083732 -0.10463635 -0.01490734

lstm.weight_hh_l0 f4 [128, 32]
000000 03 f5 cd bd 28 c5 b9 bd 45 2e 07 be 68 bf 05 3e
       -0.10056498 -0.09070808 -0.13201244 0.13061297
000010 53 f1 ea bd d4 b7 59 bc 77 f8 30 3e dd c3 2f 3e
       -0.1147181 -0.013288457 0.17282282 0.1716456
000020 ba 0e 18 3e a4 61 10 3d 76 0c b6 bd 51 e9 00 be
       0.14849368 0.035249367 -0.088890955 -0.12589003
000030 6f 62 0a 3e c7 b1 da 3c b8 21 11 be ca 5a 33 3d
       0.13514112 0.026696099 -0.14173019 0.043787755
000040 c9 9e d6 3d 82 d4 60 3d 2e 13 79 3d 3f 4f fb bd
       0.104795046 0.054890163 0.060809307 -0.12270974
000050 af 97 b3 3a b5 46 e1 3b d5 71 3d be 5f 76 97 3d
       0.0013701821 0.006874884 -0.18500455 0.07395624
000060 29 cf b9 3d c9 af 49 3e 21 b7 cb bc 8e 60 ad bd
       0.09072716 0.19695963 -0.024867596 -0.08465682
000070 34 db 17 be a2 2e f7 bd 70 10 2e 3d 23 e7 af bc
       -0.14829713 -0.120694414 0.042496145 -0.02147252
000080 57 36 1d 3d 5d 74 30 3d d4 91 03 3e c1 b5 c1 3d
       0.0383819 0.043079723 0.12848598 0.09458495
000090 0e 6f 03 3d 56 91 bf bd 64 20 19 bd 19 20 49 bc
       0.032088332 -0.093538925 -0.037384406 -0.012275719
0000a0 bc 95 16 3e 01 3f dd bd 88 ff 02 3e 96 c3 1a 3e
       0.14705557 -0.10803033 0.1279279 0.15113673
0000b0 10 11 a3 bd 22 9c a9 3d ca 00 1d bd 80 4d 98 3d
       -0.07962239 0.08281733 -0.03833083 0.07436657
0000c0 3d 86 61 3e 86 f9 2b 3e 3c 51 69 3e 98 2d 63 be
       0.22023864 0.16794404 0.22784895 -0.22185361
0000d0 cd 7a 43 bd b8 a1 65 be c8 22 f2 bd 50 c0 68 3e
       -0.047724534 -0.22424972 -0.1182304 0.22729611
0000e0 9d 05 1b 3e 62 fc 38 3e 14 ee 3c 3e 4f 0f cc bd
       0.1513886 0.18065026 0.18450195 -0.099638574
0000f0 72 a9 87 3c 0a df a0 3c 66 be ff bb 04 aa 68 3e
       0.01656029 0.019637603 -0.0078046797 0.22721106
000100 ae 7c b6 3b ec 88 d1 bd 51 2d c7 3d dc 90 ce bc
       0.005569062 -0.10231194 0.0972544 -0.025215559
000110 91 4c 09 3e ee 5e 36 be 4d 81 53 3d ec e4 65 3d
       0.13408114 -0.1780965 0.051636983 0.05612652
000120 20 3f 1c 3d 5b fc e8 3d f7 c5 0f be 7d b2 4b 3e
       0.03814614 0.11376258 -0.14040361 0.19892307
000130 0c 8b c8 bd ee 36 1c 3e e5 e6 53 bd 47 ab ac bd
       -0.09792146 0.15255329 -0.05173387 -0.08431106
000140 f5 fb b5 bd 40 81 a4 3d 8a 60 b5 bd 1e a8 77 bd
       -0.088859476 0.08032465 -0.08856304 -0.060463063
000150 22 7f 24 3e ae b4 10 be 27 d1 71 bc 1b 8d 06 bd
       0.16064122 -0.14131424 -0.014759338 -0.032849412
000160 fe 76 2d 3e bd 67 34 bc fe 7b 61 bd 39 8b c3 3c
       0.16939923 -0.011011061 -0.05504989 0.023870097
000170 91 7b d2 bd fb 87 04 be e2 c9 1d 3e 7a f1 ec 3d
       -0.10277475 -0.12942497 0.15409043 0.115694955
000180 a8 e8 ed 3d 94 2d 11 3d fb 91 05 be 64 86 23 bd
       0.11616641 0.035443857 -0.13043968 -0.039923087
000190 b8 13 f4 bd 73 db 14 be 91 fd 68 3c 2f 64 0a be
       -0.119178236 -0.14536838 0.014220611 -0.1351478
0001a0 70 be 18 3c df c9 e2 bd 8c c9 3f be fd 01 9d 3a
       0.009322748 -0.1107366 -0.18729228 0.0011978742
0001b0 6d 3a 0a bb 9c c7 2b 3e 30 60 02 3e 27 c3 09 be
       -0.0021091953 0.16775364 0.12732005 -0.13453351
0001c0 0b 07 0f 3e fb 91 15 3e 95 75 ce 3d 21 85 1f bd
       0.1396753 0.14606468 0.10081021 -0.03894532
0001d0 87 87 44 3d ee a0 a5 3d d0 9d c7 3d bf 30 89 bb
       0.04798081 0.080873355 0.09746897 -0.004186719
0001e0 7f 50 86 3d 21 68 9a 3d 11 97 12 3e 3c cb 38 3d
       0.06558322 0.07539392 0.1431544 0.045115694
0001f0 ea a8 10 3c b5 a3 b1 bd f3 a4 8e 3d 37 f6 38 3e
       0.008829335 -0.08673803 0.06965055 0.18062674
000200 93 a9 8c 3e 61 78 2f 3e 50 e0 85 3e ab 83 b8 3d
       0.27473125 0.17135765 0.261477 0.09009489
000210 31 a3 cd bb dd 98 14 3e 63 8a 48 3e c7 62 3f 3e
       -0.0062755574 0.14511438 0.1958404 0.18690024
000220 91 de 74 3d 68 3e 92 bd 03 db 91 3e 50 06 d1 3c
       0.05978257 -0.07140809 0.28487405 0.025515705
000230 c6 4e 92 be 22 d6 d4 bd 94 e7 98 bd a7 0d 15 3d
       -0.28575724 -0.10392405 -0.07466045 0.036389973
000240 1b 0b 4b 3e dc 54 9a bd f7 85 07 3e 6c 16 43 be
       0.19828455 -0.07535717 0.13234697 -0.19051522
000250 af 29 49 3c 05 8c bf bd d6 9b 85 3e 7d 77 31 3d
       0.012278005 -0.093528785 0.26095456 0.043326844
000260 bb f3 bd 3d 28 c1 a6 3e 19 db 43 3e 0b 96 dd 3d
       0.092750035 0.32569242 0.19126548 0.10819634
000270 2d 0b ac bc ff 99 94 be 40 93 97 3e 5d ff 1a 3e
       -0.021001423 -0.2902374 0.2960453 0.15136476
000280 6b d9 a6 3d 43 f2 3e 3e 2f 6d 9d 3d 31 4d 99 3e
       0.08146938 0.18647103 0.07686841 0.29941705
000290 e8 c6 ab 3e 36 ba b7 3e 8e 97 17 3d a2 2b 9a 3e
       0.3355019 0.35884255 0.03700977 0.30111414
0002a0 cf a9 50 3d 7d 0b 03 bc 18 b1 70 3e 52 1a 41 be
       0.050943192 -0.0079983445 0.23505056 -0.18857697
0002b0 d1 6c 1d be 85 c6 99 be 2f 98 e3 bd e0 5e bb bd
       -0.15373541 -0.3003427 -0.11113011 -0.09148955
0002c0 1b 59 97 3d 1f 42 87 3e 25 57 95 3e 93 68 02 be
       0.073900424 0.26417634 0.29168049 -0.12735204
0002d0 56 3d 5a 3d d2 d0 96 be aa 0d c7 3c 35 e6 97 3e
       0.05328115 -0.29456192 0.024298508 0.29667822
0002e0 fa 74 3b 3e 42 3c ab 3e 1c 8c 8f 3e 69 63 1a 3e
       0.18306342 0.3344441 0.28036582 0.15076984
0002f0 52 d1 64 be 94 3f 2d be 5e 3d 13 3c 51 cf 68 3e
       -0.22345474 -0.16918784 0.008986799 0.22735335
000300 4e d1 ec 3d 57 91 a2 3e b9 3b ac 3d 55 c2 12 3d
       0.11563359 0.3175151 0.08409829 0.03582986
000310 e9 e0 1d 3e a8 68 eb 3d f1 0b 2c 3e 98 78 ff bc
       0.15417828 0.11494571 0.1680143 -0.031185433
000320 69 30 f1 3d 1c 12 ec bd 40 55 9d ba 74 d5 0e 3e
       0.11776812 -0.115268916 -0.0012003556 0.13948613
000330 3b 96 00 be 59 cc 18 3c f6 84 52 bd 2d c4 e0 3d
       -0.12557308 0.009326064 -0.051396333 0.109749176
000340 07 5e 89 3e c2 c4 dc 3d 6f 53 cc 3d 7a 2c 61 bb
       0.2682955 0.10779716 0.09976851 -0.0034358785
000350 d0 da f4 bd 67 09 88 be 0d a9 69 3e 4d ef e9 3d
       -0.11955798 -0.26569673 0.22818394 0.11422596
000360 cf e1 1e bd 48 94 23 3e 9c 6e 73 3e 2e 00 a0 3d
       -0.038789567 0.15974534 0.23772663 0.07812534
000370 24 17 ce bd 19 d3 8a be 48 6e 56 bd 1b 82 8a bc
       -0.100630075 -0.2711418 -0.052351266 -0.016907742
000380 c6 2f 67 3e 2d 81 c4 bd 9b 5e 84 3d a1 2e 88 3d
       0.22576818 -0.09594951 0.06463357 0.06649519
000390 56 85 33 3e 71 0a 69 3d 4c 15 ab 3d b5 4a ab bd
       0.17531332 0.056894723 0.083536714 -0.083638586
0003a0 e7 03 35 bd ad 94 a5 bd 0f e5 2e 3e df 67 04 be
       -0.044193175 -0.08084998 0.17079566 -0.12930249
0003b0 29 e5 3c be 71 ef 78 bc db 11 6c 3c 0a 91 1c be
       -0.18446793 -0.015193806 0.014408554 -0.15289703
0003c0 5d 15 2c 3e b7 5b e0 3d ec b5 3b 3e e6 ca 51 bd
       0.16805024 0.10954993 0.18331116 -0.05121889
0003d0 ad b1 7c 3c 4f e9 93 3c ce 2c 77 3d 24 b9 bd bd
       0.015423221 0.018055586 0.060345463 -0.092638284
0003e0 1d 61 10 3d 62 8c b5 3d c8 5a 83 bc 30 22 7e 3d
       0.035248864 0.088646665 -0.016034499 0.062044322
0003f0 01 13 5c be 81 02 c4 bc ec 7c f3 3d 1d 67 c2 bd
       -0.21491624 -0.023926975 0.11889061 -0.094923235

lstm.bias_ih_l0 f4 [128]
000000 41 9d 11 3e 63 79 c3 3d 5c 8c 34 be 0d b9 70 3d
       0.14220144 0.09544637 -0.17631668 0.05877023
000010 d8 8b 33 3d 2a e2 b4 3c 0c 3f 10 ba c6 87 4a 3e
       0.043834537 0.0220805 -0.0005502559 0.19778356
000020 6c 61 06 be 00 f0 b5 3d b4 dd ca 3d b4 0c 9f 3d
       -0.13123101 0.08883667 0.09905568 0.07766095
000030 5c 2b 04 3e 60 ac 00 3e eb f3 47 bd 74 fa b2 3d
       0.12907165 0.12565756 -0.048816603 0.087391764
000040 c5 a8 7b 3e 55 84 2b be 1d 08 35 3e 85 b7 51 3e
       0.24576099 -0.167497 0.17678876 0.20480163
000050 57 14 0f 3d 62 8a be bc 1d a3 ce 3d 8b 97 f0 3c
       0.034931507 -0.023259345 0.10089705 0.029369136
000060 1a 5e c0 bd 24 fd 6d 3e 22 23 21 be e1 28 12 be
       -0.093929484 0.23241097 -0.15736058 -0.14273407
000070 06 5a a0 3d dd 23 3d 3e fe c7 f6 bd be fb be 3d
       0.078296706 0.18470712 -0.12049864 0.0932536
000080 e8 65 da bd 38 6e fe bd f6 dd a4 3d 74 e3 ba bd
       -0.10663968 -0.12423366 0.08050148 -0.091254145
000090 09 63 22 3e 25 53 0d 3c b1 ba bc 3d 54 34 1d 3d
       0.15858091 0.00862578 0.09215296 0.038379982
0000a0 55 d0 7b bd 18 5e f8 bd 7e 39 65 3e 19 e3 4d be
       -0.061477978 -0.12127322 0.22385213 -0.20106162
0000b0 4e dd 2c bd 11 9a 7a bc 38 f9 6f bc e9 9c c0 3d
       -0.04220324 -0.015295521 -0.014646821 0.09404928
0000c0 f2 1a c3 3d 2f 4c c4 3b 48 2a 03 3e 8b 2b 5b bd
       0.09526624 0.005990527 0.12809098 -0.053508323
0000d0 ee 2e 48 be 81 d0 92 3e ae d7 81 3d 12 a7 83 3d
       -0.19549152 0.286747 0.06339966 0.064283505
0000e0 6e a8 1d 3d 3e ff 7d 3e 39 8d 07 3c c2 c3 04 3b
       0.038490705 0.24804398 0.008273416 0.0020258282
0000f0 f2 8a 2a 3e 62 9d 6f 3e 6c 3f 64 be df 06 ec 3d
       0.16654566 0.2339988 -0.22289819 0.11524748
000100 a2 72 08 3e ad 86 48 3e 62 69 66 3e 26 71 01 3c
       0.13324979 0.19582625 0.22501138 0.007900512
000110 31 c8 5a 3e d0 22 bf 3d 0a 1f 56 3e da b5 52 3d
       0.2136543 0.09332812 0.20910278 0.05144296
000120 4c dc 24 3e fb 96 0b be df 06 77 3e 6a b1 d2 b8
       0.16099662 -0.13631813 0.24123715 -0.00010046626
000130 c7 a7 73 be c5 0d 58 be 06 e7 4e be 93 e4 56 be
       -0.2379447 -0.21099003 -0.20205316 -0.20985632
000140 b8 a0 ac 3d f3 fb 2a 3e e1 51 82 3e de d0 89 bd
       0.08429092 0.16697673 0.25453094 -0.067292914
000150 7a 53 40 3e 77 cc 8c bd 09 ec 54 3e a9 ba 12 3e
       0.18781844 -0.06874936 0.20793165 0.14329018
000160 2e 0d 16 3e b2 3f 84 3e 93 09 26 3e bf 76 41 3e
       0.14653465 0.25829846 0.1621459 0.18892954
000170 fe 57 8f be 38 7e 7d be 89 ed 98 3d 6f ba 84 3e
       -0.2799682 -0.2475518 0.07467181 0.25923488
000180 ab 6f e9 3d e8 97 ac 3d bb 45 75 3d db 42 e8 3a
       0.11398252 0.08427411 0.059880953 0.001772012
000190 2c b6 7e 3e b3 6f 63 3c 92 7b af 3d 6b 97 f5 3d
       0.2487418 0.013881612 0.08568491 0.11991771
0001a0 4c 82 1a 3e 4f 43 7f 3e 07 c8 9e 3e f6 d9 84 bd
       0.15088767 0.2492802 0.31011984 -0.06486885
0001b0 2e 9a 76 3e 27 61 81 3d b8 df 21 3d f4 73 e1 3d
       0.24082252 0.063173585 0.039519995 0.110084444
0001c0 40 c9 ea bb eb 49 81 3d ef dc 92 3d ef ba 49 3e
       -0.007165104 0.06312927 0.07171046 0.19700216
0001d0 50 55 84 3d 49 08 93 3e 52 4c ee bc 4a 6e b6 3d
       0.064615846 0.2871726 -0.029089127 0.08907755
0001e0 8f a6 6d bc b4 23 4c 3e e2 3f af 3d 49 ad a3 3d
       -0.014505043 0.19935495 0.085571066 0.07992036
0001f0 ff d0 45 3e 0a e0 54 3e e2 3c a5 3b 15 a9 bf 3c
       0.19318007 0.20788589 0.005042658 0.023396054

lstm.bias_hh_l0 f4 [128]
000000 48 5e b4 3d 12 b3 66 3e 5f 47 0f bd 70 72 53 bc
       0.08807045 0.22529247 -0.034980174 -0.012905702
000010 13 f4 b9 3d 45 98 70 3e 74 33 6c 3e dc 25 fc 3d
       0.090797566 0.23495586 0.23066503 0.123119086
000020 3d d9 fa 3d 01 d2 0c 3e 21 3d 94 3c fb 8e 35 be
       0.12248466 0.13751985 0.018095555 -0.17730324
000030 27 e0 e4 3d 8c 25 7a 3e ea 5f 98 3d 13 29 0a be
       0.11175566 0.24428385 0.07440169 -0.13492231
000040 75 ee c9 3d d4 30 92 bd fa 66 3e 3d 97 ee 54 3e
       0.09859935 -0.071382195 0.046484925 0.2079414
000050 a7 16 b7 bd b9 0f 8e 3e 4d 11 c8 bd 05 3a 1a 3b
       -0.089398675 0.2774637 -0.09768925 0.0023533117
000060 46 ac e4 3d ce 59 f9 3c 5a 84 43 be f9 c0 3b be
       0.11165671 0.03043833 -0.19093457 -0.18335332
000070 4f ca eb 3d 56 6f 7c 3e 1b 5b 2a 3e 15 56 18 3d
       0.11513197 0.24651846 0.16636316 0.03719147
000080 1d ab 2a 3d 6e 8a bd 3b 6a c0 a1 3d e4 7e e4 3d
       0.041667093 0.0057843244 0.07898028 0.11157015
000090 7a 16 50 bd 1c c0 5c 3c 50 a5 37 bd 9c 29 0b bc
       -0.050802685 0.013473537 -0.04483539 -0.008493807
0000a0 08 3e 9a 3d 09 12 08 bd c8 61 57 3e cf 99 b2 3d
       0.07531363 -0.033220325 0.21033394 0.08720743
0000b0 fe e1 51 3e 02 33 bc bc ff 5a 7a bd fc df 1d be
       0.20496365 -0.022973541 -0.061121937 -0.15417475
0000c0 0c 10 26 be 75 39 25 bd 0c ca 96 bd 3a 46 77 3e
       -0.16217059 -0.040338 -0.07362756 0.24147883
0000d0 4a c1 3c be 11 75 9a bc 96 7f 0b 3d f9 64 c7 bd
       -0.18433109 -0.01885465 0.034057222 -0.09736056
0000e0 46 1c 1f 3d f5 21 81 3e 20 63 2e bd 68 2a 3f be
       0.038845323 0.2522122 -0.042575 -0.1866852
0000f0 20 ed 4d 3e 28 0b 5d bd 97 12 a5 bd 0c 72 c0 bd
       0.20109987 -0.053965718 -0.08060186 -0.09396753
000100 5f a3 12 3e c2 37 87 3e 55 f6 dc 3d a8 4e 7e 3e
       0.14320134 0.26409727 0.107891716 0.24834692
000110 57 6c 35 3e 66 d7 7d 3e be 9e 12 3e ba 2d 55 3e
       0.1771711 0.24789199 0.14318368 0.20818225
000120 ae 6a 0c 3e eb 17 65 be a6 35 86 3e 87 de 13 be
       0.1371257 -0.22372405 0.26212806 -0.14440356
000130 91 35 aa bd e6 dd 5f be 2f 1e 89 be 91 48 24 be
       -0.08310998 -0.21861991 -0.2678084 -0.16043307
000140 c3 55 36 3e 3b 6b 5f bd 72 f6 82 3e 2d 1f 6e be
       0.17806153 -0.054545622 0.25578648 -0.2325408
000150 ea 54 39 bc f7 09 83 be 8a 16 76 3d ba 7b 28 3e
       -0.011311749 -0.2559354 0.06008009 0.16453448
000160 a4 2a c4 3d d4 29 2d 3e 43 b3 1e 3e d3 69 ab 3c
       0.095784456 0.16910487 0.1549807 0.020924484
000170 20 b1 38 be a8 f7 6c be 24 0b d6 3d 6d 77 9b 38
       -0.18036318 -0.23141348 0.10451344 7.413221e-05
000180 02 79 40 bd 4b 60 2e bd cc b4 06 3e a2 0f 3a bd
       -0.046990402 -0.0425723 0.13154906 -0.045425065
000190 8a c1 de 3d 16 b3 a0 3e ec 68 47 3e 73 a8 57 3c
       0.108767584 0.31386632 0.19473618 0.01316272
0001a0 bd 6d b7 bc 06 59 2d 3e 1b a7 82 3d 88 26 ea bd
       -0.022391194 0.16928491 0.06379529 -0.114331305
0001b0 37 6d 6b 3e a9 f6 a9 3d 16 3f 3d bc 30 c1 ff bd
       0.22990881 0.08299 -0.011550685 -0.124880195
0001c0 79 8d 55 bd 09 f4 26 be 8d ff 3c 3e b5 8f aa bc
       -0.052136872 -0.1630403 0.1845686 -0.020820478
0001d0 40 08 82 3d 42 55 63 3e d6 0a 66 bc ff e2 4c 3e
       0.0634923 0.22200492 -0.014040669 0.20008467
0001e0 f1 cd ed 3d e6 8e c3 3d 96 7d eb 3d 4d 97 1d be
       0.11611546 0.0954874 0.11498563 -0.15389748
0001f0 b2 c2 89 3d 46 63 37 3e 18 7f e8 bd b3 db 1d 3e
       0.06726588 0.17908964 -0.11352366 0.1541584

lstm.weight_ih_l0_reverse f4 [128, 28]
000000 d1 c6 38 be 9d 1d 2b be af 33 bd bc b0 88 c2 3c
       -0.18044592 -0.16710515 -0.023095934 0.023746818
000010 7d 0a bd 3b 69 c3 91 bd b4 03 d3 3d 17 52 42 bd
       0.0057690726 -0.0711735 0.10303441 -0.04744157
000020 40 1d 89 3d de b0 b7 bd 54 76 9a bd b0 e6 19 3e
       0.06695032 -0.089692816 -0.075421005 0.15029407
000030 a1 a1 35 be 8d 03 81 3d d6 d3 d6 3d 49 7f aa bd
       -0.17737438 0.062995054 0.10489623 -0.08325059
000040 50 46 08 bc 7a ad 2e 3d 2b ae 90 3d 6f e0 05 3d
       -0.008317545 0.04264591 0.0706447 0.03268474
000050 d8 5c 97 3c 54 25 3a be 20 9a c8 3d 68 35 f7 3d
       0.018476889 -0.18178302 0.09795022 0.12070733
000060 75 9b fc 3c 67 c6 93 bc a3 e8 94 bd 67 af 18 3d
       0.030835846 -0.018038942 -0.072709344 0.03727665
000070 9d 41 00 3e 70 b6 ef bd 8e 6e f1 bd 78 4e bc bd
       0.1252503 -0.11704719 -0.11788665 -0.09194654
000080 5f 47 39 3c c5 01 fe bb 42 11 ce bc ad 5d 87 bd
       0.01130852 -0.007751676 -0.025154714 -0.06609664
000090 17 d7 12 be 82 da 8c bd 2e 56 08 bc b4 28 44 bc
       -0.14339863 -0.068776146 -0.008321328 -0.011972595
0000a0 ac 5d 8e bd 39 b8 b7 bd 98 92 1d 3c 55 ca 0f bd
       -0.0695146 -0.089706846 0.00961747 -0.03510507
0000b0 f5 91 11 3e 81 17 2a be b2 15 0b 3e 48 7b d8 bd
       0.14215834 -0.16610529 0.13582495 -0.10570389
0000c0 00 53 05 3e 81 05 ff 3d 1d 7a 70 bd b3 77 e4 3d
       0.13019943 0.12452222 -0.058710206 0.11155643
0000d0 31 95 4e 3d 88 f9 45 bd 9e d5 af bc f3 6d 81 3d
       0.05043525 -0.048333675 -0.021464165 0.06319799
0000e0 e5 48 26 be ea dc 3a 3c 3c aa 43 3e 88 b7 95 3d
       -0.16238745 0.011405209 0.19107908 0.073103964
0000f0 12 6a b8 3c 71 bb b0 bd 79 65 13 3d 96 e8 ec bd
       0.022511516 -0.086295016 0.035985444 -0.115678
000100 f6 01 4d 3d e8 df 7a 3d 74 e0 40 3e 53 8c a0 3d
       0.0500507 0.06124869 0.18835622 0.07839265
000110 b4 ee dd bc 28 fd 7f 3b 50 f1 72 bd 39 c2 03 be
       -0.027091362 0.0039060805 -0.059312165 -0.12867059
000120 fe db 38 be 84 50 d9 3d fe 02 87 bd d1 ef 44 bc
       -0.1805267 0.1061106 -0.065923676 -0.012020067
000130 1c 50 4e 3d 8c 90 ae bd 28 28 65 be 7f f9 f1 b9
       0.050369367 -0.08523664 -0.223786 -0.0004615299
000140 b9 fc 10 be 09 d4 02 be 5c 25 ce 3d 06 c6 03 be
       -0.14158906 -0.12776197 0.100657195 -0.12868509
000150 d4 d4 da 3d 56 c0 3d be 19 16 ad 3d 29 7d f5 bd
       0.10685125 -0.18530402 0.084514804 -0.11986763
000160 b5 4c 13 be 25 10 ca 3c ec e7 f1 3c a5 1d 14 bd
       -0.1438473 0.024665901 0.029529534 -0.036161084
000170 19 76 9b 3d 3f 4c 16 3d 63 47 65 3d ba e8 b7 3d
       0.07590885 0.036693808 0.055976283 0.08979936
000180 da 14 a0 3d 72 2f 46 be 72 df 3f be 18 d1 e8 3d
       0.07816477 -0.19354036 -0.18737581 0.113680065
000190 f7 66 de 3c 8f a3 a1 bd f6 12 a8 bd 3f 46 fd bd
       0.027148707 -0.078925245 -0.082067415 -0.12366914
0001a0 de e4 e9 3d ad 00 9f bc 92 0a 3a 3e 05 fd f0 bd
       0.11420606 -0.019409502 0.18168095 -0.1176701
0001b0 c2 1e b3 3d c2 ad 01 be b5 c1 94 bd 49 b7 cd 3d
       0.08746101 -0.1266394 -0.07263509 0.100447245
0001c0 27 30 03 be 34 c1 18 be 32 0d 06 bd c3 e7 9d 3d
       -0.12811337 -0.14917451 -0.032727428 0.07710221
0001d0 48 6d 01 bd d4 7f f6 bd d1 0b d6 3d 7e d2 ae 3c
       -0.03159836 -0.120361 0.104514726 0.021340605
0001e0 d0 2d fc bd 78 6f bb 3d f9 5b 9d 3c 37 93 4a be
       -0.123134255 0.0915212 0.019208895 -0.1978272
0001f0 79 7e a1 bb 14 c5 06 3e ba b3 22 be 18 36 f8 3d
       -0.004928407 0.13161117 -0.15888873 0.121196926
000200 30 4a 21 bd 6a 06 0b be bd b0 e4 bd d6 60 21 be
       -0.03937739 -0.13576666 -0.11166523 -0.15759596
000210 5a f6 b9 3d f4 2a 2d 3e 4b d1 ea bc 0e 7f b3 bd
       0.09080191 0.16910917 -0.028664252 -0.08764468
000220 1b 92 fe 3d 04 0a b8 3d 27 4b cb bb aa 2f 1b 3e
       0.12430211 0.08986285 -0.006204027 0.15154901
000230 32 ea c1 bd 7e 8f 2d 3d 6e 02 fb bd 26 75 4a 3d
       -0.09468497 0.042373173 -0.12256323 0.049428128
000240 76 dd 46 be 30 4e b9 3d 49 db 8a 3d 0d d0 b6 bd
       -0.19420418 0.09048116 0.067801066 -0.08926401
000250 65 b8 23 be fe 15 21 be c0 f3 0e be e9 d1 2f 3e
       -0.1598831 -0.15731046 -0.13960171 0.17169918
000260 05 44 8a bd b5 98 db 3c e9 32 86 3c 89 9b a1 3d
       -0.06751255 0.026806215 0.016381698 0.07890994
000270 53 45 e8 3d 62 e7 e9 bc 3c f6 82 ba 0d e4 04 3e
       0.113413475 -0.028552715 -0.0009991596 0.1297762
000280 a5 ed 13 3e 39 54 e6 bc c8 a3 08 3d 1f df 94 bc
       0.14446123 -0.028116332 0.03335932 -0.018172799
000290 f6 e2 0d be 59 7b a7 bd 9d a1 f7 3a 33 d7 78 bd
       -0.1385611 -0.081778236 0.0018892769 -0.060752105
0002a0 bf 75 d1 3d 59 47 ef bd ee af 14 3e ef 9e 2e 3e
       0.102275364 -0.1168353 0.14520237 0.17052816
0002b0 81 d3 1c be 73 3c 01 3e e0 9a 02 be 85 5d 44 3d
       -0.15315057 0.12620716 -0.12754393 0.04794075
0002c0 71 ac 10 be 60 55 6a bd 3c f7 de bd de b2 14 3e
       -0.14128281 -0.057210326 -0.10887 0.14521357
0002d0 a9 e2 65 bd 70 23 23 be 49 6e 46 3e 75 3e 09 be
       -0.056124363 -0.15931487 0.19378008 -0.13402732
0002e0 19 1d e3 3c c3 9d 77 3d 1d ca 25 bd c6 9e 23 3d
       0.027723836 0.060453188 -0.040475953 0.03994634
0002f0 6e dd 31 be 41 62 53 3d 24 87 11 be 22 82 8d bd
       -0.17369625 0.051607374 -0.14211708 -0.069095865
000300 17 bc 8e bd 41 f3 cf 3d fd 95 5c 3d 5d 11 b2 bd
       -0.06969469 0.10153819 0.053853977 -0.08694718
000310 6a 05 1c be 4a 41 fc 3d 7d 9b 50 3c e8 da ad 3d
       -0.1523644 0.123171404 0.012732384 0.08489019
000320 33 d5 c7 3d 9e 0d 05 3b 3a 56 cb 3d 60 73 f0 3c
       0.097574614 0.0020302306 0.09928556 0.02935189
000330 2f 30 f9 3d f1 62 f4 bc f3 5f ad 3c 55 69 1e be
       0.121673934 -0.029832335 0.021163916 -0.15469868
000340 5b 13 7e bd 92 cb 11 3e 56 dd 07 be 0f 43 6f 3d
       -0.062030178 0.14237812 -0.13268027 0.05841356
000350 9b bd 4a bd bc 19 07 3d 6e 33 7d bd 5c 99 64 3d
       -0.049497228 0.032983527 -0.061816625 0.055810317
000360 f8 10 0b bd 3a 3f 23 be 7e 27 bf bc fb 2d c8 3d
       -0.03395173 -0.15942088 -0.023334261 0.09774395
000370 03 ce 13 be bd 41 ed bc e6 9a 05 be 6f 68 c2 3d
       -0.14434056 -0.02896201 -0.1304737 0.094925754
000380 ca 74 c2 bd 8f c1 62 bd 10 fc 02 3d 8c dd 31 3e
       -0.09494932 -0.055360373 0.031978667 0.1736967
000390 b0 e2 96 bd 04 d3 e7 3d dd cd 00 be cd d2 05 3e
       -0.07367456 0.11319545 -0.1257853 0.13068695
0003a0 ec 8b d6 bd 62 0e 7c 3d 68 17 b1 3b c4 16 88 3d
       -0.10475907 0.061537154 0.0054044016 0.06644967
0003b0 87 01 1e 3d cf 53 da bc 36 0c 8b 3d 02 00 84 3b
       0.038575675 -0.026651291 0.067894384 0.0040283212
0003c0 a0 ff f1 bd be 92 97 3d 82 59 9c bd 9f 4a 93 3b
       -0.11816335 0.07401036 -0.0763426 0.0044949795
0003d0 0a 64 2a be 61 fc 07 3c f2 d6 9e bc 7c a6 4b 3d
       -0.16639724 0.008299918 -0.019389603 0.04971932
0003e0 88 6c a6 3d a9 8b 4a 3b 7e c0 0a 3e 45 60 eb 3d
       0.081261694 0.0030905998 0.13549992 0.11492971
0003f0 21 79 b2 bd 26 b7 d4 bd 63 f0 95 3d f3 a9 e0 bd
       -0.0871451 -0.10386495 0.07321241 -0.10969915

lstm.weight_hh_l0_reverse f4 [128, 32]
000000 82 0b b5 bd 36 d4 c4 bb 9a ea 02 bd 06 bd d2 3d
       -0.088400856 -0.006006743 -0.031962015 0.102899596
000010 57 bc d0 3b 5a 3d 3a bc 28 74 6f bd cc 5a f3 bd
       0.006370108 -0.011367166 -0.058460385 -0.118825525
000020 5c 14 90 3e 90 b0 66 3d 93 87 33 be a6 8f 18 3e
       0.28140533 0.056320727 -0.17532186 0.14898548
000030 cb 2a 3f 3e 1e 21 c4 bd a2 c8 1a be 02 bf bc be
       0.18668668 -0.09576629 -0.15115598 -0.36864477
000040 ad 08 31 3d ad 97 89 3d 67 4e e7 3d 5f 08 12 3e
       0.043221164 0.06718383 0.11294251 0.14261006
000050 2e d3 21 be 31 00 65 3d 47 54 01 bd f3 99 46 bd
       -0.15803215 0.055908386 -0.031574514 -0.04848666
000060 77 d3 84 be ae 78 0f 3c 69 0d c6 3b 1d 15 01 bb
       -0.25942585 0.0087568 0.006044079 -0.0019696422
000070 37 ba 10 3d b0 06 61 bc e8 e9 7d bc 9b d5 e7 3c
       0.03533384 -0.013734505 -0.015497662 0.028300097
000080 ba f1 3d bd 6a 48 17 3e a9 71 50 bd 87 3f 60 be
       -0.046373107 0.14773718 -0.050889645 -0.21899234
000090 d3 dc 8c bd 5b 84 69 3d 6f 92 b1 3d c7 c6 60 bd
       -0.068780564 0.05701099 0.08670508 -0.05487707
0000a0 32 33 15 bc 7a ce 56 3d 7b 9d 0a 3e 98 b6 a2 3c
       -0.009106444 0.052443005 0.13536637 0.019862458
0000b0 29 fa 71 be 79 17 55 3e da 09 6b 3d 45 b8 99 3e
       -0.23630585 0.20809735 0.057382442 0.300234
0000c0 ca 0e 6a be c8 83 4e bc ac 7c 7c be d8 38 27 be
       -0.22857204 -0.012604661 -0.24656934 -0.16330278
0000d0 33 45 7e 3e 87 9c 3b bc 5c ca 84 3e 91 6f 49 be
       0.24831085 -0.011450893 0.25935638 -0.19671465
0000e0 26 04 a1 bd a5 ac 74 3e 6d 68 00 3e 55 2e d4 bc
       -0.078621194 0.23893984 0.12539835 -0.025901
0000f0 db 26 06 bd d8 c1 15 be 85 d2 a8 bc 8f f9 49 3d
       -0.0327519 -0.14624727 -0.020608196 0.049310263
000100 8b 29 53 3e 3d de 9c bb 31 ca 7d 3e c1 59 f9 3d
       0.20621316 -0.004787235 0.24784161 0.12175322
000110 7d 00 3c bd 4e 12 58 bd 15 ee 8b bc c7 a5 a8 3d
       -0.045898903 -0.05275183 -0.0170813 0.082347445
000120 5a a9 4e 3d 11 82 f0 bc 34 7b e5 bc e0 58 4c 3c
       0.050454475 -0.029358895 -0.02801285 0.012472361
000130 43 5a 5b be 08 61 19 bd 41 07 a3 3d 84 c8 97 3c
       -0.21421151 -0.03744605 0.07960368 0.01852823
000140 f6 3c 06 be 5b 5a 27 3e ac ad 54 bd ba 1a 99 bd
       -0.13109192 0.16343062 -0.05192344 -0.07475801
000150 08 e4 8a 3d d5 0d 1a 3d 2b 49 9d bd b6 c1 6e 3d
       0.06781775 0.037610848 -0.07679971 0.058290206
000160 9c 39 22 3d c3 60 d8 bd 88 0c 3f bd d7 40 a3 3d
       0.03960572 -0.10565331 -0.04664281 0.079713516
000170 4e a6 bc 3c 33 4c a3 bd 63 61 aa 3d 02 b7 2e 3e
       0.023028519 -0.07973518 0.08319356 0.17062
000180 3a 93 df bd b2 31 48 3e 16 95 56 bd d9 58 f3 3d
       -0.10916753 0.19550207 -0.052388273 0.11882181
000190 eb cc 00 3e 05 d0 62 3e 3f 02 29 3e 82 60 2c 3e
       0.1257817 0.22149666 0.16504763 0.1683369
0001a0 d6 3a 3f be be 0b 64 be 11 85 e5 bd 98 42 1e bd
       -0.18674788 -0.22270104 -0.11207021 -0.038637727
0001b0 a9 c5 4a be 94 ca 69 bd 10 db 05 be 81 a4 8e bc
       -0.19801964 -0.05707796 -0.13071847 -0.017412426
0001c0 a4 8c 2c be 2e 3b e3 bd ea c6 1b 3d 62 9a 6c bc
       -0.16850525 -0.11095272 0.038031496 -0.014441105
0001d0 4e 8d e1 3d af b8 e5 3c d1 0a 61 bd a9 8b 4a bd
       0.1101328 0.028042166 -0.054941956 -0.049449597
0001e0 51 9d c9 bd 37 05 07 3d 2e 43 9f bd f2 42 c1 3c
       -0.09844459 0.032963958 -0.077764854 0.023591492
0001f0 0f 9e a2 bc 27 6f f2 bd a8 cb d4 3d d9 ab 01 be
       -0.019850759 -0.11837607 0.10390407 -0.12663211
000200 90 3e 7a 3d 5f 34 0f 3e 83 fd 83 3e 49 3b 43 be
       0.06109482 0.13984822 0.25779352 -0.19065584
000210 1e 70 6d bd 57 43 83 3e cc 99 10 3e ab de 38 3e
       -0.05796825 0.25637314 0.14121169 0.18053691
000220 85 77 4d be ae 38 af bb eb ef 80 3d 13 62 1e 3d
       -0.20065124 -0.005347333 0.06295761 0.03866775
000230 62 38 e4 bd 12 66 46 3e f7 4f 9c bc 95 be b0 3e
       -0.11143567 0.19374874 -0.019081099 0.34520403
000240 61 0e a5 3d e6 64 57 be cb 2e 18 be ed 77 8e 3d
       0.08059383 -0.21034583 -0.148616 0.06956468
000250 f7 42 2d 3e e5 0b 54 be f5 31 91 3d 91 6d d3 3c
       0.16920076 -0.20707662 0.07089607 0.025809081
000260 9a fc c8 3c 3a 5f cb bc 10 3f 9e bc 36 e4 84 3d
       0.024534512 -0.024825681 -0.01931718 0.0648884
000270 04 76 78 bc 7b ee 73 be f9 ee 9a 3d b2 3c 0b 3b
       -0.015164856 -0.23821442 0.07565112 0.0021245894
000280 e5 e5 28 3e ee 93 0c be ca a7 0b bd 2b c0 05 be
       0.16493948 -0.13728306 -0.034095563 -0.13061588
000290 ed df 2f be 5f b8 2f bd 12 1d 8e bd fd d1 e1 bd
       -0.17175265 -0.04290044 -0.069391385 -0.1102638
0002a0 f1 d8 25 be dd 6a 5a 3c d3 1e 03 3e 50 24 de bd
       -0.16196038 0.013331142 0.12804727 -0.1084677
0002b0 6b ff ae 3d 72 cb af bd df 56 e3 bd 42 59 76 3e
       0.08544811 -0.08583726 -0.11100554 0.24057487
0002c0 cd 3f 79 bb 0b 07 f4 3d 5b 9f 45 bd a3 0c 00 3d
       -0.0038032413 0.11915406 -0.048247676 0.03126205
0002d0 94 36 44 bc 0b 7e 11 be 09 eb b5 3c cc 9d fb bd
       -0.011975903 -0.14208238 0.0222068 -0.12285957
0002e0 b2 24 ec 3d 71 30 3a be d4 8a b1 bd e8 8e ab bd
       0.115304366 -0.18182541 -0.086690575 -0.083768666
0002f0 41 14 04 3d fa 0f cc 3d b2 1c c9 3c 9c ed 17 3e
       0.032245878 0.09963985 0.024549816 0.14836735
000300 2c 34 12 3e df 55 13 3e 21 2f 8b 3d 51 cc 4e bd
       0.14277714 0.14388226 0.067960985 -0.05048782
000310 80 43 ca 3d 47 4b be 3d 1c 25 75 bc 35 7a 01 3e
       0.09876156 0.09291702 -0.014962461 0.12644275
000320 13 1e 9c 3b fb 40 45 be 5b 75 cf bd 96 43 c3 bd
       0.0047643273 -0.1926307 -0.10129806 -0.09534375
000330 d9 19 e9 3d 37 55 9f bc c2 ee b0 bd 7d d3 6f 3d
       0.11381883 -0.019449813 -0.086392894 0.0585513
000340 70 f1 b2 bd ff cd ed bd d3 d8 1d 3d 07 57 3d 3d
       -0.08737457 -0.11611556 0.038536858 0.046225574
000350 5d 68 96 3d 1c 09 03 bc 8a 94 8e ba d9 d2 2e be
       0.073441245 -0.007997777 -0.0010878008 -0.1707262
000360 d5 1e 50 bd 42 a6 9d 3c ea ca 24 be 01 1a d7 3d
       -0.050810654 0.019244317 -0.1609303 0.10503007
000370 87 bb 26 3d c7 b9 73 be 2c 89 48 be e6 03 9a bd
       0.040706184 -0.23801337 -0.19583577 -0.07520275
000380 52 2a 12 be 40 32 18 3e ae 63 89 bd 93 1b 02 be
       -0.14273956 0.14862919 -0.067084655 -0.12705831
000390 a2 c9 01 be 75 5e 58 bd 38 40 42 bd 56 a5 f8 3d
       -0.12674573 -0.052824456 -0.047424525 0.1214091
0003a0 d0 6b cc 3d 57 84 fd 3d 25 70 cb bd a4 2f 18 3e
       0.09981501 0.123787574 -0.09933499 0.14861923
0003b0 71 6c 94 bd 2b 87 3a be fd 83 95 bc af 6d 63 be
       -0.07247246 -0.18215625 -0.018251413 -0.2220981
0003c0 42 db 81 3d c8 87 4e 3e 27 7b c9 bd 24 d6 3b bd
       0.06340648 0.20168984 -0.098379426 -0.045858517
0003d0 f2 a3 83 bd 77 08 40 3e 1c ba c3 3d 20 d0 ba 3d
       -0.064277545 0.18753229 0.09556982 0.09121728
0003e0 ab d5 16 be de c5 72 bd ad 19 8e 3c 8c e9 af bd
       -0.14729945 -0.059270732 0.017346228 -0.085894674
0003f0 a7 ea 42 bd 99 75 f9 3d c0 78 fa 3c 5d 4e 02 be
       -0.047587063 0.12180633 0.030575156 -0.12725206

lstm.bias_ih_l0_reverse f4 [128]
000000 1d 80 80 3e d8 0e 87 be c8 75 19 bd f1 2f a7 bd
       0.25097743 -0.26378512 -0.03746584 -0.08163441
000010 e5 c7 6d be 31 01 99 3d 9f d6 df bd 6d 8a 47 bd
       -0.23220785 0.0747093 -0.109296076 -0.048715997
000020 54 25 e6 3d 1c b9 4a bb 9d 54 67 bc cf fa 76 bc
       0.112375885 -0.0030933088 -0.0141192945 -0.015074446
000030 76 f3 36 3e 8c 70 c3 3d 47 12 f7 bc 64 b1 e4 3d
       0.1786631 0.09542951 -0.030160083 0.11166647
000040 8c 35 06 bd 5a 39 9d bd fb ae ff 3d e8 a1 66 3c
       -0.03276591 -0.076769546 0.12484547 0.014076687
000050 3f ba 2d 3e 26 31 44 3e 8e aa 45 3d a4 a9 88 3e
       0.16965578 0.19159374 0.048258357 0.26691926
000060 0f 66 cd 3d b5 a2 9e 3c df 0f 05 be a1 a0 31 bd
       0.10029232 0.019364694 -0.12994336 -0.04336608
000070 4d 3c 0b be 11 fe 87 3e 2d 7f 6e bd 31 12 ae bd
       -0.13597222 0.26561025 -0.058226753 -0.084995635
000080 90 61 10 3e 32 25 2c 3c 9a 28 65 be bc 8f e6 3d
       0.14099717 0.010506915 -0.2237877 0.11257884
000090 b0 ae ba bd cb 8f 2a 3e 79 d6 54 be 61 e8 cb 3d
       -0.0911535 0.16656415 -0.2078494 0.09956432
0000a0 d9 a3 9b bd 4f de a2 3d bc 4c 2b 3c 1b 25 45 be
       -0.07599611 0.07952558 0.010455307 -0.19252436
0000b0 42 54 8f bc 3f c3 1d 3d 52 8b e5 bc 6e 66 3d 3d
       -0.017496232 0.03851628 -0.028020535 0.046240263
0000c0 d9 1e 45 be fe 71 77 bd 56 2d 86 3d 73 24 84 bd
       -0.19250049 -0.060411446 0.06551616 -0.06452265
0000d0 ba 3d 9a 3c 48 47 8d bd 8d 80 38 be 1a bb 41 bd
       0.018828262 -0.068983614 -0.18017788 -0.047297575
0000e0 0b 43 d7 bd bb 16 aa bd a1 21 bb 3d c6 43 c3 bc
       -0.10510834 -0.08305117 0.091372736 -0.023836028
0000f0 01 78 ca bc 1d 8e 82 3c 24 bf 5d be eb 2d 2f 3d
       -0.024715425 0.015936906 -0.21654946 0.0427684
000100 b2 3f 15 be ce bd 9c 3c 27 13 cc bb 97 55 52 3e
       -0.14575079 0.019133475 -0.006227869 0.20540462
000110 3a e3 68 bd 2d 6b 66 be 49 6d 1d bd b0 5b 80 be
       -0.056857325 -0.22501822 -0.0384343 -0.25069952
000120 66 81 32 3e b9 53 66 3e 7b 8b 69 be 63 60 f1 3b
       0.17432174 0.22492875 -0.22807114 0.0073662265
000130 6d c1 16 3e 2f d6 7c be 49 0f 90 bd 56 aa 49 bd
       0.14722224 -0.2469108 -0.070341654 -0.04923471
000140 88 de 33 3e cf 3a 60 3e 5f c7 5d 3e b9 c1 65 3e
       0.17565358 0.21897434 0.21658085 0.2243718
000150 98 9b 71 be db 7b 18 3e 46 f6 6d be dc 5a bb 3d
       -0.2359451 0.14890997 -0.23238477 0.091481894
000160 b5 fb 6c be 58 43 e1 ba 58 73 9c 3d 63 b4 4d be
       -0.23142894 -0.0017186208 0.076391876 -0.20088343
000170 f8 18 3e be 63 0e 86 3e 27 c9 10 3d f1 76 4a be
       -0.18564212 0.2618285 0.035348084 -0.19771935
000180 7c 37 75 3b 8a d3 20 3d 38 1a 18 be cb e3 b3 3d
       0.0037417104 0.03926424 -0.14853752 0.087836824
000190 93 10 7f be af 8e cc bd d6 ca fc bd 59 96 11 3e
       -0.24908666 -0.09988152 -0.123433754 0.1421751
0001a0 1f 8e 14 3e 35 10 b8 bd 23 5b cd bd 34 f3 bb bd
       0.1450734 -0.08987466 -0.100271486 -0.09177247
0001b0 3b 54 2f 3c 55 a6 d5 3d 30 3b 66 3d 03 bb 19 3e
       0.010701234 0.10432116 0.05620879 0.15012746
0001c0 5b 91 2e be 1e 57 0b bc e8 a7 43 3e 7c f3 2e be
       -0.17047636 -0.008504657 0.1910702 -0.1708507
0001d0 9d bd da 3c d8 66 06 be 18 62 b9 3d fa 34 04 3e
       0.026701743 -0.1312517 0.09051913 0.12910834
0001e0 10 cd 04 3e 4e a9 a3 bb 00 81 76 bd b6 0c 1d 3e
       0.1296885 -0.004994548 -0.060181618 0.1533688
0001f0 8a 82 2d 3d 72 17 1b 3e 99 9e fc bd f7 db 09 bc
       0.04236082 0.15145662 -0.123349376 -0.00841426

lstm.bias_hh_l0_reverse f4 [128]
000000 eb 2e dc 3d d7 98 6c be ad ba 2b be f9 59 1b be
       0.107511364 -0.23105179 -0.1677043 -0.1517104
000010 90 21 43 be 19 f4 0b be 60 df 11 3d 7c b9 4d 3e
       -0.19055772 -0.13667335 0.035613418 0.20090288
000020 df 94 70 3e 93 a0 21 3e b3 7c 96 bc 83 32 9f bd
       0.2349429 0.1578391 -0.018370008 -0.07773306
000030 1a 6b 30 3e bb c9 14 3e 3f 48 24 be 86 71 38 3e
       0.17228356 0.14530079 -0.16043185 0.18012056
000040 d8 39 32 3d 7b eb 02 3c bc 5b 89 bc 04 97 ef 3d
       0.043512195 0.007990713 -0.016767375 0.11698726
000050 2b 9a 89 3d 3b 46 8c 3d df bf d7 bd 7b 5c 4b 3e
       0.06718858 0.06849333 -0.105346434 0.19859497
000060 44 6c 75 3e 58 89 ed 3d 23 77 01 be 5e 1b 5f 3e
       0.23967081 0.11598462 -0.12643103 0.21787784
000070 94 80 c2 bb c7 4a 74 3e 0c c6 1f be f7 56 47 3d
       -0.005935738 0.2385665 -0.15602893 0.04866692
000080 99 46 31 3d e8 16 6f be 6c 8b 38 be eb 9d 1d be
       0.043280218 -0.23348582 -0.18021935 -0.15392272
000090 7a 44 55 be 52 70 3f 3c dc 70 dc 3d 5e 1f 98 bd
       -0.20826903 0.011684494 0.10763714 -0.07427858
0000a0 01 7e d0 3d 63 96 ab bd 22 6d 41 be 80 61 5d bd
       0.10180283 -0.08378293 -0.18889287 -0.05404806
0000b0 14 fd 88 3d 64 b3 81 3d 2b d0 b8 3d f7 d3 be 3e
       0.06688896 0.06333044 0.0902408 0.3727109
0000c0 c1 64 95 bc 34 8d a3 bd cc 3b 3a 3e ef c6 7a be
       -0.01823652 -0.07985917 0.18186873 -0.2448995
0000d0 8e cd c8 3d 75 e8 48 bd 0f dc 22 be 2d 97 1d 3d
       0.098048314 -0.049049813 -0.15904258 0.03847425
0000e0 47 1f a9 3c 98 37 66 3d 15 76 b0 bd 71 21 90 3d
       0.020644797 0.056205362 -0.08616272 0.070376284
0000f0 c9 9e f5 bc c5 8f 0b 3e af 7a 1a 3d 9b 47 b6 bd
       -0.029982941 0.13629062 0.037714656 -0.089003764
000100 fb e1 85 be dc 2d 2b be 6d ef 48 be b2 42 05 3d
       -0.26148972 -0.16716713 -0.19622584 0.03253431
000110 c7 0d c3 bd 10 8d 05 bd 92 5a 68 be 5d 50 c0 bd
       -0.09524112 -0.03260523 -0.226908 -0.09390328
000120 56 b8 54 3e 0b fc 6e 3e 2e 96 67 3d 45 ce 56 3e
       0.20773444 0.23338334 0.056539707 0.20977123
000130 2d 4a 68 3e c6 12 e3 bd 56 08 27 be 3f 34 90 be
       0.22684546 -0.11087565 -0.16311774 -0.2816486
000140 98 3e 3b 3d b5 f2 13 bd 92 f5 5c 3d c9 0e d7 bd
       0.04571399 -0.036120135 0.05394513 -0.10500867
000150 c6 b5 76 be 81 92 48 3e b5 e7 17 bc 9c 85 3c 3e
       -0.24092779 0.19587137 -0.009271552 0.18410343
000160 3c 12 40 be 6b a6 85 be a5 24 ff 3d c2 43 3f be
       -0.18756956 -0.2610353 0.12458161 -0.18678191
000170 d7 32 5c 3d dd e0 77 3d 79 1b 2e bd 8b 57 d8 bd
       0.053759422 0.06051718 -0.04250667 -0.105635725
000180 60 3e 78 3e 20 ba ee bd 67 31 0e bd 91 e7 01 bc
       0.24242544 -0.11656594 -0.034715082 -0.007928745
000190 6d 83 1c be 49 29 0f be fa 3f 0d bc c4 a2 3e 3e
       -0.1528451 -0.13980593 -0.00862121 0.18616778
0001a0 9a 04 75 3d 46 ed 4b 3d d5 c5 55 bd 04 c4 e0 3c
       0.05981884 0.04978683 -0.05219062 0.027437218
0001b0 fb a7 4a 3e d3 5e f1 3d ad 85 d5 bc ef e5 67 3e
       0.19790642 0.117856644 -0.026064718 0.22646306
0001c0 9e a7 3c be ae 04 e0 bd 47 76 4d 3d c8 27 19 be
       -0.18423316 -0.109383926 0.050161626 -0.14956582
0001d0 18 a8 43 bd aa 90 1e bd e6 27 8a 3d 57 8a 33 3e
       -0.04776773 -0.03871218 0.06745891 0.17533241
0001e0 87 73 c7 3d 1e e8 67 bc bc 7b 5c bd 89 d4 aa bc
       0.09738832 -0.014154462 -0.05382894 -0.020853298
0001f0 6c bb de bd 1b 9e 82 bd 4d 81 e2 3c 96 3d 5f be
       -0.10875592 -0.063778125 0.027649546 -0.21800837
