legacy/lifelog_model2.pt (torch, 169102 bytes, 6 tensors)

lstm.weight_ih_l0 f4 [256, 96]
0	0x3dd7da50	0.10539687
1	0x3ded910e	0.115999326
2	0xbcb18cbc	-0.021673553
3	0x3de03201	0.109470375
4	0xbd05b4dc	-0.032643184
5	0x3cd16dd0	0.025565058
6	0xbd84eb14	-0.0649015
7	0x3d98691e	0.074419245
8	0x3d83abdc	0.06429264
9	0xbdb170c0	-0.086640835
10	0x3de02933	0.10945358
11	0x3d066519	0.032811258
12	0x3dc753db	0.09732791
13	0x3c14c342	0.009079756
14	0x3d89c1f1	0.067264445
15	0xbc413f66	-0.0117949005
16	0x3dbf22ad	0.09332786
17	0x3c5f46fb	0.013627763
18	0xbd81521f	-0.063144915
19	0x3ccdaec7	0.025107754
20	0xbd6badb8	-0.057538718
21	0xbc5634cf	-0.013074114
22	0xbc3cc776	-0.011522165
23	0x3d1e6a89	0.03867582
24	0xbdbb5ad9	-0.09148187
25	0xbd85c25a	-0.0653121
26	0xbd1837f4	-0.037162736
27	0xbd879466	-0.06620102
28	0x3c5c9f03	0.013465646
29	0xbdece862	-0.11567761
30	0x3d88f5a3	0.066874765
31	0xbdd41b52	-0.103567734
32	0x3dd58513	0.104257725
33	0x3d03f0d2	0.032212086
34	0xbd1078c9	-0.03527144
35	0x3d9420be	0.072328076
36	0x3c6f5682	0.014608027
37	0x3ddf521d	0.10904334
38	0x3c6fcc02	0.014636042
39	0xbd257494	-0.04039438
40	0x3b01c509	0.001980128
41	0xbca914ac	-0.02063974
42	0x3d5f88a3	0.054573666
43	0x3df08a24	0.11745098
44	0x3d985eed	0.07439981
45	0xbd829c07	-0.06377416
46	0x3d9cbe35	0.076534666
47	0x3cdb7f63	0.026794141
48	0x3d78d255	0.060747463
49	0xbda4f5a6	-0.08054666
50	0xbe03150a	-0.12800995
51	0xbd716e9b	-0.058943372
52	0xbdcac0d5	-0.09900061
53	0x3dd704f8	0.104989946
54	0x3b3c90fb	0.0028772939
55	0x3c48c557	0.012254081
56	0x3d2fb593	0.042897772
57	0x3b1da833	0.0024056553
58	0x3dc2883f	0.09498643
59	0xbdac021e	-0.08398841
60	0x3c1f14f6	0.009709587
61	0xbda53661	-0.080670126
62	0x3b834fd9	0.0040073213
63	0xbd39b1a6	-0.045335434
64	0x3d6a3f72	0.057189412
65	0xbbd0a0ab	-0.0063668094
66	0x3df41ec7	0.11919933
67	0xbda04587	-0.07825761
68	0xbda13793	-0.07871928
69	0xbd795025	-0.060867447
70	0x3dd4c63e	0.10389374
71	0x3d44cdd5	0.04804786
72	0x3d9785b0	0.07398546
73	0xbdb0b91a	-0.08629055
74	0xbdfe0cae	-0.12404762
75	0xbda55d60	-0.080744505
76	0xbd94c204	-0.07263568
77	0x3d288d34	0.041150287
78	0x3d774868	0.060371786
79	0x3df18cb8	0.11794418
80	0xbd889fed	-0.066711284
81	0xbdb69bde	-0.08916448
82	0x3d7f2777	0.062293496
83	0xbd6ff72e	-0.05858534
84	0x3d96204e	0.073303804
85	0xbce7c846	-0.02829374
86	0x3ce8cbe4	0.028417535
87	0xbd547dd4	-0.05187781
88	0xbd780042	-0.06054712
89	0x3d0d7e0e	0.034544043
90	0x3cbe5ba5	0.023237059
91	0xbcff1818	-0.031139418
92	0x3d9842df	0.0743463
93	0x3dbe3b29	0.09288628
94	0xbd3ba5cf	-0.045812424
95	0xbd8cd8df	-0.068773024
96	0x3dccbe40	0.09997225
97	0xbd69c90a	-0.05707649
98	0xbd6e1ac4	-0.058130994
99	0xbddc21ca	-0.10748632
100	0xbd6e2c6c	-0.058147833
101	0x3c9833b9	0.01857935
102	0xbbe3023f	-0.006927758
103	0xbdcdb496	-0.1004421
104	0x20e28c95	3.8378919e-19
105	0xbdc7357a	-0.09726997
106	0xbddc7673	-0.1076478
107	0xbdaacdc2	-0.083400264
108	0xbdf217a7	-0.118209176
109	0xbdbecef7	-0.09316819
110	0x3de1984d	0.11015377
111	0x3c1d5240	0.009602129
112	0x3d47e550	0.048802674
113	0xbdd5907a	-0.10427947
114	0xbd8f0e3b	-0.06985136
115	0xbd60abb9	-0.054851267
116	0x3ca8ef85	0.020622024
117	0xbdf7f976	-0.12108128
118	0xbc62362d	-0.013806862
119	0xbd007744	-0.03136374
120	0xbb25b499	-0.0025284647
121	0xbd2b9249	-0.041887555
122	0xbbac1b73	-0.0052522956
123	0xbd8ffa5e	-0.070301756
124	0xbd971e56	-0.07378833
125	0xbd95629e	-0.072942
126	0xbbcd8f53	-0.006273189
127	0xbdd373e4	-0.10324839
128	0x3db462a6	0.08807878
129	0xbd2bc60b	-0.041936915
130	0x3dbba065	0.09161452
131	0x3d550f3d	0.052016485
132	0xbdbdd9a6	-0.09270029
133	0x3d96b4db	0.07358714
134	0xbcd36c20	-0.025808394
135	0xbd77023e	-0.060304873
136	0xbd6e36fd	-0.05815791
137	0xbe0cbb01	-0.13743211
138	0x3d0361e2	0.03207577
139	0xbd304349	-0.043032918
140	0x3d1499ab	0.03627936
141	0xbdd0d560	-0.10196948
142	0x3d9c2b35	0.076254286
143	0xbddab48a	-0.10678966
144	0xbc6522fd	-0.013985393
145	0x3d19efe3	0.03758229
146	0x3d9b86a7	0.07594042
147	0x3db7a4d1	0.08966983
148	0x3df467ac	0.11933836
149	0xbdda44cf	-0.106576554
150	0x3ab01b3b	0.001343585
151	0xbc610dc9	-0.013736197
152	0xbc4404a4	-0.011963997
153	0xbdbc0ee6	-0.09182529
154	0x3df8c84b	0.12147578
155	0xbd9cc4e7	-0.07654744
156	0x3dad5dc1	0.08465148
157	0x3d27881f	0.0409013
158	0x3ba5d5eb	0.0050609014
159	0xbd866b1f	-0.065634005
160	0x3dc1299d	0.09431765
161	0x3be98367	0.00712626
162	0xbad436e4	-0.0016190675
163	0xbdc64c52	-0.09682526
164	0x3d869498	0.06571311
165	0xbd019779	-0.031638596
166	0xbd4da2c9	-0.050204072
167	0x3dc05f81	0.09393216
168	0x3a1b25b8	0.00059184013
169	0xbdab2050	-0.083557725
170	0xbd84b827	-0.06480437
171	0xbca5a470	-0.020220011
172	0x3d65ccf5	0.056103665
173	0xbd1a94d9	-0.03773961
174	0xbdb5fe38	-0.08886379
175	0xbd6aa726	-0.05728831
176	0xbdb2916e	-0.08719145
177	0x3d66d3f9	0.056354497
178	0x3dde18fe	0.10844611
179	0xbe0071ac	-0.12543362
180	0x3cd3a5f4	0.025835969
181	0x3d6346f4	0.055487588
182	0x38db4fcf	0.00010457599
183	0xbbefa376	-0.0073131872
184	0x3d707c76	0.058712445
185	0x3d88d317	0.06680887
186	0x3d3ad62e	0.045614414
187	0xbc30a25b	-0.010780896
188	0xbce64f94	-0.028114118
189	0x3c38ac63	0.011271569
190	0xb8aaa641	-8.137199e-05
191	0xbd346c8c	-0.04404883
192	0x3dbd9c7d	0.092583634
193	0x3dfa6abe	0.12227391
194	0xba68e220	-0.0008883793
195	0xbd0a63e4	-0.03378667
196	0xbb82eaf8	-0.0039952956
197	0xbbb96bcb	-0.005658602
198	0x3cc9298c	0.024555944
199	0x3d25bdd3	0.040464234
200	0xbd8a393a	-0.06749196
201	0xbd3750da	-0.04475484
202	0x3dca5815	0.098800816
203	0x3d7b4069	0.061340723
204	0x3b062c69	0.0020473248
205	0xbd8f8fd5	-0.07009856
206	0xbd87b6c0	-0.06626654
207	0xbdcf3b2d	-0.10118709
208	0xbd4f2aa3	-0.05057777
209	0x3d190389	0.037356887
210	0x3d9965bb	0.07490107
211	0x3d6ebca0	0.058285356
212	0xbdf8a1ca	-0.12140234
213	0xbd8cd339	-0.06876225
214	0xb7d47f16	-2.5331548e-05
215	0x3d98c817	0.07460039
216	0x3c4b8fe0	0.012424439
217	0xbd2c9ef9	-0.042143796
218	0x3d260552	0.040532418
219	0xbd3285dc	-0.04358469
220	0xbdb10f24	-0.08645466
221	0x3dc8b9dc	0.09801075
222	0xbc83f733	-0.016109085
223	0xbd014f64	-0.031569853
224	0xbde7f5cc	-0.11326179
225	0x3dc9857b	0.098399125
226	0x3dd3ad3c	0.10335776
227	0x3d1b64aa	0.037937798
228	0xbdc1eee9	-0.094693966
229	0xbdfef3df	-0.124488585
230	0xbdd500c8	-0.1040054
231	0x3dc956cc	0.09831008
232	0x3c98cddd	0.01865285
233	0x3dd17b87	0.10228639
234	0x3d7b744f	0.061390217
235	0x3d2b3d3a	0.041806437
236	0x3bd3f633	0.006468558
237	0xbdc08d02	-0.09401895
238	0xbdcb5e2d	-0.09930072
239	0xbdda949f	-0.106728785
240	0x3d585505	0.052815456
241	0xbd8bb842	-0.06822254
242	0xbd0329c0	-0.032022238
243	0xbd95c820	-0.073135614
244	0xbcf01c25	-0.029310295
245	0xbdbdcb5a	-0.09267302
246	0xbd19c242	-0.037538774
247	0x3bb4e2e8	0.0055202134
248	0xbd3b07c9	-0.04566172
249	0x3d97de60	0.074154615
250	0xbd427e59	-0.047483776
251	0xbdaa03e5	-0.08301524
252	0xbcdbe812	-0.026844058
253	0xbd55f6d4	-0.052237347
254	0xbb7d3792	-0.0038637859
255	0xbe01712e	-0.12640831

lstm.weight_hh_l0 f4 [256, 64]
0	0x3d226457	0.039646473
1	0xbd02ed0f	-0.031964358
2	0x3d79a504	0.060948387
3	0xbc2b78d6	-0.010465821
4	0xb7260ae6	-9.8969085e-06
5	0xab2fbe0b	-6.2436227e-13
6	0xbd89f3bf	-0.06735944
7	0x3d7e60da	0.062104084
8	0xbd931d27	-0.07183295
9	0x3b42f667	0.0029748918
10	0xbc895752	-0.01676527
11	0x3c62bc57	0.013838849
12	0x3b3680cf	0.0027847772
13	0xbb1f1c02	-0.0024278169
14	0xbd2b3245	-0.041795988
15	0x3c341070	0.010990247
16	0x3c5be68f	0.013421669
17	0xbd9d50ef	-0.076814525
18	0xba16b964	-0.0005749671
19	0xbc081b1c	-0.008307245
20	0x9dcbe45e	-5.396978e-21
21	0xbc03ae53	-0.008037168
22	0xbd93b580	-0.07212353
23	0x3bb385af	0.005478583
24	0x3c747894	0.014921326
25	0x3cf19fc6	0.029495131
26	0x3d6c9a86	0.057764553
27	0x3cf8f014	0.030387916
28	0xbd07f8ce	-0.033196263
29	0x3d99be57	0.075070076
30	0xbd1c16fe	-0.038107865
31	0x3d861b03	0.06548121
32	0xbd80bad3	-0.06285634
33	0xbccc7422	-0.02495772
34	0xbd37aa7c	-0.04484032
35	0x2ccbdaf3	5.7939153e-12
36	0xbc17c30d	-0.009262812
37	0x3d8ab222	0.067722574
38	0xb7776fad	-1.4748349e-05
39	0xbca18452	-0.019716416
40	0xbd3f77dd	-0.04674517
41	0xba2a82f8	-0.0006504501
42	0xbcc547c3	-0.02408207
43	0xba04cc9e	-0.0005065891
44	0xbc1f622f	-0.009727999
45	0x3d8cc899	0.068741985
46	0x3d9f4a1d	0.07777808
47	0xbccf3e88	-0.025298372
48	0x3d6b7b57	0.057490673
49	0xb4ccec2b	-3.8169796e-07
50	0xbb503560	-0.0031770095
51	0xbd99f7ed	-0.07517991
52	0xbd286c00	-0.04111862
53	0xbc853769	-0.016261773
54	0xbd145cc2	-0.036221273
55	0xbd1b8495	-0.037968237
56	0xb69ebf6b	-4.731051e-06
57	0xbcb1c3ce	-0.021699812
58	0xbd1a4d77	-0.037671532
59	0x3d420789	0.047370467
60	0xbd4686ca	-0.04846839
61	0xbd0e7bb9	-0.03478596
62	0xbbb272cb	-0.0054458133
63	0x3d39fc96	0.0454069
64	0x24a0e6dd	6.9780037e-17
65	0xbbf53191	-0.0074827154
66	0xbd2c5d6b	-0.042081278
67	0x3891050c	6.915079e-05
68	0x3d75cc5d	0.06000935
69	0xbd603814	-0.05474098
70	0xbb007b19	-0.0019604622
71	0xbce8caf7	-0.028417094
72	0xb3977eec	-7.0545724e-08
73	0xad93e4c6	-1.6813561e-11
74	0xbc9a6cc4	-0.018850692
75	0x3ce5684d	0.028003836
76	0x3ac33b70	0.0014895033
77	0xbd89ca49	-0.06728036
78	0x3d1a6f0e	0.037703566
79	0xbb34f11c	-0.0027609533
80	0xa0a5ecd2	-2.8108802e-19
81	0x388007ab	6.104944e-05
82	0x3d1857ad	0.03719299
83	0x35311adc	6.5976724e-07
84	0x3d753172	0.059861608
85	0x29385e45	4.0937973e-14
86	0xbbee4516	-0.0072714193
87	0x3d71516d	0.058915544
88	0x3d5958a7	0.05306306
89	0xb95c3a5b	-0.00021002574
90	0x3d4cacbd	0.049969424
91	0x3ac3a82d	0.001492744
92	0x3c4351c3	0.011921349
93	0xbca4afa6	-0.020103287
94	0xbd935532	-0.07193984
95	0x3c238671	0.009980784
96	0xbce3b93e	-0.027798291
97	0x3b8c0624	0.004273193
98	0xbd45e631	-0.04831523
99	0xbb57b437	-0.0032913813
100	0xbd7fef66	-0.062484168
101	0xbcfa8e61	-0.03058547
102	0xb5841855	-9.841848e-07
103	0xbd267ed4	-0.040648296
104	0x3d572ea8	0.05253473
105	0x3979bfcc	0.0002381794
106	0x3d2256ca	0.03963355
107	0x3162d9ad	3.3011063e-09
108	0xbb77d24e	-0.003781456
109	0xbd9a08cb	-0.075212084
110	0xb338c596	-4.3020542e-08
111	0xbaf77fd6	-0.0018882703
112	0x33d95f23	1.0122155e-07
113	0xbd1d79bd	-0.038446177
114	0x3d4cd36d	0.05000632
115	0xa882383f	-1.4457292e-14
116	0x3d6e510a	0.058182754
117	0x3c9e1abf	0.019299863
118	0xbcd1f96c	-0.025631629
119	0xb38715e9	-6.290413e-08
120	0xb4a0fc55	-2.9985918e-07
121	0xbc9e781f	-0.019344388
122	0x3bee44c6	0.007271382
123	0x2ecaa0c1	9.214452e-11
124	0x3d942aab	0.07234701
125	0x3665e0ff	3.4254624e-06
126	0x3d3a1aa8	0.045435578
127	0x3d0b36c6	0.033987783
128	0x3c0c8323	0.008576187
129	0xbd8956e3	-0.067060255
130	0x3cbc9562	0.02302045
131	0xa1dfbe7a	-1.5161487e-18
132	0x15ed907d	9.59515e-26
133	0xbd29468b	-0.04132704
134	0xbd23bee0	-0.039976954
135	0x3cb3b5c1	0.021937253
136	0x3b8a9863	0.0042295917
137	0x3c5696b9	0.0130974585
138	0xbd87b6f2	-0.06626691
139	0xbc41c590	-0.011826888
140	0xbd05f297	-0.032702055
141	0xbd10a785	-0.03531601
142	0x3c99669c	0.018725686
143	0x26ffda7f	1.7753403e-15
144	0xbb3d1190	-0.002884958
145	0x237d4a54	1.3730897e-17
146	0xbb3a1053	-0.0028391078
147	0x2285ad82	3.623343e-18
148	0xbd77959d	-0.060445417
149	0x37a273b3	1.9365782e-05
150	0x3d3401e3	0.04394711
151	0x3d75c8a2	0.06000579
152	0x3d178847	0.0369952
153	0xbbca1d38	-0.006168034
154	0xbd73dd24	-0.059537068
155	0x3d6f89ce	0.05848103
156	0x3ad01b02	0.001587719
157	0x3cb3e764	0.021960922
158	0x3d9e69c9	0.07735021
159	0x3bcdbe02	0.006278754
160	0xbd753452	-0.05986435
161	0x3d26ca62	0.04072035
162	0xbc8c345e	-0.017114814
163	0xbb934c33	-0.0044951676
164	0x3d23487b	0.039864045
165	0xae972568	-6.87333e-11
166	0x2dde61b5	2.5281869e-11
167	0x3765723a	1.3676059e-05
168	0x3c735933	0.01485281
169	0xb9f913b0	-0.0004750765
170	0x3d683f5a	0.05670104
171	0xbbe9ff8c	-0.0071410593
172	0xb8e09030	-0.00010708009
173	0xb05e4c46	-8.087152e-10
174	0xbcbecff5	-0.023292521
175	0xbba792ff	-0.005113959
176	0xbb09222f	-0.0020924916
177	0xbc5258db	-0.012838568
178	0x3d8d1a5c	0.06889793
179	0xa8b4fa88	-2.0092665e-14
180	0x3d9b345d	0.07578347
181	0x3d9641c8	0.073367655
182	0x3a921b17	0.001114699
183	0x3ccb0b8b	0.024785778
184	0xbd5205e2	-0.05127514
185	0x141f25e3	8.0349204e-27
186	0x3d99ab7a	0.0750341
187	0xb675c0b4	-3.6620013e-06
188	0xbd072a7b	-0.032999497
189	0x973706a9	-5.9138895e-25
190	0xbbd39e8f	-0.0064581106
191	0xbd121a00	-0.035669327
192	0x3cbff2bb	0.023431173
193	0x3b396b32	0.0028292653
194	0x3b29e527	0.002592394
195	0xbd8df950	-0.06932318
196	0xb03b8199	-6.8214373e-10
197	0x3d8360f9	0.064149804
198	0x316bc398	3.4308183e-09
199	0x3d9388b1	0.07203806
200	0xba80a239	-0.0009813971
201	0x3548c0a6	7.4786146e-07
202	0x3cc6e5e0	0.024279535
203	0x22718133	3.2729988e-18
204	0x3ce254b0	0.027628273
205	0x3d87a649	0.06623513
206	0x3d16d57d	0.036824692
207	0x3c4dd711	0.012563483
208	0x3d2b42a6	0.041811608
209	0x3d647086	0.055771373
210	0xbd8a3a1a	-0.06749363
211	0x3d397ba2	0.04528392
212	0x3d21a4d1	0.03946382
213	0x3cad7161	0.021172227
214	0xbd0a2059	-0.033722255
215	0x3d503413	0.05083091
216	0x3ae7e3b3	0.0017691761
217	0x3c23d828	0.010000266
218	0xbd9f6b83	-0.07784178
219	0x3d88d843	0.06681874
220	0xbd64d3df	-0.05586612
221	0x3c5adde6	0.013358569
222	0x3d9aee60	0.07564998
223	0x3cdcbeb6	0.026946407
224	0xb9ad6127	-0.00033069515
225	0xb8571653	-5.1280786e-05
226	0xbd10c3fc	-0.035343155
227	0xbcc8154b	-0.024424216
228	0xbc8176ad	-0.01580366
229	0x3ce9afd5	0.028526226
230	0x3d0c2622	0.034216054
231	0xbaa4da8b	-0.0012577338
232	0x3bb93eff	0.0056532617
233	0x3874bbbe	5.8348982e-05
234	0xbb300561	-0.0026858675
235	0x3d258f15	0.040419657
236	0xbd2e39fa	-0.04253576
237	0x3987ff2f	0.00025939333
238	0x3a6681c8	0.00087931426
239	0xa6efb56f	-1.6633134e-15
240	0x39219ad4	0.00015411834
241	0x3d15bb69	0.03655568
242	0x3c09cca7	0.008410609
243	0xb6421ba8	-2.892435e-06
244	0x3ba194b9	0.004931059
245	0x3c689a03	0.0141968755
246	0xbc1ee86f	-0.009698971
247	0xbd34e341	-0.04416204
248	0x3cd3ad58	0.025839493
249	0xb27877f9	-1.44627785e-08
250	0x3d28d944	0.041222826
251	0x38f1a094	0.000115216855
252	0x34140715	1.378615e-07
253	0x3c5017d4	0.012700994
254	0x3d541287	0.05177548
255	0xbbaa1fb5	-0.005191768

lstm.bias_ih_l0 f4 [256]
0	0xbd26a7aa	-0.04068724
1	0x3d154d01	0.03645039
2	0xbc5c250b	-0.013436566
3	0xbbe558e8	-0.006999124
4	0x3d1f918c	0.038957164
5	0x3df98843	0.12184193
6	0x3d9a08e2	0.075212255
7	0x3d8214cb	0.06351622
8	0xbd1b33e6	-0.03789129
9	0x3d81db84	0.063406974
10	0xbc96e8b5	-0.01842151
11	0x3d7331b2	0.059373565
12	0x3d8485a6	0.06470804
13	0xbd8ed987	-0.06975084
14	0xbcaf448e	-0.021394994
15	0x3d55144e	0.052021317
16	0x3e08e9cf	0.13370441
17	0x3d0c6698	0.03427753
18	0x3da5f4b0	0.08103311
19	0xbd215a55	-0.039392788
20	0xbde7d126	-0.11319189
21	0x3d06e3a1	0.032931928
22	0x3d0e9875	0.034813363
23	0x3c8928de	0.01674312
24	0x3c723303	0.01478267
25	0x3d1157f2	0.03548426
26	0xbc532571	-0.012887345
27	0xbd73824a	-0.059450425
28	0xbdffb0c1	-0.12484885
29	0x3bdec4f6	0.006798382
30	0x3ddc9291	0.10770143
31	0x3cfcdb37	0.030866249
32	0x3d1e90df	0.03871238
33	0xb97affc9	-0.00023937145
34	0x3ca6c52d	0.020357693
35	0x3dc25c2f	0.09490239
36	0xbcabdd17	-0.020979447
37	0xbc7c4c3e	-0.015399037
38	0xbd93ccf5	-0.07216827
39	0xbe02dffa	-0.12780753
40	0x3db9813f	0.09057855
41	0xbc8d4ef7	-0.017249567
42	0xbe004418	-0.12525976
43	0x3da87681	0.08225728
44	0x3c06b618	0.0082221255
45	0xbcd4c6ba	-0.025973666
46	0xbb9ad2c6	-0.004724833
47	0xbd806176	-0.06268589
48	0xbda37ea3	-0.079831384
49	0xba9fa093	-0.0012178592
50	0xbd05c199	-0.032655332
51	0x3dbecc82	0.093163505
52	0xbd22e7b7	-0.03977176
53	0xbccbf546	-0.024897229
54	0xbcdc3502	-0.026880745
55	0xbcea3fba	-0.02859484
56	0x3d8c8a17	0.06862276
57	0xbd8ec084	-0.06970313
58	0xbd690076	-0.056885205
59	0xbccb537d	-0.024820084
60	0x3db0b2d8	0.08627862
61	0xbc44d0ad	-0.012012643
62	0xbd76108e	-0.06007438
63	0x3d13e2cd	0.036104966
64	0x3751c9d8	1.2504366e-05
65	0x361aff8d	2.3096538e-06
66	0x3d8329d1	0.0640446
67	0x3c6af32e	0.014340205
68	0xbc162015	-0.009162922
69	0x3d198acb	0.03748588
70	0x3d840da2	0.06447913
71	0x3bee485d	0.00727181
72	0xbd96b271	-0.07358254
73	0xb79fc8c9	-1.9047775e-05
74	0xbcc3ad3d	-0.023886317
75	0xbc9cf5a0	-0.019160092
76	0xbd8119e6	-0.06303768
77	0x3ab1f1d0	0.0013576094
78	0xbd1871ad	-0.037217785
79	0x3b66685b	0.0035157416
80	0xbc4d7ca2	-0.012541922
81	0x3d420a38	0.047373027
82	0xbd2e76ae	-0.04259365
83	0x3d72d5f7	0.059286084
84	0x3d6849bc	0.056710944
85	0xbca82534	-0.020525552
86	0x3d9c3322	0.0762694
87	0xbd85b0d3	-0.06527867
88	0x3b6c9116	0.003609722
89	0xbcc0cb50	-0.023534447
90	0x3d94b382	0.07260801
91	0x28075c03	7.513957e-15
92	0xbd766cef	-0.06016248
93	0x3ad7de0e	0.0016469376
94	0xbc4e08ee	-0.012575371
95	0xbd043890	-0.032280505
96	0x3d013ed6	0.031554066
97	0x3d5cb136	0.05387994
98	0x3d996490	0.07489884
99	0x3a81bd55	0.0009898344
100	0x3d9e5f84	0.07733062
101	0x3cbdf2dc	0.023187093
102	0x3d9e12d8	0.07718438
103	0x3d3004a6	0.042973183
104	0x162592d8	1.337493e-25
105	0x3ca707a8	0.020389393
106	0x3c7986a6	0.015229857
107	0x3c8387e3	0.016056007
108	0xb0739fa4	-8.862975e-10
109	0xbd238dbf	-0.0399301
110	0x3d8b0b35	0.06789247
111	0xbd84ff39	-0.06493992
112	0xbd2c136b	-0.042010706
113	0xb8600040	-5.3405995e-05
114	0xbb432738	-0.0029778015
115	0x3d3f7482	0.04674197
116	0x34956bdc	2.783189e-07
117	0xbd44a218	-0.048006147
118	0x3d438b48	0.04774025
119	0x3b86f113	0.0041180938
120	0xbd98773b	-0.074446164
121	0x3d93135b	0.07181426
122	0xbd8b1c51	-0.0679251
123	0xbbe740a2	-0.0070572654
124	0x3d936bee	0.0719832
125	0x3c46b68a	0.012128482
126	0x3cf1ff0b	0.02954056
127	0xbb0b4c42	-0.002125517
128	0xbde86972	-0.11348237
129	0xbd42cae5	-0.047556777
130	0x3d8edabf	0.06975316
131	0x3dbbb526	0.09165411
132	0x3d68f619	0.056875322
133	0xbd52e367	-0.0514864
134	0x3d9e2f35	0.07723848
135	0x3de4197a	0.11137672
136	0xbe00b589	-0.1256925
137	0xbd177021	-0.03697217
138	0xbdccfff6	-0.10009758
139	0xbdc95b22	-0.09831835
140	0x3d3c08a7	0.04590669
141	0x3dbb731c	0.09152815
142	0xbc90fa34	-0.017697431
143	0xbcc9ec88	-0.02464892
144	0x3b9b80cf	0.00474558
145	0xbdd0e6f6	-0.10200302
146	0x3dc44ac8	0.09584576
147	0xba3f1115	-0.0007288617
148	0x3da96357	0.08270901
149	0x3dd2e485	0.10297493
150	0x3d9b460e	0.07581721
151	0x3d4be10c	0.04977517
152	0xbd13733a	-0.03599856
153	0xbd4935c4	-0.04912354
154	0x3def6817	0.116897754
155	0xbcdb11fb	-0.026741972
156	0x3de1f6a3	0.1103337
157	0xbdc868c3	-0.09785607
158	0xbdde0557	-0.10840862
159	0x3df28aba	0.11842866
160	0x3d9e4aef	0.07729136
161	0xbdf9b1b2	-0.12192096
162	0x3cdf4140	0.027252793
163	0xbdaecb5a	-0.0853488
164	0x3bfdac8e	0.0077415174
165	0x3c0266ba	0.007959062
166	0xbd902bb7	-0.07039588
167	0xbbb73fd2	-0.005592325
168	0xbd4b7dac	-0.049680397
169	0x3d92a8ba	0.07161088
170	0xbd8beeb0	-0.068326354
171	0x3e082fbd	0.1329946
172	0xbd6c8752	-0.05774624
173	0x3dcb1c89	0.09917552
174	0x3dcece96	0.10097997
175	0x3d0e31ff	0.03471565
176	0x3cec1ddb	0.02882283
177	0xbdec968b	-0.11552151
178	0xbcaef0df	-0.02135509
179	0x3d6d3564	0.057912245
180	0xbd6714bb	-0.056416254
181	0xbcd5aec1	-0.026084306
182	0xbca3266f	-0.019915788
183	0xbcd5f038	-0.026115522
184	0xbd025c9f	-0.03182661
185	0x3d7e8eea	0.062148012
186	0x3d1cf36d	0.038318086
187	0xbd509d2e	-0.05093115
188	0xbd96bace	-0.07359849
189	0xbda8f876	-0.08250515
190	0xbdffbbdc	-0.12487003
191	0xbd11e2e8	-0.035616785
192	0xbcf0eab4	-0.02940879
193	0x3d6a773f	0.05724263
194	0xbd9f89c1	-0.07789946
195	0x3d2ba84e	0.041908555
196	0xbcf06400	-0.029344559
197	0x3d84bc5d	0.0648124
198	0x3dd2112b	0.10257181
199	0x3ddfe712	0.10932745
200	0x3e02941d	0.12751813
201	0x3d074a9e	0.033030145
202	0x3bc99364	0.0061516035
203	0x3d80e206	0.062931105
204	0xbddb21fe	-0.10699843
205	0x3dccc14b	0.09997805
206	0xbd65599b	-0.055993658
207	0xbe00aff7	-0.12567125
208	0x3dacd5ff	0.08439254
209	0xbda5d35d	-0.08096955
210	0x3ce4c735	0.02792702
211	0xbd5c9301	-0.05385113
212	0xbcfee85c	-0.031116657
213	0x3b9d8359	0.0048069176
214	0x3dbda8a0	0.09260678
215	0xbdef518c	-0.11685476
216	0xbd544d5f	-0.0518316
217	0x3d7cf64d	0.06175833
218	0x3de0e549	0.10981233
219	0x3deb821b	0.11499425
220	0xbde4420f	-0.11145412
221	0xbd4e59a2	-0.05037845
222	0xbd41e515	-0.04733761
223	0xbd088aa7	-0.033335354
224	0x3c81d32a	0.015847761
225	0x3d695a7a	0.05697105
226	0x3caa64d4	0.020800032
227	0x3d16e461	0.036838893
228	0x3e017b38	0.1264466
229	0xbdcbd423	-0.09952571
230	0x3d88cce5	0.066797055
231	0xbd8618e8	-0.06547719
232	0x3c10e281	0.008843065
233	0x3da84120	0.082155466
234	0x3d14353b	0.036183577
235	0x3bb13066	0.005407381
236	0xbd7cfabe	-0.061762564
237	0x3d0c9aef	0.034327444
238	0x3c7fe28c	0.015617978
239	0x3e000934	0.1250351
240	0x3de3fa25	0.11131696
241	0xbd25143d	-0.040302504
242	0x3d89f38e	0.067359075
243	0x3d31a4c4	0.043370023
244	0x3dadb9b9	0.084826894
245	0xbd05f963	-0.032708537
246	0xbc811162	-0.01575536
247	0x3d78a858	0.06070742
248	0x3cc64ad6	0.024205606
249	0xbdb8d64b	-0.09025248
250	0x3d224b1b	0.039622407
251	0x3de8de74	0.113705546
252	0xbd7865ce	-0.060643964
253	0x3cd0813b	0.025452247
254	0xbc9538e7	-0.01821561
255	0xbd7b11e5	-0.061296362

lstm.bias_hh_l0 f4 [256]
0	0xbd14ace4	-0.036297694
1	0x3d9a5e0a	0.07537468
2	0xbd8e4d72	-0.06948365
3	0xbd83b6c1	-0.06431342
4	0xbd763226	-0.06010642
5	0xbc49b675	-0.012311568
6	0xbdb454d3	-0.088052414
7	0x3d64baff	0.055842396
8	0x3d82892c	0.0637382
9	0x3d20d64a	0.039266862
10	0x3d4d4ff1	0.050125066
11	0x3d22ee9a	0.03977833
12	0x3de1d1ac	0.1102632
13	0xbcfb0337	-0.030641181
14	0x3d9d38dc	0.07676861
15	0x3dc5220d	0.09625635
16	0xbd652564	-0.05594386
17	0xbd5690ea	-0.052384295
18	0xbb1d5a14	-0.002400999
19	0x3d8d3690	0.068951726
20	0x3de9def7	0.1141948
21	0xbc731d15	-0.014838477
22	0x3d99e043	0.07513478
23	0xbc821c90	-0.01588276
24	0x3d2759ed	0.040857244
25	0x3df6055e	0.120127425
26	0xbd2dfa3d	-0.042474974
27	0x3cb2c9ea	0.021824796
28	0x3ca3a2c2	0.01997507
29	0x3bade0c5	0.0053063356
30	0x3bd3cd4e	0.006463683
31	0xbcdf6be8	-0.027273133
32	0x3d36de7f	0.044645783
33	0x3def6d4a	0.11690767
34	0x3c5b3076	0.013378253
35	0x3a564ff4	0.0008175366
36	0xbcc535ce	-0.024073508
37	0xbdc59daf	-0.096492164
38	0x3e067d76	0.13133797
39	0xbdd7d7e3	-0.10539224
40	0x3e02ce59	0.12774028
41	0xbd96ae28	-0.073574364
42	0x3c0c380c	0.0085582845
43	0xbcb7b77e	-0.022426363
44	0x3d60a91a	0.054848768
45	0x3d8ac556	0.0677592
46	0xbd30ff6d	-0.043212343
47	0x3d8d11fe	0.06888197
48	0xbd8680de	-0.06567548
49	0x3d9ee262	0.07758023
50	0x3d4a7685	0.049429435
51	0x3defdea9	0.11712391
52	0xbc50e3f8	-0.0127496645
53	0x3de4c0f5	0.11169616
54	0xbdbdb7d2	-0.092635766
55	0x3d61bbe1	0.055110816
56	0x3d1e513b	0.038651686
57	0x3cdf23f5	0.027238825
58	0x3dcf5343	0.10123303
59	0xbd8ee04f	-0.06976377
60	0xbd9a670a	-0.075391844
61	0xbd75a9b6	-0.059976302
62	0x3dbdece5	0.092737
63	0x3d85769e	0.06516765
64	0x33abff49	8.009244e-08
65	0x3d20aba5	0.039226193
66	0x3d2a0d32	0.04151649
67	0xbd9aaacc	-0.07552108
68	0xbcef838f	-0.029237537
69	0xbb75c019	-0.0037498532
70	0xa105e117	-4.5360057e-19
71	0xbbcc5721	-0.0062359725
72	0xb362a202	-5.276707e-08
73	0x3d85069a	0.064954
74	0xa70fe5cd	-1.9969812e-15
75	0x3d3fb22e	0.046800785
76	0xbccaa50c	-0.024736904
77	0xbb91727d	-0.004438697
78	0xae27294c	-3.8008083e-11
79	0xa848c6f7	-1.1145374e-14
80	0x39c186c1	0.00036912228
81	0x3d3a17d8	0.045432895
82	0xbd725d2f	-0.059170898
83	0x36c7190f	5.9335794e-06
84	0x3cfdc0d2	0.030975733
85	0x3cadcce3	0.021215862
86	0xbd50b14c	-0.050950333
87	0xbd32be4e	-0.04363852
88	0x3d281bdc	0.041042194
89	0xbc782b6e	-0.015147073
90	0xbc05bb90	-0.008162394
91	0xbcd170c4	-0.025566466
92	0xb95e4d6e	-0.00021200415
93	0x3c179ce6	0.009253716
94	0x3b4b4a5b	0.003101966
95	0x3d9679cf	0.07347452
96	0xa6319b84	-6.1619974e-16
97	0xbd7fac32	-0.062420078
98	0x3ac6a5ab	0.0015155574
99	0x3cd1635b	0.025560072
100	0x3bcddf77	0.0062827426
101	0x3d0c7973	0.03429551
102	0xbd8f6533	-0.07001724
103	0x3d67cf0b	0.056593936
104	0x3d9a905d	0.07547066
105	0x3c1147a2	0.008867176
106	0x3cae6134	0.021286584
107	0xad6746c1	-1.314654e-11
108	0xbb8cd362	-0.0042976597
109	0x2d20fefe	9.151567e-12
110	0xbb22b3eb	-0.0024826478
111	0xbc234388	-0.009964831
112	0xafb08d4f	-3.211462e-10
113	0xbc57f049	-0.013179847
114	0xbc957217	-0.018242879
115	0x3b8324b4	0.004002178
116	0xbc8e2fe6	-0.017356824
117	0x3d5a42c5	0.053286333
118	0x3cc0251f	0.0234552
119	0x3d088ae3	0.033335578
120	0x3c247113	0.010036725
121	0xba87afc1	-0.0010352061
122	0xb2da3091	-2.5400626e-08
123	0x3d791398	0.0608097
124	0x3d5a12c0	0.053240538
125	0x3c89532b	0.01676329
126	0x3bda1d6c	0.0066563394
127	0x39912eab	0.00027691326
128	0xbdd97d7d	-0.10619638
129	0x3d99b561	0.075052984
130	0x3c1b3c6e	0.009474857
131	0xbb656e72	-0.0035008457
132	0xbdcc1159	-0.09964246
133	0x3cc210d7	0.02368967
134	0x3d5ac012	0.05340583
135	0x3d1de2e1	0.038546447
136	0x3de143cd	0.1099926
137	0xbd09fe3d	-0.033689726
138	0x3de70e91	0.11282075
139	0xbdc2b887	-0.09507852
140	0x3cd67c51	0.026182326
141	0x3d23517e	0.03987264
142	0xbda95c45	-0.08269552
143	0xbd6153b9	-0.055011485
144	0x3d9c694a	0.0763727
145	0x3d4cb8ed	0.049981046
146	0x3ce413ab	0.02784141
147	0x3cac3d72	0.021025393
148	0xbc752e86	-0.014964705
149	0x3d905586	0.07047562
150	0xbdb29944	-0.08720639
151	0x3dba4c4e	0.09096585
152	0xbd0fd497	-0.03511485
153	0xbdde9394	-0.10867992
154	0x3dbd2e43	0.09237339
155	0xbe01c084	-0.12671095
156	0xbd5a4cfb	-0.05329607
157	0x3df470a3	0.11935546
158	0x3df199ca	0.11796911
159	0x3dab2cdc	0.083581656
160	0x3c98e505	0.018663893
161	0xbd1c2968	-0.038125426
162	0x3d0de47a	0.03464172
163	0x3c2e99ae	0.010656757
164	0xbdf9d0d9	-0.12198038
165	0x3d5acebd	0.053419817
166	0xbb990a00	-0.0046703815
167	0xbdfbb58b	-0.12290486
168	0xbcebf655	-0.028803984
169	0x3d19fa24	0.03759207
170	0x3ca53687	0.020167602
171	0x3c1bdc88	0.009513028
172	0xbd8485e5	-0.06470851
173	0xbd73c02f	-0.059509452
174	0x3d8f4b23	0.06996753
175	0x3de25c27	0.11052733
176	0x3db5ec6f	0.08882987
177	0x3dd9b25b	0.10629722
178	0x3d8aa29c	0.067692965
179	0xbc336c54	-0.01095112
180	0xbddf7b43	-0.10912182
181	0x3c866c3b	0.01640903
182	0xbba83db3	-0.0051343082
183	0x3d3855c2	0.04500366
184	0x3d6d2310	0.057894766
185	0x3d83b631	0.06431235
186	0xbd63cc5f	-0.055614825
187	0x3d95907e	0.0730295
188	0xbdba49b1	-0.09096087
189	0x3d5406c9	0.051764283
190	0xbe005e93	-0.12536077
191	0x3d273929	0.040825997
192	0x3d594356	0.053042732
193	0x3d84cd06	0.064844176
194	0xbd9c2664	-0.0762451
195	0xbb20f352	-0.0024559093
196	0xbcf8e114	-0.030380763
197	0xbd1e7738	-0.038687915
198	0x3da4d9d2	0.080493584
199	0x3e0aa7d0	0.13540578
200	0x3dfc54ad	0.12320838
201	0x3d3d7a40	0.046259165
202	0x3bcf0402	0.0063176164
203	0xbd08952a	-0.03334538
204	0xbd8311a0	-0.06399846
205	0x3dc20cf7	0.09475129
206	0xbcedb0c2	-0.029014949
207	0xbdae2b83	-0.08504393
208	0x3ccd6df2	0.02507684
209	0x3d486981	0.04892874
210	0xbd935037	-0.07193034
211	0xbddd6add	-0.10811398
212	0x3d867f55	0.065672554
213	0x3db11994	0.08647457
214	0xbcb74150	-0.02237001
215	0xbd8488dd	-0.06471417
216	0x3e0875f0	0.1332624
217	0x3cde489f	0.027134238
218	0x3d268459	0.04065356
219	0x3dd25836	0.10270731
220	0x3de9ccc2	0.114160076
221	0xbd14dd78	-0.03634402
222	0x3d128df3	0.035779905
223	0x3d344f3e	0.044020884
224	0x3c366509	0.011132487
225	0xbd1c1d2a	-0.03811375
226	0x3d00c6b2	0.03143949
227	0x3d97a9df	0.07405447
228	0xbd86b66a	-0.065777615
229	0x3c290530	0.010316178
230	0x3d2551ad	0.040361095
231	0xbdb13227	-0.08652144
232	0x3d9f03e5	0.07764415
233	0x3d389676	0.045065366
234	0xbd453207	-0.048143413
235	0xbcad975f	-0.021190343
236	0x3cb5afee	0.022178616
237	0x3d82a686	0.06379418
238	0xbc13d34b	-0.009022544
239	0xbd81c3f1	-0.06336201
240	0xbdbb889b	-0.09156915
241	0xbd709d44	-0.05874373
242	0x3c759dc7	0.01499123
243	0xbdbeab34	-0.09309998
244	0x3babd302	0.00524366
245	0xbd9119d7	-0.07085007
246	0xbd7c9659	-0.06166682
247	0xbd6a6054	-0.057220772
248	0x3d9b8025	0.07592801
249	0x3e039397	0.1284927
250	0x3e022c4d	0.12712212
251	0xbd8365a9	-0.064158745
252	0x3d82ad7e	0.06380747
253	0x3db3ac27	0.0877307
254	0x3d0d5888	0.034508258
255	0x3d1a4d32	0.037671275

fc.weight f4 [2, 64]
0	0x3d9f77bf	0.07786512
1	0x3d63f1f7	0.055650678
2	0xbd0e96cd	-0.034811784
3	0x3cfda006	0.030960094
4	0x3d4939f6	0.04912754
5	0xbda31bdb	-0.079642974
6	0x3c63ca79	0.013903254
7	0x3de8f951	0.11375678
8	0xbdfa12cf	-0.12210619
9	0x3da4fc45	0.08055929
10	0xbd4cd680	-0.05000925
11	0x3def315d	0.11679337
12	0xbb4d4ec0	-0.0031327456
13	0x3c161bdc	0.009161916
14	0x3deaf320	0.11472154
15	0x3d859bc9	0.06523854
16	0x3de234ff	0.110452645
17	0x3d699b0f	0.05703264
18	0x3ca34103	0.019928461
19	0xbc2bc54e	-0.010484053
20	0x3d9fa4a6	0.07795076
21	0xbd61daf9	-0.05514047
22	0x3d31a57f	0.04337072
23	0x3db17c64	0.08666304
24	0xbd959cac	-0.073052734
25	0x3d14f99c	0.03637086
26	0x3b9e4af0	0.0048307106
27	0xbdf94c14	-0.12172714
28	0xbd81022c	-0.062992424
29	0xbd7f0616	-0.062261663
30	0xbd5eaae3	-0.05436219
31	0x3df47794	0.1193687
32	0x3d9662c6	0.07343058
33	0xbdd9504c	-0.106110185
34	0xbdf58db0	-0.11989915
35	0xbcd7479d	-0.026279265
36	0xbca15d7b	-0.019697895
37	0xbd8bb0f8	-0.068208635
38	0xbc225098	-0.00990691
39	0x3d901839	0.0703587
40	0x3d3a6bfa	0.04551313
41	0xbdb81abd	-0.08989475
42	0xbd6cb61a	-0.057790853
43	0x3d4aad4d	0.04948168
44	0x3d71e14d	0.059052754
45	0xbca19100	-0.019722462
46	0xbdaf899c	-0.08571169
47	0xbbeb9298	-0.007189106
48	0xbb1a0c1f	-0.002350576
49	0x3d49868f	0.04920059
50	0xbd508405	-0.050907154
51	0xbdbf8393	-0.09351268
52	0xbda3f12e	-0.08004986
53	0x3aa69dd0	0.0012711827
54	0x3a0c5d4e	0.00053544797
55	0x3c1ea278	0.00968229
56	0xbd8938ff	-0.06700324
57	0x3ddfa879	0.109208055
58	0xbd5376bc	-0.051626906
59	0x3c65f127	0.014034546
60	0xbccaceec	-0.024756871
61	0xbca25975	-0.019818047
62	0xbd6df9cb	-0.05809955
63	0xbca0ed0b	-0.01964428
64	0xbc71502f	-0.01472859
65	0x3dff1067	0.124543004
66	0xbddfbea7	-0.10925036
67	0xbd93858c	-0.072032064
68	0xbddb59f8	-0.107105196
69	0x3d008582	0.031377323
70	0xbc935f1d	-0.01798969
71	0x3d998fcb	0.074981295
72	0x3da5d4e4	0.08097246
73	0x3bbe13a9	0.0058006835
74	0x3cc2353e	0.023707028
75	0x3dca7a54	0.098866135
76	0x3d696f61	0.056990985
77	0x3d23aa12	0.039957114
78	0xbd9ff0cf	-0.078096025
79	0xbdd37795	-0.10325543
80	0x3d5e94a0	0.05434096
81	0xbda4f12b	-0.08053812
82	0xbdc8bcf8	-0.09801668
83	0xbd895750	-0.06706107
84	0xbda076f2	-0.07835187
85	0xbd12fbed	-0.035884786
86	0x3dd81a17	0.10551851
87	0xbdc943bd	-0.09827373
88	0x3ddae6ea	0.106885746
89	0x3dbf428e	0.09338866
90	0x3d7eccef	0.06220716
91	0x3defb8a1	0.11705137
92	0xbd819382	-0.06326963
93	0xbd9f135e	-0.07767366
94	0xbd8595f2	-0.065227404
95	0x3d210931	0.039315406
96	0xbd0e1667	-0.034689333
97	0x3c2a16de	0.0103814285
98	0xbd9aa68a	-0.07551296
99	0x3e0309e3	0.1279674
100	0x3ccd6a2b	0.025075039
101	0xbc172db7	-0.009227208
102	0x3dde2d7f	0.108485214
103	0x3dee53ee	0.11637102
104	0xbe02215b	-0.12708037
105	0xb97a87c5	-0.00023892436
106	0xbdcdebcc	-0.1005474
107	0xbdb7a4f3	-0.089670084
108	0x3c133ec4	0.008987132
109	0x3d653e2c	0.055967495
110	0xbd4472b7	-0.047960963
111	0x3d3ef773	0.046622705
112	0x3d44f204	0.048082367
113	0x3da1c84e	0.07899533
114	0x3d251802	0.0403061
115	0x3da5bf16	0.080930874
116	0x3cdf5aa5	0.027264902
117	0xbe03957a	-0.1284999
118	0xbd3c937e	-0.046039097
119	0xbcd447e6	-0.02591319
120	0xbdd8f74d	-0.10594044
121	0xbdca99de	-0.09892629
122	0xbdbcd01d	-0.09219382
123	0x3c94d02d	0.018165672
124	0x3d1c2dce	0.03812962
125	0xbd2cf14c	-0.042222306
126	0xbd37e150	-0.04489261
127	0x3da8221c	0.08209631

fc.bias f4 [2]
0	0xbb725c2b	-0.0036981206
1	0x3d98f4cd	0.07468567
