models/joint_classifier_fc.pt (torch, 2336 bytes, 2 tensors)

weight f4 [2, 96]
0	0xbe0f0d40	-0.13969898
1	0x3d8a7aae	0.067616805
2	0xbd90074d	-0.070326425
3	0x3da30981	0.07960797
4	0xbdd7b1bd	-0.10531948
5	0xbdc36751	-0.095411904
6	0x3e066980	0.13126183
7	0x3d589646	0.052877687
8	0x3d6aa534	0.057286456
9	0xbbcf1d90	-0.006320663
10	0xbcf22f30	-0.029563516
11	0xbd6f4357	-0.05841383
12	0xbd9bb245	-0.076023616
13	0x3bb3718b	0.005476182
14	0xbd77242e	-0.060337238
15	0x3e002c70	0.12516952
16	0x3b6fbe2d	0.003658186
17	0xbd76a6f6	-0.06021782
18	0xbda27f4d	-0.07934437
19	0xbdaee78d	-0.085402586
20	0x3e18a776	0.14907631
21	0x3cf80ed2	0.030280504
22	0xbd19e3f0	-0.037570894
23	0x3c200df6	0.009768954
24	0xbd9d6dc0	-0.07686949
25	0x3e28b03b	0.16473477
26	0x3de30e0b	0.11086663
27	0x3da729b0	0.08162248
28	0x3dd03cf6	0.101678774
29	0xbe0a3c6e	-0.13499615
30	0x3d82dd35	0.06389848
31	0xbd18a70f	-0.037268694
32	0x3da25fb7	0.079284124
33	0xbd7deb39	-0.061991904
34	0x3e0d62d1	0.13807227
35	0xbdb8d5d6	-0.09025161
36	0x3d911d02	0.07085611
37	0xbe055178	-0.13019359
38	0x3dc05ae0	0.09392333
39	0xbdab436a	-0.083624676
40	0x3da5d3fb	0.08097073
41	0x3ae6d292	0.0017610362
42	0xbdb65965	-0.089037694
43	0xbcd3571f	-0.025798379
44	0x3e11a2bd	0.14222236
45	0x3c5125a0	0.012765318
46	0xbd740c68	-0.059582144
47	0xbdc01ae2	-0.093801275
48	0xbccfe360	-0.025376976
49	0x3dc704f2	0.0971774
50	0x3de9595e	0.113939986
51	0x3dac680c	0.08418283
52	0xbd1f4582	-0.038884647
53	0x3d984806	0.074356124
54	0x3d0839e0	0.03325832
55	0x3db2eb7b	0.087363206
56	0x3cb83af0	0.022489041
57	0xbc9906c2	-0.01867998
58	0xbccfc4b3	-0.025362348
59	0x3d89bcdc	0.06725475
60	0x3c8713a1	0.016488852
61	0x3c0dc74c	0.008653473
62	0xbdc5d25e	-0.09659265
63	0xbe3f132c	-0.18659657
64	0x3c7c795f	0.0154097965
65	0xbb44ecfc	-0.003004848
66	0xbd812893	-0.06306567
67	0x3d881b8c	0.06645879
68	0x3db472ff	0.08810996
69	0x3e0f27de	0.13980052
70	0x3a7a2cfe	0.00095434475
71	0xbd7505a2	-0.059819825
72	0xbce102c9	-0.027467148
73	0xbdc35f21	-0.09539629
74	0x3cf59246	0.029976975
75	0xbca1fbc2	-0.019773368
76	0xbd682264	-0.056673422
77	0xbd6a55c9	-0.057210717
78	0x3cf24e2d	0.029578293
79	0xbdd5f6f7	-0.104474954
80	0x3dbe7c8b	0.093010984
81	0xbd1ac930	-0.037789524
82	0xbd674f21	-0.056471948
83	0xbd77cc7e	-0.060497753
84	0x3d26f07d	0.04075669
85	0xbc8a1a03	-0.016858106
86	0x3d155f42	0.036467798
87	0xbd06c4da	-0.032902576
88	0xbdb2f0b5	-0.087373175
89	0xbdacb887	-0.08433633
90	0x3bf74c3c	0.0075469296
91	0x3dbf2bd2	0.0933453
92	0x3d067184	0.0328231
93	0xbdcb8a52	-0.09938492
94	0xbd02c72a	-0.03192822
95	0x3da654df	0.081216566
96	0x3d8918dc	0.06694195
97	0xbd5a45e2	-0.0532893
98	0xbda941a2	-0.082644716
99	0x3ceab7eb	0.028652152
100	0xbc8b997f	-0.017040966
101	0x3d4f80e8	0.050660044
102	0xbe0c0a83	-0.13675885
103	0xbda96eac	-0.08273062
104	0xbdb074d7	-0.086160354
105	0x3d9d3aaa	0.07677205
106	0x3da88057	0.08227604
107	0x3d0d09fc	0.03443335
108	0x3da2a7d8	0.0794217
109	0xbd595f8d	-0.05306964
110	0x3d9d9eee	0.07696329
111	0xbd6915ca	-0.056905545
112	0xbdfee264	-0.12445524
113	0x3d542494	0.051792696
114	0x3d7559ce	0.059900098
115	0x3dd0378a	0.10166843
116	0xbdb15471	-0.08658684
117	0x3dea79c1	0.11449004
118	0xbd7a7888	-0.061150104
119	0x3b4293bf	0.0029690114
120	0x3d94cfda	0.07266207
121	0xbd0e08c6	-0.034676336
122	0x3d81a5fe	0.063304886
123	0xbba42080	-0.005008757
124	0xbd24667a	-0.04013679
125	0x3c42131e	0.011845378
126	0x3d8a77e1	0.06761146
127	0x3d58c6d0	0.052923977
128	0xbd8e589f	-0.06950497
129	0x3bbe62b1	0.005810105
130	0xbda54fca	-0.08071859
131	0xbd8c9c81	-0.06865788
132	0xbe2ea418	-0.17054784
133	0x3e368ce7	0.17827187
134	0xbd2a3b55	-0.04156049
135	0x3d3383d5	0.043826897
136	0x3c27c812	0.010240572
137	0xbd74a7ae	-0.059730224
138	0x3ceab880	0.02865243
139	0x3d0d6cc0	0.03452754
140	0xbe036254	-0.12830478
141	0x3ca18038	0.01971446
142	0x3d8fa5dc	0.07014057
143	0x3d3738e6	0.044731997
144	0xbb69ecc0	-0.0035694093
145	0xbd90e59b	-0.07075044
146	0xbd8700fe	-0.06591986
147	0xbd2fde5a	-0.04293666
148	0x3d590998	0.052987665
149	0x3d5db10a	0.054123916
150	0xbd45cb48	-0.048289567
151	0xbd84c3ac	-0.06482634
152	0xbd9fa974	-0.077959925
153	0x3d01ad6f	0.03165954
154	0xbca159f8	-0.01969622
155	0x3d868ed8	0.06570214
156	0xbd8583bd	-0.06519268
157	0x3d280fda	0.041030742
158	0x3bb53590	0.005530067
159	0x3e2e88b4	0.17044336
160	0x3de2a964	0.11067465
161	0x3d07ad38	0.03312418
162	0x3cbb26ef	0.022845713
163	0x3d4c7067	0.049911883
164	0x3d4ad2b3	0.049517345
165	0x3d572aad	0.052530933
166	0xbd02e3d0	-0.03195554
167	0xbc5604c4	-0.01306266
168	0xbd693fc4	-0.056945577
169	0x3dbba063	0.09161451
170	0x3dcbca41	0.09950686
171	0x3d287f6c	0.041137144
172	0xbc1153ff	-0.008870124
173	0xbc5bb77e	-0.013410447
174	0xbdc30c7e	-0.09523867
175	0x3dd02c27	0.101646714
176	0xbcc021dd	-0.023453647
177	0x3dcefe36	0.10107081
178	0xbb937e0e	-0.004501111
179	0x3bcf311e	0.006322994
180	0x3dbbb428	0.091652215
181	0x3c788e9c	0.0151707195
182	0xbdad3786	-0.08457856
183	0x3d4ef9b7	0.050531115
184	0x3cd6d3ec	0.0262241
185	0xbd5c7c94	-0.053829744
186	0x3df6eb7f	0.12056636
187	0x3d94315d	0.07235978
188	0xbcf47804	-0.029842384
189	0xbaea3a53	-0.0017870165
190	0xbd7a83d3	-0.061160874
191	0xbd5a5414	-0.05330284

bias f4 [2]
0	0xbd9d477c	-0.0767965
1	0x3c230476	0.009949794
