models/lifelog_model.pt (torch, 26752 bytes, 4 tensors)

model.0.weight f4 [64, 93]
000000 7c bc 82 bc d7 21 78 3d 62 d1 f1 bc d5 51 31 bd
       -0.015959017 0.060579147 -0.029518787 -0.04329093
000010 00 a6 3b be 79 d4 9f 3b d9 c7 76 bc d8 a0 7c 3c
       -0.18325043 0.0048776236 -0.015062296 0.0154192075
000020 4c 12 ae 3d 95 b2 e6 bd d6 a0 fa 3d 91 3e 1c be
       0.084995836 -0.112645306 0.12237708 -0.15258242
000030 73 65 c0 3b 8c f2 3f 3c ee b4 ef 3d 33 6b 00 3b
       0.0058714687 0.0117155425 0.117044315 0.0019595146
000040 60 2a 3d bd e2 a1 85 bd 1f 99 bb 3c eb ab 58 3d
       -0.04618299 -0.06525017 0.022900162 0.05289833
000050 99 27 49 bc 89 78 bd bd 40 a8 68 bb e0 7d 3d bd
       -0.012277507 -0.09251506 -0.0035500675 -0.046262622
000060 a1 4e 1d 3e ce de 65 bd 21 49 99 bd ac 8e 99 bd
       0.15362026 -0.056120686 -0.07484651 -0.074979156
000070 14 44 90 3c ee 5e 86 3d 82 e1 17 3d 1d 07 29 bd
       0.017610587 0.06561075 0.037080295 -0.04126655
000080 43 3d a3 bd 7d f8 c9 3d ed b8 a4 bc 61 ad 70 3c
       -0.07970669 0.098618485 -0.02010771 0.014689774
000090 c8 09 25 3d d2 90 9a bd 67 ed 03 3e 45 ca 96 bd
       0.04029253 -0.075471535 0.1288353 -0.073627986
0000a0 50 97 c2 bc 5c 7a 63 bd fc 0c fe bd 5b db 4a bd
       -0.023753792 -0.055536613 -0.1240482 -0.0495256
0000b0 3c af c9 bd da 6c 15 bd fd 90 db 3d 02 b0 09 bc
       -0.098478764 -0.036480762 0.10721014 -0.00840378
0000c0 00 91 21 3d 7f 8c a1 bd db 51 b6 3c 47 8f bc bd
       0.039444923 -0.07888126 0.022255829 -0.092070155
0000d0 68 7a 2a bc f2 87 18 bd 7c ca 84 3d 58 85 79 be
       -0.0104051605 -0.037239023 0.06483933 -0.24367273
0000e0 d5 9c f0 bd 3b 90 8e 3d 65 22 0e be c5 03 8f bc
       -0.11748663 0.069611035 -0.13880308 -0.017457852
0000f0 5a fd 93 bd 0a 88 75 bd e2 4a d6 ba 25 d2 ea bd
       -0.07226057 -0.05994419 -0.0016349221 -0.11465863
000100 ba 32 5e bc 17 cf 2d bd 91 9e 12 be 7c d1 aa 3c
       -0.013561899 -0.042433824 -0.14318301 0.020851843
000110 4e b1 64 bd d9 6b 4f 3d 90 d0 64 3c 02 df 38 bd
       -0.055833153 0.05063996 0.013965741 -0.04513455
000120 2a a0 74 bd de 99 c1 bd 55 ad 14 bd 7c 96 fd 3c
       -0.059723057 -0.09453176 -0.036298115 0.030955546
000130 bf e4 cb bc dc 02 b4 3d be 29 24 3d 4e c4 39 be
       -0.024889348 0.08789608 0.04007887 -0.1814129
000140 b3 b6 cf 3d 13 79 ef 3c 7e e5 95 3d a0 0c 27 bd
       0.10142269 0.029232537 0.07319163 -0.040783525
000150 13 55 58 bd 0c 10 11 3e 2b 0c 56 bd 75 0a fb bc
       -0.052815508 0.14166278 -0.052257698 -0.030644635
000160 e3 12 c6 3c 8b 27 9f bd 78 bc 5f 3d 6e 9b 87 3d
       0.024178928 -0.07771214 0.054623097 0.06621443
000170 5d 87 85 bd c0 46 ae 3b 23 25 1c 3c 06 be 52 3d
       -0.06519959 0.0053184927 0.009530338 0.05145075
000180 5c e1 0a 3b e8 cc eb bd 48 3a 77 bd 4b e8 54 3d
       0.0021191454 -0.11513692 -0.060358316 0.051979344
000190 c8 08 35 bd 5e 5c b9 bd df f1 0f 3d 83 7f 74 bd
       -0.044197828 -0.09050821 0.035142776 -0.059691917
0001a0 d1 83 2b 3e ab 43 bd bd 0b d3 87 bc 22 be b6 3b
       0.16749503 -0.09241422 -0.016580125 0.005576865
0001b0 34 d9 e2 bd 2f 1c 51 3c 84 12 96 3d 4c 06 7d 3c
       -0.110765845 0.012763067 0.0732775 0.015443396
0001c0 3c ab 06 3e 88 3d 33 be 5c 0d 69 3d b6 a9 b1 bd
       0.13151258 -0.17503941 0.056897506 -0.08674948
0001d0 86 ac bc 3d eb ce b9 bc 63 85 b9 bc c1 a7 e3 bc
       0.09212594 -0.022681674 -0.022646612 -0.027789952
0001e0 e1 59 48 bd fa eb a3 be a0 e2 01 3b 28 f4 4d bd
       -0.04891384 -0.32015973 0.0019818917 -0.050281674
0001f0 56 3c 68 3c c2 b2 8d bc 49 ec 03 bd d2 a7 83 3b
       0.014174541 -0.017297152 -0.03220776 0.0040178085
000200 fd a5 89 3d 5d 1e f0 3d 94 6c 00 be 3b d9 c1 3d
       0.06721113 0.11724541 -0.1254142 0.094652615
000210 4e 8a a7 bd da 84 94 bb f8 9f a3 3c 53 0d 1a 3e
       -0.081806764 -0.0045324387 0.01997374 0.15044145
000220 11 40 d2 3c 07 15 ba 3c a2 12 bf 3d d1 38 81 3d
       0.025665315 0.022715105 0.09329726 0.06309665
000230 75 fb 15 bd 7e b7 de 3d 0f 93 9e 3d f2 71 39 3e
       -0.03661676 0.10874842 0.07742893 0.18109873
000240 6e ac 3f be ea 66 bb 3d 34 3e aa 3c bd 79 84 bd
       -0.1871812 0.09150489 0.020781614 -0.06468532
000250 42 80 b9 3d 88 4a 32 bd 4c bf e9 bc 14 d8 19 be
       0.09057666 -0.04352811 -0.0285336 -0.15023834
000260 81 8e 80 be 06 c3 24 bd 26 3d b9 3d d3 5f 94 3d
       -0.25108722 -0.04022505 0.09044866 0.072448395
000270 2c cc b3 3d 3c 94 9c 3d 84 1b 26 3d 4e 57 ae bd
       0.08779177 0.07645461 0.040553585 -0.08512746
000280 61 6d 1a 3d c4 46 c5 bc 39 dd b3 bd d0 5e cb 3c
       0.037701968 -0.024081595 -0.08782429 0.024825484
000290 23 44 d5 bd d7 ad e3 bd ea a1 9e 3c ee bc 79 bd
       -0.10413387 -0.11117142 0.019364316 -0.060971193
0002a0 f5 40 a3 bc e2 fa 6e 3c e2 e3 3b be 54 db 87 ba
       -0.019928435 0.014586182 -0.18348649 -0.0010365047
0002b0 b2 02 d5 3c 12 db cf 3d a2 be 37 3e 35 5d e2 bd
       0.026002262 0.10149206 0.17943814 -0.11052934
0002c0 ca 14 b2 bd 76 df ca bd b6 b2 2b 3c 68 05 83 3c
       -0.086953714 -0.09905903 0.01047962 0.015993789
0002d0 e3 09 69 bd b4 cd 3f bd bf 23 0c be 83 44 0e be
       -0.056894194 -0.046827033 -0.13685511 -0.13893323
0002e0 38 60 58 3d 75 31 8e 3d 04 a9 7b 3d 4e d4 89 3d
       0.052826136 0.06943027 0.061440483 0.06729947
0002f0 d4 57 51 bd 49 c3 0c bd 98 2c ed 3b 0e 9f 5f 3d
       -0.05110915 -0.034365926 0.007237982 0.054595046
000300 52 55 54 bd a3 56 82 3d 10 54 c5 bc 3a 14 94 bd
       -0.05183918 0.06364181 -0.024087936 -0.072304204
000310 51 54 51 3d 93 51 a1 3d bf c5 42 bd 1d 19 72 3d
       0.0511058 0.07876887 -0.047551867 0.05910598
000320 bb f7 10 bd 46 2f e2 bc a8 ad 22 bd 4e 16 9a bb
       -0.035392504 -0.027610432 -0.039716393 -0.004702366
000330 fc 89 78 3d 56 54 f3 3d da 8c c6 3c 40 dd 83 bd
       0.060678467 0.1188132 0.024237085 -0.064386845
000340 a6 02 1c bd e1 79 34 3d 56 ac cb 3d 40 fe 84 3d
       -0.038088463 0.044061545 0.0994498 0.06493807
000350 e2 1e ee bc 0f b7 e8 bc d7 07 a9 bb 08 33 a2 3d
       -0.02906746 -0.028407602 -0.0051584053 0.0791989
000360 9c 95 b7 3d bf bb d8 bd 64 d4 49 3d b1 63 8b 3d
       0.089640826 -0.10582685 0.049274817 0.06806124
000370 3b ac 0e bd d9 53 aa 3d cd be 8e bd 49 09 2f 3d
       -0.03483222 0.08316774 -0.06969986 0.042733464
000380 99 17 1f 3d 9a 33 8a bd 4a 24 63 bd 9e 34 42 bd
       0.038840864 -0.067481235 -0.05545453 -0.04741346
000390 40 2a dd 3c ba 26 83 3b 4c db 6e bd 66 7f 13 bc
       0.026997685 0.0040024193 -0.058314607 -0.009002542
0003a0 83 09 77 bb 86 82 87 3d da de cc bc b5 1a 99 bd
       -0.0037694878 0.06616692 -0.025008608 -0.07475797
0003b0 b8 cd 25 3d 67 01 8a bd 1b bf 7b bd a0 74 b0 3c
       0.04047939 -0.06738549 -0.06146155 0.021539986
0003c0 b1 1b 23 bd 3d 49 1d be c7 e3 71 bd f7 73 48 bd
       -0.03982133 -0.1535997 -0.059055116 -0.048938718
0003d0 6a 01 5f 3d 35 46 24 bd 38 b0 cd bd 17 36 dd bd
       0.054444708 -0.040106017 -0.10043377 -0.108013324
0003e0 40 90 9a bd de ba 87 bd 72 1a d5 3c a4 80 54 bc
       -0.07547045 -0.06627439 0.026013587 -0.012970123
0003f0 ea 21 a4 bd 1f 4d 33 3d 7e fd 9d 3b 8c 9d 95 bd
       -0.08014281 0.04377472 0.0048214784 -0.0730544

model.0.bias f4 [64]
000000 e9 87 bb bd 70 6a 85 bd b4 98 f6 bd 27 6e f7 3d
       -0.09156782 -0.06514442 -0.120408446 0.12081557
000010 58 ea f4 bc 44 5e f8 bd 6a e9 ce bd 23 af 67 bc
       -0.0298969 -0.12127355 -0.10103114 -0.014140877
000020 ab 40 66 be cc f9 19 bd 4b e4 23 3d ee a1 a9 bd
       -0.22485606 -0.03759174 0.04001264 -0.08282839
000030 eb 66 7e bd 33 ed 34 be 2a 39 15 3e 05 8d 17 bd
       -0.06210987 -0.1766861 0.14572588 -0.03699972
000040 b9 cc 58 be 53 3c af 3c e1 44 a5 3d 9d 52 ee 3d
       -0.21171845 0.02139107 0.08069778 0.11636851
000050 18 76 02 3d 2c ce a4 bd f5 37 5e 3d 71 8f c8 3c
       0.031850904 -0.08047137 0.054252584 0.02448246
000060 db 31 41 3c b7 98 4a 3d 16 90 6e bd 47 14 b6 bc
       0.011791672 0.049462046 -0.05824288 -0.022226466
000070 8c 0d 48 3d 44 6d e7 3d e9 13 ba 3b 17 8a a2 bd
       0.048841044 0.11300138 0.005678643 -0.07936495
000080 fe 76 24 be f3 9c 24 bd 1a cc bc bd 66 9b 04 be
       -0.16061017 -0.04018874 -0.09218617 -0.12949905
000090 6c 53 5a bd f8 da eb bd 49 30 85 bd 47 88 75 be
       -0.053302214 -0.11516374 -0.0650335 -0.23977767
0000a0 eb 47 0f 3e d7 7b 61 bd f2 53 c8 bd d5 a7 a2 bc
       0.13992278 -0.055049744 -0.09781636 -0.01985542
0000b0 27 84 26 be 19 35 e3 bd d6 3e ab bd de 44 92 bc
       -0.1626135 -0.11094112 -0.083615944 -0.017855104
0000c0 1d fd de bd 06 dc da bd 6b ae 08 3d 42 39 f4 bd
       -0.10888121 -0.106864974 0.033369463 -0.119249836
0000d0 d8 df ff 3c 05 b4 d6 bc 80 c1 15 3e c0 d7 c4 bc
       0.031234667 -0.026208887 0.14624596 -0.024028659
0000e0 9a ff 1d be 43 8f 7a 3c 68 1a 0a be 12 ec 97 bd
       -0.15429536 0.015292945 -0.13486636 -0.07418074
0000f0 3e dc 76 bd 0f 41 43 3d 72 f3 1f be 5f bd 5a bd
       -0.060268633 0.047669467 -0.15620211 -0.053403255

model.3.weight f4 [2, 64]
000000 f8 89 1c be 03 f2 cf 3d 01 70 35 3c 2f 0e 53 bb
       -0.15287006 0.10153582 0.011074067 -0.00322045
000010 70 07 a1 bd e4 62 cf bd 54 b8 41 bd 09 ff a1 bc
       -0.07862747 -0.10126284 -0.04729493 -0.01977493
000020 49 1d 6c bc b5 47 1a bd 94 47 f1 3d a1 3e 47 3e
       -0.014411279 -0.03766604 0.117812306 0.19457485
000030 aa d7 a5 3c 8f bd 84 bd b6 1f f2 3d 86 57 12 3e
       0.020244438 -0.06481468 0.11822455 0.142912
000040 56 36 18 be 82 fa ce bc e6 c1 80 3d 78 eb 35 3e
       -0.14864478 -0.025265936 0.06286983 0.17765605
000050 c0 b9 97 bd 67 88 d1 bd 5f 8a d0 3c 45 b0 02 bc
       -0.07408476 -0.10231095 0.025456605 -0.007976596
000060 71 ea 13 3e 6e 7a a3 bd de dd 13 3e f6 01 2a 3c
       0.14444901 -0.07982336 0.14440104 0.010376444
000070 3a f5 57 bc 08 99 4e bd 41 22 36 3e ae 19 eb bd
       -0.013181025 -0.05043891 0.17786504 -0.114795074
000080 44 b3 a7 3d ce 57 8b bb 44 fb ad bd 54 56 4e bd
       0.08188489 -0.0042524105 -0.08495191 -0.050375298
000090 69 e7 9f 3d eb a5 3b bd a4 fb 85 3d 72 51 30 be
       0.0780781 -0.04581253 0.06542137 -0.17218569
0000a0 2d db c8 3d 09 69 96 3d e8 89 df bd 10 6a 86 3d
       0.098074295 0.073442526 -0.109149754 0.065631986
0000b0 6c ac de bd b7 71 28 3e 5a c4 31 3e e8 1a e8 bd
       -0.108727306 0.16449629 0.17360058 -0.11333257
0000c0 dd d4 04 be a7 56 34 bd 69 da 2f be d2 fb 24 be
       -0.12971826 -0.04402795 -0.1717316 -0.16111687
0000d0 06 70 10 3e 8b 58 59 3d 0f 0e 0e 3e 48 ee 93 bd
       0.14105234 0.053062957 0.1387255 -0.07223183
0000e0 01 b8 f4 3d 88 e9 e8 bd 0b 71 34 3e 08 df 5d 3e
       0.119491585 -0.113726676 0.17621247 0.21667111
0000f0 14 9d d2 3a 49 7b ee 3d bc 32 39 3e 62 04 4a bd
       0.0016068541 0.116446085 0.1808576 -0.049320586
000100 35 12 3b 3d f9 02 7b be b8 65 46 3d 96 ab bd bd
       0.04567166 -0.24512853 0.04843685 -0.09261243
000110 84 56 0d 3e 74 26 04 3e 09 a4 fb 3d a1 f9 fa bd
       0.13802534 0.12905294 0.122871466 -0.12254644
000120 fb fa 29 3e 0a 9a 27 3d db dc 1c be 9e f5 0c be
       0.16599648 0.040918387 -0.15318625 -0.1376557
000130 dc 7c c5 3d 2d 9c 1f 3e ae bf 1e 3c 43 a9 d7 bd
       0.09642956 0.1558692 0.009689255 -0.10530331
000140 f1 5a cc 3d 39 a4 50 be a9 de 9e bd aa 75 45 bd
       0.09978283 -0.20375146 -0.07757313 -0.048207916
000150 10 29 be 3d b6 00 01 3e f0 c0 0c be 2d 1b 35 be
       0.09285176 0.12597927 -0.13745475 -0.17686148
000160 ff 20 3e be d1 ee f7 3c 83 80 a4 3c 8e 1e fa 3d
       -0.18567275 0.030265244 0.02008081 0.12212859
000170 e8 bb 22 be f9 79 0d be 4b a1 24 be b4 34 47 3d
       -0.15891993 -0.1381606 -0.16077153 0.048634246
000180 56 c3 c5 bd fe 51 a9 bd 60 c5 1c 3e 56 a2 82 3d
       -0.09656398 -0.08267592 0.15309668 0.063786194
000190 e7 b3 93 bd bc 80 e9 3d 35 7f 22 be fb e2 2d 3e
       -0.07212048 0.11401507 -0.15868838 0.16981117
0001a0 bb 2a ae bd ea 9a 0c be 83 79 06 3e 7a 82 81 bd
       -0.08504244 -0.1373097 0.1313229 -0.063237146
0001b0 a8 8b 45 3e e1 1e 1f be bb c9 33 be a7 20 13 3e
       0.19291556 -0.15539123 -0.17557423 0.14367925
0001c0 de 23 22 3e 54 a5 05 3e ab fd 92 bb df 77 c9 3d
       0.15833995 0.13051349 -0.004485806 0.09837317
0001d0 3e c5 d0 bd d1 58 17 be a0 26 33 be 2e b2 8a 3d
       -0.10193871 -0.14779975 -0.17495203 0.06772266
0001e0 d8 b2 c5 bd 17 60 e8 3d 8b 27 26 bd b2 17 5a bd
       -0.09653252 0.11346453 -0.040565055 -0.053245254
0001f0 2d 88 5f bc 38 e6 87 bd 10 8e 49 be 98 93 54 3e
       -0.013643307 -0.066357076 -0.19683099 0.20759428

model.3.bias f4 [2]
000000 32 a3 15 3e 0a 62 5d bb
       0.14613035 -0.003378036
