models/tab_encoder_contrastive.pt (torch, 10764 bytes, 8 tensors)

net.0.weight f4 [32, 17]
000000 a2 f3 07 3e bf de 85 bb 7a 27 2a 3e 5c b9 97 3d
       0.13276532 -0.0040853913 0.16616622 0.07408401
000010 73 c2 74 3d b4 ac 04 be 94 f6 a6 bd 87 6d af 3d
       0.059755754 -0.12956506 -0.081525 0.085658126
000020 1f 96 e1 bd 84 ea 9b bd cd 44 68 be 36 41 da 3d
       -0.110149615 -0.0761309 -0.22682495 0.10656969
000030 fe 2f f2 bb d6 ea b5 bd 37 9f ea bc a9 85 da 3d
       -0.007390975 -0.08882682 -0.028640373 0.10670025
000040 d5 d8 96 3d ee 7b 36 3d 9c 3b 64 3d 19 8b 47 3e
       0.07365576 0.044551782 0.05572091 0.19486655
000050 b5 4b 6b be af b5 ae bd 31 c8 0c be 67 67 00 be
       -0.22978099 -0.08530747 -0.13748242 -0.12539445
000060 db b8 23 be f8 d9 e4 bd 90 e4 b4 3c d4 26 5a be
       -0.15988486 -0.11174387 0.022081643 -0.21303874
000070 f1 07 88 3e ec 36 63 3d 63 51 a6 3d c8 33 ce bd
       0.2656856 0.0554723 0.08120992 -0.1006847
000080 c2 37 cd bd ab 21 b0 3d b0 7a 25 bd 33 c8 28 be
       -0.100204006 0.08600172 -0.040400207 -0.1648262
000090 72 38 34 bb 58 56 6a 3e 55 4f 29 3e 26 32 f3 bd
       -0.0027499464 0.228845 0.16534169 -0.118747994
0000a0 d1 96 02 3e b5 e9 c5 3b f2 e9 75 be 42 d4 2d 3e
       0.12752844 0.006039823 -0.24015024 0.16975501
0000b0 78 ca 32 be 6d 62 67 3e 32 ef b4 3c a3 98 27 be
       -0.17460048 0.2259614 0.022086713 -0.1636682
0000c0 32 1c 7d bc a0 f6 23 bc 51 2c 3e 3e 5f 61 f2 bd
       -0.015448617 -0.01000753 0.18571593 -0.11834978
0000d0 13 b9 85 3e 2f ed e3 bd 76 b6 22 3e 80 5e 54 be
       0.26117763 -0.111292236 0.15889916 -0.20739174
0000e0 8a e6 5f 3e 0b aa c5 bd 1c ba 1b be eb 65 12 be
       0.21865287 -0.09651574 -0.15207714 -0.14296691
0000f0 0b bc 39 be a1 73 b1 3d bc 8b 25 3e d6 79 2b be
       -0.18138139 0.086646326 0.16166586 -0.16745695
000100 22 9c 75 3e ae 95 8c 3d fd 13 45 3d 23 20 98 3c
       0.23985341 0.06864487 0.048114765 0.018570011
000110 8e 23 0f bd 0b 36 6b be 69 d8 f0 3d d2 6f 17 be
       -0.034946017 -0.22969835 0.11760027 -0.1478875
000120 57 af 81 3d 1c 7c 21 3c 7d a2 06 3e d7 99 2b be
       0.063322715 0.00985625 0.13147922 -0.16757904
000130 c9 de 30 3e 4c d7 10 be fb 89 9c bd 93 92 6b bd
       0.17272486 -0.14144629 -0.07643505 -0.05751283
000140 aa 69 23 be 1d 54 03 bd 02 71 a2 3d 9c 96 8d bd
       -0.15958276 -0.03206264 0.07931711 -0.06913492
000150 80 d1 1e 3e 01 ad 7c bd 86 cc 8c 3e ee e9 28 bd
       0.15509605 -0.061688427 0.2749979 -0.041238718
000160 3b a4 1f be 30 02 1a be 1d 3e 05 3e 29 4e 01 bb
       -0.15589993 -0.15039897 0.13011976 -0.0019730425
000170 d7 f0 21 3d 90 8a 49 bd 85 6c 5c be e8 a9 8a bd
       0.039536323 -0.04920441 -0.21525772 -0.06770688
000180 9f 75 92 bc 2a 67 c5 bd e3 ee 3f 3d f4 2f 0d be
       -0.017878352 -0.096388176 0.04685868 -0.13787824
000190 e7 1b 21 3c d8 6d df bd 6a d6 67 3d e4 5a 49 3e
       0.009833313 -0.10909623 0.056600966 0.19663578
0001a0 b7 98 df 3d a8 6e 17 3d 18 cd 25 3e 8d 82 be 3d
       0.109178 0.036970764 0.16191518 0.09302244
0001b0 0f 0b ff 3d 7f b5 9e 3d a1 99 2a be b5 f2 b1 bd
       0.12453281 0.077494614 -0.16660167 -0.08688871
0001c0 34 fa 05 3e 6a 48 40 3d 47 e3 dc 3d 0c 9e 38 be
       0.13083726 0.04694406 0.10785537 -0.1802904
0001d0 d3 ff a7 bc 84 90 18 be 70 4f 85 3e ae 8f 03 3e
       -0.020507729 -0.14898878 0.26037169 0.12847778
0001e0 6f 3a c9 bc 1a cc 56 bc 1c 95 2f 3e 8a 06 8a 3e
       -0.024563996 -0.013110185 0.17146724 0.26958114
0001f0 38 cd c3 3c 26 ab 0d 3e 00 10 3d 3d bc fd fb 3b
       0.023901567 0.13834819 0.046157837 0.0076901596
000200 fe ad 3d bc fc 56 22 3e 55 a0 97 bd 17 1d 0d 3e
       -0.0115771275 0.15853494 -0.07403628 0.13780628
000210 ce d1 e4 bb b0 2b 8e 3e a3 66 85 3d cd a9 36 bd
       -0.0069830185 0.27767706 0.06513717 -0.04459553
000220 d4 81 fa bc 22 52 40 3e c0 a5 d6 3d 08 75 3a 3d
       -0.030579485 0.18781331 0.10480833 0.045521766
000230 40 ac 27 be 93 b8 84 3e 14 a2 35 3d b3 90 a4 bd
       -0.16374302 0.2592207 0.044344023 -0.08035412
000240 2f f1 26 3e 2d ac f7 bd 18 0f c8 3d dc 29 5c be
       0.16302942 -0.12093387 0.09768504 -0.21500343
000250 08 37 95 3d 2e 9b 92 be 63 18 3d 3e 77 60 a2 bd
       0.07285887 -0.28634018 0.18466334 -0.079285555
000260 a2 67 45 be d6 cb d9 bd b3 d9 39 3e 4d e8 2e 3b
       -0.19277814 -0.10634582 0.18149452 0.0026688755
000270 00 c5 e3 3c f7 03 c4 bd 2e 5b 91 3e 60 bc f0 3a
       0.027803898 -0.09571069 0.28389877 0.0018366687
000280 0f c4 74 be 30 1c 4b be 13 66 e1 3d cc fb e6 bd
       -0.23902915 -0.19834971 0.11005797 -0.11278495
000290 7a 61 93 3e c8 f1 3d be 0b d7 0b be e6 75 3d 3e
       0.28785306 -0.18549263 -0.13656251 0.18502006
0002a0 5d f0 6c bc bf 3d 1e bd 7b 9c 6c bd d8 8f e4 3d
       -0.014461604 -0.038633104 -0.05776642 0.111602485
0002b0 62 9d ad 3d 3d 55 76 be ee fa 5d 3e 99 b1 a4 bc
       0.08477284 -0.24055953 0.21677753 -0.020104216
0002c0 35 e4 22 3e 09 2b 5a be 30 4d 61 bd 70 4e ca ba
       0.15907367 -0.21305479 -0.055005252 -0.0015434753
0002d0 22 23 9f be 47 d8 21 3d 4f b7 6e 3e 3b 0f d2 bd
       -0.31081492 0.0395129 0.23312114 -0.10256811
0002e0 ac de 36 be ab 19 07 3e a6 e0 67 be c2 ec 6d 3e
       -0.1785838 0.13193385 -0.2264429 0.23234847
0002f0 41 79 24 3d c2 73 8f 3d 9c 49 41 bd cb bc 56 be
       0.0401547 0.07004501 -0.04718934 -0.20970456
000300 3c 89 9e 3c 37 ea f7 3d 51 7e 75 bd c9 9b 87 bd
       0.019352548 0.1210522 -0.059934918 -0.066215105
000310 66 ed fe bd f6 88 41 3d 38 81 4a be ce 6e 17 be
       -0.12447624 0.047249757 -0.19775856 -0.14788362
000320 f8 cb 26 3e 30 99 23 bb f2 cb 2a 3e f8 a8 f5 bd
       0.16288745 -0.0024963133 0.16679361 -0.11995119
000330 5d 92 bd 3d bf ff 25 3e 66 1b aa 3d 90 f8 2c bc
       0.09256432 0.1621084 0.08306007 -0.010557309
000340 73 34 62 be 63 8a 9b 3e 8d b9 28 be 82 c2 b9 bd
       -0.2209032 0.30379018 -0.16477032 -0.090703025
000350 b0 1c 36 be b0 4b 61 3e 3d 70 2e be 8e 0f 92 bd
       -0.17784381 0.22001529 -0.17035003 -0.07131873
000360 93 1d ad bd ff 76 40 3e 60 72 cc bc 65 e9 eb bc
       -0.084529065 0.18795393 -0.024956882 -0.028797815
000370 80 78 17 bb 23 79 ad bd 05 a6 2d 3e 36 57 1e be
       -0.0023112595 -0.084703706 0.16957863 -0.15462956
000380 74 15 e0 3d 49 93 37 3d 8d fd f7 bd 79 76 d1 bd
       0.10941592 0.044818196 -0.12108908 -0.10227675
000390 bb aa 45 3d ca 9f 0a bd 1e e8 5b be 25 7e 50 3e
       0.048258524 -0.033843793 -0.21475264 0.2036062
0003a0 26 aa 73 bd f4 ca 0b be f4 37 14 3e 9f 06 9f bd
       -0.059488438 -0.13651639 0.1447447 -0.07764935
0003b0 39 62 b5 bd ee 41 2c 3e b3 c0 41 be a9 86 de bd
       -0.08856625 0.16822025 -0.18921165 -0.10865528
0003c0 1c 69 9f bd ac 5d fb bd a5 3b 0b 3e a8 43 51 bd
       -0.0778372 -0.12273726 0.13596971 -0.051089913
0003d0 b1 88 8e 3e d9 9d 23 3e a5 17 78 3e 4b f3 52 3e
       0.27838662 0.15978183 0.2422777 0.20600621
0003e0 5c 07 44 3c 0d a2 02 3e af 05 32 3e de 27 ee 3d
       0.011964645 0.1275713 0.1738498 0.11628698
0003f0 a5 17 89 3c 20 58 84 3e 07 36 f4 3d c7 bf 5b be
       0.016734907 0.25848484 0.119243674 -0.21459876

net.0.bias f4 [32]
000000 58 31 7c be 77 07 ca 3d 3b 77 41 be 30 1e 67 bd
       -0.24628198 0.09864705 -0.18893139 -0.056425273
000010 10 35 5f 3e 63 18 52 3e 1f 96 e6 bd 43 b0 d1 3d
       0.21797585 0.20517115 -0.11259102 0.102386974
000020 13 42 56 3e b2 77 5d be 9e d4 0d bd 57 48 ec 3d
       0.20923643 -0.21627691 -0.034626596 0.11537235
000030 05 82 44 3e 38 e9 40 3e 8a 08 4f 3e 2e 23 3c 3e
       0.19190224 0.18838966 0.20218101 0.18372795
000040 9a 5d 41 be a8 54 3a be cc 7b 1d bd 36 db 58 be
       -0.18883362 -0.18196356 -0.03844814 -0.21177372
000050 df dc c1 bd 86 dd d8 3d 84 89 5a 3e 1d f1 dd bd
       -0.09465956 0.10589127 0.2134152 -0.10837004
000060 52 d3 7a be 0d 0d 68 3e fc 68 4b 3d e2 0a c5 bd
       -0.24494675 0.22661228 0.049660668 -0.09621216
000070 3a ed 70 3e 29 5c 27 3d be 6e 00 be 12 45 4f be
       0.23527995 0.040859375 -0.12542245 -0.20241192

net.1.weight f4 [32]
000000 49 f9 68 3f 6e 5a 6d 3f 56 8e 81 3f 11 c9 84 3f
       0.9100538 0.9271611 1.0121562 1.0373861
000010 a0 4b 77 3f e2 69 8d 3f c7 64 79 3f 51 ac 84 3f
       0.9659977 1.1047938 0.974194 1.0365087
000020 02 64 82 3f ca 82 7a 3f 34 a8 7c 3f eb e2 88 3f
       1.018677 0.9785582 0.9869416 1.069425
000030 6d 96 71 3f d2 29 85 3f 07 01 70 3f 91 db 66 3f
       0.94370157 1.0403388 0.9375157 0.9017878
000040 44 11 84 3f 5a 3c 75 3f dc 90 87 3f 81 46 80 3f
       1.0317769 0.95795214 1.0591083 1.0021516
000050 e5 55 88 3f bd 7b 7e 3f ec b1 6a 3f 34 b7 67 3f
       1.0651213 0.9940756 0.9167774 0.9051392
000060 93 83 78 3f d1 51 72 3f d0 d3 89 3f 26 a8 81 3f
       0.97075766 0.9465609 1.0767765 1.012944
000070 b7 52 82 3f f2 00 81 3f c6 f0 8d 3f 47 20 74 3f
       1.0181493 1.0078413 1.1089103 0.9536175

net.1.bias f4 [32]
000000 a8 9c 0b bc 5b d2 e7 bc 95 9b 9e 3d d8 3c 51 3d
       -0.0085212365 -0.028298547 0.07744519 0.051083416
000010 0b b7 9f 3d bf 72 f2 3d 23 33 84 bd 3d c0 c4 3c
       0.077985846 0.11838292 -0.06455066 0.024017448
000020 49 b3 84 3d 95 77 97 bb 19 f4 8c 3d 20 cc a8 3d
       0.064795084 -0.0046224096 0.068824954 0.08242059
000030 70 97 e8 bb be 86 14 3d 51 4a 35 bc 4c 99 16 bd
       -0.007098131 0.036261313 -0.011065082 -0.03676729
000040 dc 7d 5a 3d c1 df 9c 3d 81 7e 34 3d 44 57 ff 3d
       0.053342685 0.07659865 0.044065956 0.124678165
000050 5d eb dd 3d 6a 07 01 bb 23 ca 6c 3d 8a ed 55 bd
       0.108359076 -0.0019688257 0.05780996 -0.052228488
000060 5f b5 82 3d 74 e4 0c 3d 4b f5 58 3d 65 82 b9 3d
       0.0638225 0.034397557 0.052968305 0.09058074
000070 fc f2 6b 3d 9c 5f 98 bb 71 bc 03 3d 89 04 a0 3c
       0.057604775 -0.0046500694 0.032162134 0.019533413

net.1.running_mean f4 [32]
000000 4c 06 83 be 2e a1 b0 3d 61 06 55 be 9a 7f 69 bd
       -0.25590742 0.086244926 -0.20803215 -0.057006456
000010 fb a5 56 3e 6b 9b 4e 3e 83 1e f9 bd 51 46 cf 3d
       0.20961754 0.20176475 -0.12164023 0.10120834
000020 31 a3 62 3e e3 83 6a be 72 1c 55 bd f7 04 f1 3d
       0.22132565 -0.22901873 -0.05202908 0.11768525
000030 f6 8c 41 3e ae 27 45 3e 27 ff 50 3e 32 47 43 3e
       0.18901429 0.19253418 0.20409833 0.19070128
000040 fc 9d 49 be a2 a9 3d be 81 8e 0e bd 57 90 4d be
       -0.19689173 -0.18521741 -0.03480387 -0.20074593
000050 96 01 ac bd 8d a9 e2 3d 22 52 59 3e 07 49 ef bd
       -0.0839874 0.110674955 0.21222737 -0.11683851
000060 55 b4 68 be 21 0c 77 3e a7 de 38 3d 7c 13 b2 bd
       -0.22725041 0.2412572 0.045134213 -0.086951226
000070 94 0f 65 3e 1a f2 6c 3d ab 72 05 be ed 4b 4f be
       0.22369224 0.057848074 -0.13032024 -0.20243807

net.1.running_var f4 [32]
000000 4b 05 4b 3e e8 b5 18 3f 09 31 5f 3e bf 64 bc 3e
       0.19826238 0.59652567 0.21796049 0.36795613
000010 0c 0b 02 3e 8f 33 40 3e eb 66 ff 3e 1f b4 49 3f
       0.12699527 0.18769668 0.49883208 0.7879047
000020 12 c6 bb 3e 8e f1 dc 3e 49 2a 36 3e 32 7f 6d 3e
       0.36674553 0.43153042 0.17789568 0.23193052
000030 16 c4 90 3e c6 70 2a 3e 45 98 94 3f a8 9a d8 3e
       0.28274602 0.16644582 1.1608969 0.42305493
000040 29 09 59 3e da 15 95 3e 7e 9e 6d 3e d8 4e 83 3e
       0.211949 0.29118234 0.23204991 0.2564609
000050 ee f7 c1 3e 2d 18 1b 3e 28 d7 b0 3e 21 f8 88 3e
       0.37884468 0.15145941 0.3453915 0.26751807
000060 f5 22 5f 3e da 6c 8e 3e 4c c0 00 3f 64 82 bd 3e
       0.21790679 0.27817422 0.5029342 0.37013543
000070 41 64 dd 3e 32 10 a5 3e 93 86 a8 3e 76 e3 58 3f
       0.4324055 0.3223892 0.32915172 0.8472208

net.4.weight f4 [32, 32]
000000 4a 25 19 3d 76 33 19 3d c2 9a 23 3e 4e 50 f1 bd
       0.037389077 0.037402593 0.15977004 -0.11782895
000010 b1 89 77 3d 44 d6 c6 3a dc 10 7a 3d 75 4e 54 3e
       0.060434047 0.0015170057 0.061051235 0.20733054
000020 9d 4e 73 3c 5a 71 8e bd 27 3f e6 3d 3b fb 15 bd
       0.014850286 -0.06955214 0.11242514 -0.036616545
000030 ea 36 0d 3e 4f 3b 28 3e 36 30 16 3e b0 a7 ab 3d
       0.1379048 0.16428874 0.14666829 0.08381593
000040 5d 48 c3 3d 5d 43 25 3d 62 37 bf bc 8d 16 b2 3d
       0.095352866 0.040347446 -0.023341838 0.086957075
000050 0b 1f a2 bd bf 9b d2 3d f9 92 6a 3d dc de 29 3e
       -0.07916077 0.102836125 0.05726907 0.1658892
000060 23 b7 a5 bd b7 4d fa 3d f4 db 39 3e 25 0d c3 3d
       -0.08091571 0.12221854 0.18150312 0.095239915
000070 e1 50 ed 3d 0b 5d 52 3e 4d f5 45 3e ed 08 82 3d
       0.11587692 0.20543306 0.19331856 0.06349359
000080 b3 6c 7b 3d ad b8 f0 3d b1 6a d9 3d bb 83 4a bc
       0.06138296 0.11753974 0.10616053 -0.012360509
000090 7a d5 1f bc 30 68 81 3d d1 f2 24 3e 47 77 22 bc
       -0.009755487 0.063187 0.16108252 -0.009916133
0000a0 76 6c a8 3c d6 13 d0 bd 6b f0 0a be 96 3b 2d 3c
       0.02055953 -0.101600334 -0.13568275 0.010573288
0000b0 7e 67 19 3b ee e8 6f 3b 6f 56 6c 3d b0 6d d7 bd
       0.0023407633 0.0036607343 0.057699617 -0.10518968
0000c0 d0 bd 97 bd ab c2 e8 bc b6 f0 0a be f5 f4 e8 3d
       -0.07409251 -0.028413137 -0.13568386 0.11374847
0000d0 08 cd 0a 3d 0c b4 01 be a6 f5 17 3e af 85 13 3e
       0.03388694 -0.12666339 0.14839801 0.14406465
0000e0 77 49 38 3d 4e 69 ee 3c 06 a1 22 3e ae e2 19 3d
       0.044991937 0.029102948 0.15881738 0.037569694
0000f0 74 a3 1d 3e 12 45 75 3d 38 3e ef 3d f7 2b d8 3c
       0.15394384 0.059880324 0.11681789 0.026388152
000100 08 11 c4 bc d5 e9 b5 bb e7 a4 c1 bd bd 10 84 be
       -0.023933902 -0.0055515566 -0.09455281 -0.2579402
000110 92 03 4e 3c a3 80 9d be ca f1 f9 3d aa ef d6 bd
       0.012574093 -0.30762205 0.12204321 -0.10494931
000120 e7 d1 29 be 61 95 37 bd 5e 63 fa bd 4c 66 30 be
       -0.16583978 -0.044820193 -0.12225984 -0.17226523
000130 d8 f9 1d be d3 c5 08 be 6a 71 9e 3d dc 0f 18 bd
       -0.15427339 -0.13356714 0.07736476 -0.0371245
000140 4d 7f 18 bd e1 ba ba bd 97 62 4c be 15 21 e6 bd
       -0.03723078 -0.091176756 -0.19959484 -0.11236779
000150 05 7e 09 be 3d 1a 09 be 66 dd 7c bd 19 5a 00 be
       -0.13426979 -0.13388915 -0.06173458 -0.1253437
000160 d5 4b ba bd 9e 54 c8 bb 18 fe 94 3d cf 6a b9 bd
       -0.09096495 -0.006113603 0.07275027 -0.09053575
000170 52 de 19 be b9 70 c0 3c 6d 47 69 bc 7f ca 99 bc
       -0.15026215 0.02349125 -0.014238221 -0.018773315
000180 6f b9 52 bd 35 52 0d bb 56 60 a8 bd d3 78 89 3d
       -0.051446375 -0.0021563892 -0.082214996 0.067124985
000190 c7 bf 5d 3b 61 79 d9 bd 83 89 ab bd 59 de 0b be
       0.0033836232 -0.10618854 -0.08375838 -0.13659038
0001a0 02 d7 64 b9 a3 57 03 3e 76 e8 97 bd b6 c1 ff bd
       -0.00021823871 0.128264 -0.07417385 -0.12488119
0001b0 01 52 a6 bd 9a b0 04 be 69 4b 28 be 96 37 af 3d
       -0.0812111 -0.12957993 -0.16435017 0.08555524
0001c0 d8 a3 13 be 07 18 39 bd 72 d6 a0 bd 8d a0 e2 bd
       -0.1441797 -0.04518893 -0.07853402 -0.11065779
0001d0 ba 94 5b 3c 3b 8b ec 3b 5d 06 ac 3c cd ae 0e 3d
       0.013402158 0.007218746 0.020999128 0.03483467
0001e0 1b 8c 6c 3d 56 8f 21 be 52 62 72 be 57 b3 42 be
       0.057750802 -0.15777335 -0.23670319 -0.19013725
0001f0 69 8b 63 bd 25 2f 2b bc 97 e9 81 be 52 7d 01 be
       -0.055552874 -0.010448252 -0.25373527 -0.12645462
000200 c3 19 51 3c 2b 4c 8f bd ee 60 8d bd 52 ca a8 bd
       0.01276249 -0.0699695 -0.069032535 -0.082417145
000210 17 24 09 be fe 91 2f 3e 94 39 67 3d de 52 37 be
       -0.13392673 0.17145535 0.056451395 -0.17902705
000220 c9 7a 32 be 2b 2a 1b 3e 5d c7 cd bd b5 ab 07 bd
       -0.17429651 0.15152805 -0.10047791 -0.033122737
000230 7a 89 6e 3b f0 aa 4a bd e7 3b c3 3d 98 92 bc 3b
       0.003639786 -0.049479425 0.0953291 0.00575478
000240 aa de 0a be 10 08 09 be f5 04 f9 bd c4 22 39 be
       -0.13561502 -0.13381982 -0.121591486 -0.18079668
000250 f3 37 8c bc 42 93 f9 3d 01 fc e6 3c 1b d6 27 be
       -0.017116522 0.1218629 0.028196337 -0.16390269
000260 2d 96 82 3c e4 1f a9 bd af 83 5a be 6b d3 40 3d
       0.01594075 -0.08258036 -0.21339296 0.047076624
000270 91 fe 07 bd eb 34 b4 bc ae a7 62 be c8 38 59 bd
       -0.033201758 -0.02199789 -0.22134277 -0.053032666
000280 cb 91 4f bc 1b 9a 5b 3d c9 8c ac bd 0e 99 8a bc
       -0.012669037 0.053613763 -0.0842529 -0.016918685
000290 a9 a4 8e bc 98 51 f2 3d 84 86 09 be 9c f2 00 3d
       -0.0174125 0.11831969 -0.1343022 0.03148137
0002a0 ca 9d 81 3c 8d 38 15 3e 76 e0 e2 3d 91 ad b2 3d
       0.01582231 0.14572354 0.11077969 0.087245114
0002b0 3c 48 02 3d ff f4 39 bc e3 31 d0 3d 29 4e a0 bd
       0.03180717 -0.0113499155 0.10165765 -0.07827408
0002c0 df b6 b9 bc 7b 26 51 bd 41 b0 d8 3c c5 30 41 bd
       -0.022670208 -0.05106209 0.026451232 -0.04716565
0002d0 8a 16 06 3d bf 48 8a 3d 54 92 c5 3d c8 be 24 3d
       0.03273634 0.067521565 0.096470505 0.040221006
0002e0 46 11 f2 3c 4d 31 97 3c 8e ba ab bd ad c5 da 3c
       0.029549252 0.018456126 -0.08385192 0.026705587
0002f0 8b 74 42 bd c0 b2 d3 bd 55 34 46 be 08 df c1 3d
       -0.047474425 -0.10336828 -0.193559 0.09466368
000300 8b 4c 84 bd e5 c5 3d bd 56 51 3b 3e c0 4d 1f 3e
       -0.06459912 -0.046331305 0.18292746 0.15557003
000310 e1 6d 13 3e 87 45 40 3e 22 95 0a 3e c3 df 16 bc
       0.14397384 0.18776523 0.13533452 -0.009208622
000320 6e 19 35 3e e1 68 d6 3d 3e 92 cc bc e2 6c 40 3e
       0.17685482 0.10469223 -0.024972077 0.18791535
000330 a8 62 88 3d 29 2b 62 3d c0 01 1b 3e b1 43 42 bd
       0.06659442 0.055216942 0.15137386 -0.047427837
000340 23 a0 19 3e 43 77 d4 3d 45 aa a7 3d 60 40 22 3e
       0.15002494 0.1037431 0.08186773 0.1584487
000350 d7 8d 68 3d ad e0 40 3e a8 ff 3c 3e 51 00 1f 3e
       0.056775894 0.18835707 0.184569 0.15527464
000360 0f 78 b0 3d 03 81 80 3c 3f d4 08 3e 72 84 26 3e
       0.08616649 0.015686518 0.13362215 0.16261461
000370 22 f5 19 3e 54 73 6c bd b0 7f 10 3e 38 9b 4c bd
       0.15034917 -0.057727173 0.14111209 -0.049952716
000380 76 db 10 3a 46 4f 54 3d b1 18 56 3d 3d 27 70 bc
       0.0005525866 0.051833414 0.05226964 -0.014657793
000390 b6 81 93 3d 24 9a b3 bd bd 6e 83 3d 1b 4c e0 3d
       0.07202475 -0.08769634 0.06417606 0.10952016
0003a0 3d 35 42 bd aa 85 df 3d aa f3 a0 bb 7d 52 4e bc
       -0.047414053 0.10914166 -0.0049118595 -0.012592909
0003b0 41 f3 19 3d a0 fb 8f 3c 61 50 4d bd 34 5b 74 bd
       0.0375855 0.017576039 -0.050125483 -0.05965729
0003c0 8a 91 9c bc 88 16 82 3d 85 a6 4d bd 26 d3 ba bd
       -0.019112367 0.06351954 -0.050207634 -0.091223046
0003d0 a0 59 56 bd 46 ca ce bd ad 9b 89 3d 6f 13 a8 3d
       -0.052331567 -0.10097174 0.06719146 0.08206832
0003e0 41 5b 02 bd bb 6d f9 3c 02 08 21 3e 79 29 3c 3e
       -0.031825308 0.030447831 0.15725711 0.18375196
0003f0 7e c1 35 3e c8 91 b2 3a 86 76 23 3d b7 78 b8 3d
       0.17749593 0.0013623768 0.039907955 0.090073995

net.4.bias f4 [32]
000000 2b 4b 75 3c 12 b2 e4 3b 52 1a e6 bc 09 e0 36 be
       0.014971535 0.0069792354 -0.028088722 -0.178589
000010 91 32 98 bb df 98 b5 3d db 65 53 3e cd b3 49 3d
       -0.0046447 0.088670485 0.20644324 0.049243737
000020 fe 62 02 be 2a a5 5f bd 71 29 74 bc 73 35 f5 3c
       -0.12733075 -0.054600872 -0.0149024585 0.029932713
000030 dd 33 a4 bd 85 7c a8 bd c2 67 2a 3e fa da 28 be
       -0.08017705 -0.08226875 0.16641143 -0.16489783
000040 77 40 cb bd 77 56 6e bd 25 0d 3c be 1c e2 e1 bd
       -0.09924405 -0.058187928 -0.18364389 -0.11029455
000050 c2 60 5e 3d 47 de 0a be 5e d3 33 bd 13 4e 26 be
       0.054291494 -0.13561355 -0.043902747 -0.1624072
000060 ba 4e 06 3e 36 76 36 be cf 26 a4 bd 70 c6 b1 bc
       0.1311597 -0.17818531 -0.08015215 -0.021701068
000070 56 d2 c3 3d 4d 30 6c 3c 85 b4 80 be d3 a7 64 3e
       0.09561603 0.014415813 -0.25137725 0.22329645
