models/ts_encoder_contrastive.pt (torch, 66868 bytes, 8 tensors)

lstm.weight_ih_l0 f4 [128, 28]
000000 bb 49 06 be 45 de a8 bd e2 de 07 3e 0c f4 6b bd
       -0.13114063 -0.082455195 0.13268617 -0.057605788
000010 65 a6 d8 bb 94 35 9f bc cd 83 e3 3c ad f1 23 3d
       -0.0066116326 -0.019434728 0.027772808 0.0400254
000020 52 a5 88 3d 53 27 30 3c 0e a7 3f bc b1 e0 31 bd
       0.06672157 0.010751563 -0.011697544 -0.043427173
000030 c8 cd b1 bd d2 29 de 3c cf 5a 4a 3e 59 10 1f 3e
       -0.08681828 0.02711955 0.19761203 0.1553358
000040 ee 09 a2 3d 87 7e 31 bd b1 b6 22 be 82 7a a0 bd
       0.0791205 -0.043333557 -0.15890004 -0.078358665
000050 45 da aa bd 53 f0 fb 3d e7 be f9 bb 85 f1 b3 3d
       -0.08342413 0.123016976 -0.0076216343 0.087863006
000060 25 47 5f bc 9a 7e 50 b9 37 f1 98 3d 9a 34 90 bd
       -0.013627802 -0.00019883589 0.07467883 -0.07041283
000070 55 bd 67 3c 6b 1a 4e bd 2a fb 1c be 17 85 83 bd
       0.014144261 -0.050318163 -0.15330186 -0.06421869
000080 3d 31 a8 bd ab 65 0d 3e 95 8d c2 3d 9e ab bb 3d
       -0.082125165 0.13808315 0.09499661 0.09163593
000090 eb 7b de bd c3 83 22 bc 35 e9 2c 3d 2c b8 1d bd
       -0.10863479 -0.00991911 0.04221459 -0.038505718
0000a0 e8 c9 6c bd ef 94 bf 3d fb a2 0a be 67 9f 2b 3d
       -0.05780974 0.09354579 -0.13538735 0.041900065
0000b0 d9 ac 75 bd e6 a4 89 bc 36 d2 10 be e9 52 5d 3d
       -0.059979293 -0.016802263 -0.14142689 0.054034147
0000c0 b6 96 de bd 8c 45 f6 bd d8 aa d7 bd 5f cb ca 3d
       -0.108685896 -0.12024984 -0.10530633 0.09902071
0000d0 22 ff 04 3d 7e df 69 3d 7e 19 01 bd af 01 6b bd
       0.032469876 0.057097904 -0.031518452 -0.057374652
0000e0 ba 0e 6c 3d 51 3b 8d bd 70 2d 70 bd ae ca 07 3e
       0.05763123 -0.06896079 -0.058637083 0.1326091
0000f0 24 08 e0 bd ef a5 36 bd 31 a2 49 3d a7 d6 ea bd
       -0.10939053 -0.04459184 0.049226943 -0.11466723
000100 66 b6 08 3e 81 1a df bd ab ca fb bd fa c6 25 be
       0.1335083 -0.10893727 -0.12294515 -0.16189185
000110 73 bf 3a be 71 ce 9b 3d f6 8d 08 3e bf fe 33 3e
       -0.18237095 0.07607735 0.13335404 0.17577647
000120 81 08 7a bc a8 cb a5 3c 18 05 13 be ec 4d ab 3d
       -0.015260817 0.020238712 -0.14357412 0.08364472
000130 d8 1a e2 bc 12 0c 05 be e8 f0 34 3e 3a fc 10 be
       -0.02760069 -0.12992886 0.17670023 -0.14158717
000140 25 41 64 bd 65 a6 ae bd 2d ad 8d 3d 35 92 cf 3d
       -0.05572619 -0.08527831 0.06917796 0.10135309
000150 9d 93 5a 3c af 22 24 3e af 8d 1f be 17 9e 17 3e
       0.013340858 0.16028856 -0.15581392 0.148064
000160 5e ac fc bd 8e df 13 3e 2d 22 c0 3d 15 2b ae 3d
       -0.12337564 0.14440748 0.093815185 0.08504311
000170 00 69 99 bb 78 c0 2b bc 84 43 c6 3d 98 75 78 bd
       -0.0046817064 -0.0104829 0.09680846 -0.06065902
000180 b5 5a 3c bc 45 70 af bc c8 c2 f9 3d 41 60 dd bd
       -0.011496236 -0.021415839 0.12195355 -0.108093746
000190 32 be a3 3d 21 ad 4f bd 7a 7b 2f 3b 98 7b ab bd
       0.07995261 -0.050702218 0.0026776479 -0.08373183
0001a0 26 ef 75 bd a3 73 b0 3d 6b 00 46 3e 57 47 12 bd
       -0.060042523 0.08615806 0.19336097 -0.035712566
0001b0 74 83 cd 3d 4f 31 64 3d 58 2b be bc 2a e1 85 bd
       0.10034838 0.055711087 -0.023214027 -0.06537087
0001c0 c2 0e 06 be af b0 5d bd e6 39 1c 3e 67 1d 21 3e
       -0.13091567 -0.054123577 0.15256462 0.15733872
0001d0 70 87 01 3e 58 a1 58 3d 49 a1 14 3c cb 05 21 be
       0.12649322 0.052888244 0.0090716565 -0.15724866
0001e0 7d 2f e8 3d 13 a4 b1 3d ab 7d be bb 83 20 dc 3d
       0.11337183 0.08673873 -0.0058133206 0.107483886
0001f0 50 f7 ff bc c7 9a cc bd a6 03 06 be a0 52 b2 3b
       -0.031245857 -0.09990459 -0.1308733 0.0054419786
000200 f6 64 9a 3d 4f 63 9f bd c2 7e 15 bd a1 56 cc 3d
       0.07538788 -0.077826135 -0.03649784 0.09977461
000210 1d 1c 2e be 8f 22 ea bc 33 27 f4 bd dc dd 39 3e
       -0.17002912 -0.028580932 -0.11921539 0.18151039
000220 74 fb 3f bd 28 d9 79 bc f0 35 ba 3c 59 48 89 bd
       -0.046870664 -0.015249528 0.022730798 -0.06703252
000230 11 a2 f7 bd bb b1 02 3e ad 43 13 be 76 35 10 bd
       -0.120914586 0.12763111 -0.14381285 -0.035207234
000240 06 ce c0 bd a9 89 95 3d 58 1c 0d bd 5c f1 3a 3d
       -0.09414296 0.07301647 -0.03445086 0.045640334
000250 5b a1 d3 3d 18 e1 d1 3b 8d 60 77 3d 07 a0 34 bd
       0.103335105 0.006405007 0.060394812 -0.044097926
000260 32 20 6c bd 28 b5 ba 3d 26 53 51 3d 6b 46 09 be
       -0.05764789 0.09116584 0.051104687 -0.13405769
000270 8f 20 4b bc b0 52 c7 3c 85 35 18 3e 49 5a 2d bd
       -0.012397899 0.02433142 0.14864166 -0.04232243
000280 68 52 f5 bc 51 46 6a bd 6a 0b 7e bd 7c 46 2d 3e
       -0.02994652 -0.057195965 -0.062022604 0.16921419
000290 1b 06 db 3d dd e1 fd 3d b6 5c 77 3d 3c a4 39 bd
       0.10694524 0.123965956 0.06039115 -0.04532264
0002a0 6a 8a ec 3d b8 aa 01 3e 8d 70 84 3c 45 22 d7 bd
       0.11549838 0.1266278 0.01616695 -0.10504583
0002b0 e8 31 8a bd 26 31 e5 bd 94 19 1f 3b 18 b6 02 be
       -0.067478 -0.11191015 0.002427672 -0.12764776
0002c0 ee 46 19 bc 8f 85 05 3d b6 2f 8d 3d 69 60 08 3e
       -0.00935529 0.032598075 0.06893866 0.13318028
0002d0 f8 13 69 bd 92 d6 14 be 6d 7b bb bd f6 aa 20 3c
       -0.05690381 -0.14534977 -0.09154401 0.009806385
0002e0 f1 30 a3 bd df fd 2b 3e 65 fd 3e be 84 cf 23 3d
       -0.07968319 0.16796063 -0.1865135 0.039992824
0002f0 52 56 0e 3d 9b fb c3 bd 9e dc ed bd 72 bd 85 bd
       0.03475029 -0.09569474 -0.11614345 -0.065302745
000300 31 65 ae bd d9 5d 2b 3e c1 f1 8f 3d f3 f3 d7 bd
       -0.085153945 0.16735019 0.07028533 -0.105445765
000310 32 ae 64 bd b8 e4 b2 bc f1 dc 1d be 18 48 ee 3d
       -0.055830188 -0.021837577 -0.15416314 0.116348445
000320 f5 00 5d 3d ce 5f 1a bd ac 97 fb bd e9 7a c4 3c
       0.05395599 -0.037689023 -0.122847885 0.02398439
000330 61 a6 27 bd 72 ec 0f be 7d 65 26 3d 49 6f 56 3d
       -0.040930156 -0.1405504 0.04062413 0.052352224
000340 4b ce d1 3d 45 e3 43 3e 3e 9b 22 3e 07 72 98 3d
       0.102444254 0.19129665 0.15879533 0.07443624
000350 93 32 a5 3d 4b 95 ee 3c ab db a8 bc 3f 11 b4 bc
       0.08066287 0.029123923 -0.020612558 -0.02198088
000360 e0 c7 9b 3d 4b 73 a2 bd 2d 64 a2 3d 2c 8c f2 bd
       0.076064825 -0.07932147 0.07929263 -0.11843142
000370 2e d7 6e 3d dd bf 93 3d ce 8b 3e bd 3c 11 43 bd
       0.05831068 0.072143294 -0.046520047 -0.047623858
000380 dc d5 22 be 3d 50 aa 3b 5b cc 89 3d 22 98 1a 3e
       -0.15901893 0.0051975534 0.06728431 0.15097097
000390 2a 57 bb bb 46 a9 52 3d 70 05 14 be 9f 78 b4 3c
       -0.005717178 0.051430963 -0.14455199 0.022030173
0003a0 a0 2d c1 3d 6d 2c 48 bd 96 93 cc 3d c8 95 86 bc
       0.094325304 -0.048870493 0.09989087 -0.016428843
0003b0 1c e5 7e 3c 2c 5d 91 bd 92 58 5d bd f4 36 80 3d
       0.015557554 -0.07097849 -0.054039545 0.062604815
0003c0 1a f8 ff bc 10 06 a8 bb 33 54 bf bd dd 3e 28 be
       -0.031246234 -0.005127676 -0.093422316 -0.1643023
0003d0 42 e1 b3 3d 93 83 32 bd 7f 6b 1a be f8 29 11 3e
       0.08783199 -0.04358251 -0.15080069 0.14176166
0003e0 8f de 69 bd 1e 12 10 be db 52 55 bd 6e 9a ed 3d
       -0.057097014 -0.14069411 -0.05208097 0.11601721
0003f0 cc 0e f1 bd ce d1 20 be 80 1c 6d bc e8 04 b0 3b
       -0.117704004 -0.15705034 -0.014472127 0.0053716786

lstm.weight_hh_l0 f4 [128, 32]
000000 e1 63 a8 3d e3 a8 60 3c 76 d3 f6 bd 9e 80 8f be
       0.082221754 0.013712141 -0.12052052 -0.28027815
000010 8f 59 22 be fa c4 c9 ba 8e 1b 3b 3d 2b a6 b4 3d
       -0.15854476 -0.0015393787 0.045680575 0.088207565
000020 aa 40 67 3d d0 cb 12 bd c8 e4 d4 bc f8 d3 1a 3d
       0.056458153 -0.035838902 -0.025987998 0.037799805
000030 04 67 c7 bd f7 2a 46 3e f9 6a ac 3d 4e 7d df bc
       -0.097364455 0.19352327 0.08418841 -0.02728143
000040 59 99 1e 3c ef 35 d7 bc 28 c6 31 3e 0b 05 b0 3c
       0.009680116 -0.026270835 0.17360747 0.02148678
000050 f1 e6 7a be c6 f3 41 bd a4 50 9c be 21 09 b0 3d
       -0.2450216 -0.04735162 -0.30530274 0.08595491
000060 a8 d4 73 3c 22 b3 60 3e 21 30 79 3e ad 25 88 3e
       0.014882244 0.21943334 0.24334766 0.26591244
000070 ea 0d 83 be 2d 7d ac 3d 01 8f 1b 3d 1f 84 30 be
       -0.25596553 0.08422313 0.037978176 -0.172379
000080 d4 4e fe bd 4f 05 d4 3d 00 02 ea 3c ed 02 ab 3d
       -0.12417379 0.10352575 0.028565407 0.083501674
000090 50 5b 47 3c 54 09 ef bc b3 5b 14 3e ea 16 67 be
       0.012167767 -0.029179253 0.14488105 -0.22567335
0000a0 df e7 33 be ea b9 27 be c2 68 e5 bb 13 10 39 be
       -0.1756892 -0.16379514 -0.0070010135 -0.18072538
0000b0 99 ba ef bd 6b 32 b5 3d 29 e8 11 3e 00 ea ca bd
       -0.117055126 0.08847507 0.14248718 -0.09907913
0000c0 6b 5b ca 3d 87 08 2f 3e 4d b4 08 be dd 6d bb bc
       0.09880718 0.17093097 -0.1335003 -0.022879535
0000d0 6a 71 82 bc c8 d3 22 bc 3c 76 28 3e f3 d7 87 3d
       -0.01592322 -0.009938188 0.16451353 0.06632986
0000e0 c8 d7 b4 bc 55 72 ca 3d d6 76 cf bd 91 e0 b2 3c
       -0.022075549 0.09885088 -0.10130088 0.021835597
0000f0 ea 16 b8 3c 67 9b 20 be be 48 0a 3e 8f e1 6a 3d
       0.022471864 -0.15684281 0.13504311 0.057344016
000100 41 cf 73 3e 6e cc 90 3e 7a fe 4b be 44 c4 d5 3c
       0.2380953 0.28280967 -0.19921294 0.026094563
000110 e7 76 55 3d 74 b8 4a 3d 5a 20 81 3e 26 54 20 bd
       0.052115347 0.049492314 0.25219995 -0.03914275
000120 75 fd d4 3c b6 91 8f 3d 84 3b 99 bd 27 c8 94 3d
       0.025999764 0.07010214 -0.07482055 0.072647385
000130 b6 30 08 be 56 5f 9d bd ae 73 3a bd cf 19 55 bd
       -0.13299832 -0.076841995 -0.045520477 -0.052026566
000140 6e 62 50 be 7a f8 b1 3d 86 1a 9d 3e 69 4a f8 3d
       -0.20350048 0.08689971 0.30684298 0.121235676
000150 13 9e 17 3d d4 c1 43 be 9e 0b 59 bd 40 c5 49 bd
       0.037015986 -0.19116908 -0.052989595 -0.049260378
000160 99 9a 64 3e 51 0f e2 3d eb 40 08 3d ae 22 45 3b
       0.223246 0.110380776 0.033265036 0.0030080485
000170 f1 23 2b bc a2 f7 2a 3e 60 61 8e 3e 37 13 8a be
       -0.010445581 0.16696027 0.27808666 -0.26967785
000180 c3 ff a7 3d 23 98 e4 ba fe 59 ea bc c5 52 92 bc
       0.082030796 -0.001744036 -0.028607365 -0.017861733
000190 eb 24 23 3d 05 62 5c 3e c5 0c fa 3d 75 01 ba bd
       0.03983013 0.21521766 0.12209467 -0.09082309
0001a0 f9 61 4d 3e 6d 35 52 be 2e ee b7 3d 5e 99 2a 3e
       0.20056905 -0.20528193 0.08980976 0.16660067
0001b0 18 d2 26 be 69 cd 6f bc 67 76 0b 3e a9 02 72 be
       -0.16291082 -0.014636376 0.13619386 -0.23633827
0001c0 23 a9 2d 3d e6 83 2c 3e 89 a0 fb 3d 52 6e b3 bc
       0.04239763 0.1684719 0.12286479 -0.02190319
0001d0 77 ba b5 3d e2 63 db bc a8 17 d2 bd a9 90 34 3e
       0.08873456 -0.026781026 -0.10258418 0.17633308
0001e0 e8 8e 12 3e 95 c1 54 bd c2 04 6a 3e 87 d1 89 3d
       0.14312327 -0.051942427 0.22853377 0.06729417
0001f0 3f 25 c2 bd b6 0e 02 3e 03 5a e4 3d f1 8e 01 3e
       -0.094797604 0.12700924 0.11149981 0.12652184
000200 4d 30 8b 3e c4 a5 40 3e b6 27 89 bb 5a b8 18 be
       0.27185288 0.18813235 -0.004185642 -0.14914075
000210 42 35 4f be 6f ad 2a 3e 0c 6b 9e 3d 36 3d 6c 3e
       -0.2023516 0.16667722 0.07735261 0.23070225
000220 82 ff 20 3e 3b cf b1 3d 59 4d ed bd fd f8 52 3e
       0.15722468 0.08682104 -0.115870185 0.20602794
000230 ec 6e ec bb cb 4a da bd 72 7a 44 3e 62 18 c5 bc
       -0.0072153714 -0.10658797 0.19187334 -0.024059478
000240 59 87 1c be d1 02 fd 3d 71 a1 3d 3e 93 88 43 3e
       -0.15286006 0.12354053 0.18518616 0.19095068
000250 a6 0f 50 be 6e b4 3a 3c dd 6f a1 be 21 63 d9 3d
       -0.2031847 0.011395557 -0.31530657 0.106146105
000260 a8 52 a5 bd 6c 03 01 be cb 36 01 3d 15 9a 57 3e
       -0.08072406 -0.12598962 0.031546395 0.21054871
000270 c1 e5 35 3c 56 40 5c 3d 40 ec 50 3c b9 3c a8 bd
       0.011102141 0.053772293 0.012751639 -0.08214707
000280 f2 26 87 3e ef 22 56 3e 99 90 8d be dd 75 75 be
       0.263969 0.20911764 -0.27649382 -0.23970743
000290 b8 9d 3a be 81 90 d5 bc 34 68 42 3e dd 11 94 3e
       -0.18224227 -0.026069881 0.18985063 0.2891988
0002a0 a3 58 d6 3d 53 e4 20 be 80 6a 8b 3d e7 e1 45 3d
       0.10466125 -0.15712099 0.06807423 0.04831114
0002b0 67 69 b5 3d 46 15 ea 3d 4c 5b 54 bc 40 0b 0d be
       0.088579945 0.11429839 -0.01296122 -0.13773823
0002c0 58 6e b8 bd 97 d3 be bd 4b 3e 9d 3e a3 3e 63 3e
       -0.090054214 -0.09317701 0.30711588 0.22191863
0002d0 3a a0 aa bd ac f9 08 be d6 ec c1 bc 47 cf 64 3e
       -0.08331342 -0.13376492 -0.023672502 0.22344695
0002e0 1b 30 4d 3e 2f 37 88 3e af 80 50 3e de c4 9a 3e
       0.20037882 0.26604602 0.20361589 0.30228323
0002f0 f3 74 34 be 65 53 8b 3d bb 8a 76 3e 8e 0c 10 be
       -0.17622738 0.068030156 0.24076359 -0.14067289
000300 25 93 8e 3e 03 fb 0e 3e 03 28 46 be 21 84 4c 3d
       0.27846637 0.13962941 -0.19351201 0.049930695
000310 3f a0 dd 3c 7b 89 89 3e 62 55 19 3e ce b3 37 3d
       0.02705395 0.26862702 0.14973977 0.04484921
000320 a9 69 1a 3e 49 cc f6 3c e9 08 e9 bb e2 bd 15 3e
       0.15079369 0.030126708 -0.007111658 0.14623216
000330 65 b6 55 be 18 fd d4 3c 49 33 c7 3d f7 60 24 be
       -0.20870359 0.02599959 0.09726579 -0.16052614
000340 69 fd 86 be 66 d2 26 3d 92 ab fb 3d 33 1f 39 3e
       -0.26365212 0.040727995 0.12288584 0.18078308
000350 2a 35 81 3d 2d 5c 1b be 1e d0 28 be fa 15 e1 3d
       0.06308968 -0.15171881 -0.1648564 0.1099052
000360 16 43 1c 3e 9d 5d 8b 3e 76 0b 59 3e f6 08 68 3e
       0.15259966 0.2721986 0.21195778 0.22659668
000370 29 53 57 be 26 78 a8 3e e8 3c 58 3d a2 bd 05 bc
       -0.21027817 0.32904166 0.05279246 -0.008162888
000380 cf b2 9e 3d 14 1a 32 3c 24 0e 6f 3c 6d bc 5a be
       0.07748949 0.010870475 0.014590774 -0.21360941
000390 8e 52 09 be 48 3b 6c 3d 49 90 e5 3d 47 27 84 3d
       -0.13410398 0.057673723 0.11209161 0.06452804
0003a0 df ee 03 3e b0 7a 01 3e a1 09 c8 bd 34 93 92 3d
       0.12884091 0.12644458 -0.097674616 0.07156983
0003b0 1d e2 5d 3d 07 70 23 3e e6 64 f2 bc 84 12 10 bd
       0.054170717 0.15960704 -0.029589128 -0.035173908
0003c0 80 8f 47 be 3f 4e 15 bd 8d 19 54 3e 01 e2 11 3e
       -0.19488335 -0.036451574 0.20712872 0.1424637
0003d0 e8 4d 5a be 46 05 7c be d5 7e 90 be 4c e1 75 bd
       -0.21318781 -0.24611387 -0.28221765 -0.060029313
0003e0 ff 48 00 3e e3 7c 7c 3c 91 44 a2 3e 81 5d d9 3d
       0.12527846 0.015410635 0.31692937 0.106135376
0003f0 80 e7 2b be 98 69 44 3e 12 43 76 3d b0 25 54 be
       -0.16787529 0.19180906 0.060122557 -0.20717502

lstm.bias_ih_l0 f4 [128]
000000 0f 89 6e 3d a6 9a ac 3d db bd 28 3d 42 38 2a bd
       0.058236178 0.08427934 0.041196685 -0.041557558
000010 73 ec 94 3b c4 0d 9e 3d 8c 84 43 3c 3a a6 61 3e
       0.0045447885 0.07717469 0.011933457 0.22036067
000020 c6 9a 79 3d 07 b0 51 be 01 94 83 be e5 d2 6a 3d
       0.06093862 -0.20477305 -0.25698856 0.05733003
000030 c4 17 0d be 4c f5 60 be 1a 76 5e bc ef 59 a4 bc
       -0.13778597 -0.21968573 -0.013577962 -0.020062415
000040 db ae 2a 3d 28 99 42 be 3a 39 94 3e 36 26 7a 3e
       0.04167066 -0.19003737 0.2894991 0.24428639
000050 a7 e2 af bd 34 01 31 3d 89 8d ab 3e 77 75 0b bc
       -0.085881524 0.043214038 0.3350642 -0.0085118925
000060 fe 9d 51 bd 74 32 06 be 1a 02 55 3e bc 1b cb 3d
       -0.051176064 -0.13105184 0.20801583 0.09917399
000070 df ee 54 3d f5 d3 94 3e 13 5d 33 be c4 9f a7 3c
       0.051985618 0.2906796 -0.17515974 0.020461924
000080 d7 6e 59 3e cf 05 0c be 6c 32 ef 3d b8 4e 7c 3d
       0.21233688 -0.13674091 0.11679539 0.06159851
000090 a8 0b 66 3e 6f d1 42 3e d7 c0 25 3d 58 a0 3b 3e
       0.22465384 0.19025205 0.04046711 0.18322885
0000a0 fc 1d f4 3d 34 81 ad bd 12 cb 72 be 75 aa 61 3e
       0.119197816 -0.08471909 -0.23710278 0.2203768
0000b0 c2 45 ab bd ec 01 14 be 3b 76 58 bc 7f 97 24 be
       -0.083629146 -0.14453858 -0.013211782 -0.16073416
0000c0 31 93 ea 3d dd 5a 05 be ce be 7d bd 22 7c 02 3d
       0.11453856 -0.13022943 -0.061949544 0.031856664
0000d0 c7 c3 0b be 3e ba e6 3b ed d0 ee 3d cb 68 21 be
       -0.13648902 0.007041245 0.11660943 -0.15762632
0000e0 ec 00 c7 3d 97 3a e4 3d 1a cf 51 3c 10 f8 9f bd
       0.09716973 0.111439876 0.0128057245 -0.07810986
0000f0 6d 66 15 bd d7 2f 06 3e 48 86 84 3c 82 09 5e bd
       -0.036474634 0.13104187 0.016177312 -0.054208286
000100 d7 db 32 3e 59 e7 91 3d 21 e3 b1 bd 42 c2 24 be
       0.17466675 0.07124204 -0.086858995 -0.16089728
000110 7d 32 85 be 05 11 3e 3e a6 81 1f 3e 72 65 41 3d
       -0.26015082 0.1856118 0.155768 0.047215886
000120 40 cb f2 3d 69 be 0a be 66 34 a4 bd ba a4 8e 3e
       0.11855173 -0.13549198 -0.08017807 0.2786005
000130 33 c0 3e 3d a7 82 cf 3d 02 02 8c 3e d2 7a 91 bd
       0.046570014 0.10132342 0.27345282 -0.07103504
000140 11 1c 8e be 6a 9a 2c be 7b 45 09 3e 4a bb 42 3e
       -0.27755788 -0.1685578 0.13405411 0.19016758
000150 fd 2e 89 3a e2 2e 83 be 65 e9 23 be b3 b9 6b bd
       0.0010466274 -0.25621706 -0.16007002 -0.057550143
000160 0b 8b dd 3d fa 98 35 3e d5 7c 43 3e 78 a4 8b 3e
       0.10817536 0.17734137 0.19090588 0.27273917
000170 15 f9 6a bd bd 67 08 3e 4c a0 89 3e 9d e7 8b be
       -0.05736645 0.13320823 0.2688011 -0.27325144
000180 50 ab 49 3b 1a 51 80 bd 5c ec ce 3c 46 50 e9 bd
       0.0030772276 -0.06265469 0.02525919 -0.11392264
000190 cf c5 16 bc 3f 9f 2f bd 39 82 50 3d 2f e1 16 3d
       -0.009202435 -0.04287648 0.05090544 0.036835846
0001a0 62 97 47 3d 4b c5 40 3d 80 2b 83 be 57 fd 26 3e
       0.048728354 0.047063153 -0.25619125 0.16307579
0001b0 01 3c e3 bd 72 68 af bd cb 2c b2 3c 94 5f 51 bd
       -0.11095429 -0.08564843 0.021749875 -0.05111654
0001c0 67 d2 98 3e ed 2e c3 3d 48 b5 90 3e 95 c3 16 bc
       0.29848024 0.09530435 0.28263307 -0.009201904
0001d0 c2 18 63 bd b7 14 8b 3e e2 b9 1c 3e 07 70 5e be
       -0.055443533 0.27164242 0.15305284 -0.21722423
0001e0 12 1d 8d bc c1 2b ae bd 84 b8 92 3e f3 d4 64 bd
       -0.017225776 -0.08504439 0.286564 -0.055867147
0001f0 71 57 5b 3d ae e9 a5 3e d4 40 96 3c 13 fa 29 3e
       0.053550187 0.32404846 0.01834146 0.16599302

lstm.bias_hh_l0 f4 [128]
000000 a7 28 12 3e 44 24 fe 3d 68 f3 e3 3d 0e 7d b0 3d
       0.1427332 0.12409261 0.111304104 0.08617602
000010 d5 d4 46 3e d6 59 01 bd 89 d7 f0 3d f0 b4 bd 3d
       0.19417126 -0.031579815 0.1175986 0.09263027
000020 6d 13 26 3e 72 f1 19 be 32 b3 fe bd b0 c9 44 3e
       0.16218348 -0.1503351 -0.124365225 0.19217563
000030 fe f4 d0 3d 35 32 44 be 60 7f f4 bd 5a 12 6b be
       0.102029786 -0.19159777 -0.11938357 -0.2295622
000040 1f 7d 34 3e 39 38 da bd 51 00 be 3d 3d a8 f6 3d
       0.17625855 -0.10655255 0.09277404 0.12043808
000050 bd e1 49 3b 19 08 8c 3d 9c f6 d5 3c 3f 07 2d be
       0.0030804717 0.06837482 0.02611857 -0.16897295
000060 36 88 36 be 86 bb 5b 3c ee 10 09 3e 66 8f 3e 3e
       -0.17825398 0.013411408 0.13385364 0.1860939
000070 bb b5 7a be b5 8f ef 3d e6 73 c1 bb d1 d6 ae 3d
       -0.24483387 0.11697332 -0.0059037087 0.08537067
000080 31 51 82 3e f2 7e 6f bc a2 df 0d 3e d5 4d d4 bd
       0.2545257 -0.014617668 0.1385484 -0.10366408
000090 73 3e 6f 3d e5 65 13 3e 65 47 a6 3d d6 6f 37 3e
       0.058409166 0.14394338 0.08119086 0.17913756
0000a0 68 4b 5d be bb 96 38 be 4d f1 0c be 6f 45 0f bd
       -0.21610796 -0.18026249 -0.13763924 -0.034978326
0000b0 02 21 0b be 03 44 4e be 81 24 f7 3c c5 53 3a be
       -0.1358681 -0.20143132 0.030168774 -0.18196018
0000c0 b4 5f 90 3e 31 bf 0f be 12 24 c8 3c f1 bb 36 3e
       0.28198016 -0.14037777 0.024431262 0.17845131
0000d0 19 07 d6 3a 71 c3 7b 3e 05 56 2a 3e 7e 53 98 bd
       0.001632902 0.24586274 0.16634376 -0.074378
0000e0 54 63 19 bd f3 00 d8 bd 8c 08 3c 3e 40 d4 ce 3d
       -0.037448242 -0.10547056 0.18362635 0.10099077
0000f0 85 9c 52 3d 79 b8 29 bc d9 05 d5 3d 28 9b 79 3d
       0.0514188 -0.010358923 0.10401506 0.060938984
000100 ec d2 8d 3e 41 ca 51 3e 7b 04 78 be 3c 0e 31 be
       0.27699983 0.2048731 -0.24220459 -0.17290586
000110 bd 51 87 be f3 21 29 3e 68 de 2f 3e 1e 27 8d 3e
       -0.2642955 0.16516857 0.17174685 0.27568907
000120 0e 53 2e 3e 50 13 04 3e c0 ab dd 3d 3d 43 78 3e
       0.1702387 0.12897992 0.10823774 0.242444
000130 71 bd 48 be d9 c5 45 be f8 7d 02 bd 50 04 12 be
       -0.19603516 -0.19313754 -0.031858414 -0.14259458
000140 25 b8 08 be 4b d3 c8 bb ed b3 53 3e 7e d0 38 3e
       -0.13351496 -0.0061287037 0.20674105 0.18048283
000150 19 86 8e be 12 4f 33 be d3 af 72 be f2 6a 7a 3e
       -0.27836683 -0.17510632 -0.23699884 0.24454859
000160 19 ca 75 3d 38 cb ae 3d fb 10 66 3e 1f 4e 25 3d
       0.06000719 0.08534855 0.22467415 0.040357705
000170 bb 39 43 be a1 4d 63 3e 27 a9 bf bb 05 8d 84 be
       -0.19064991 0.22197582 -0.005849022 -0.2588884
000180 d0 c8 fe 3d c0 88 be 3c 6b c5 51 bd 87 51 03 3e
       0.12440646 0.023258567 -0.051213663 0.12824069
000190 86 8f ac 3d b9 66 4c 3d 00 ce 12 bb 41 84 43 3e
       0.084258124 0.04990265 -0.0022400618 0.1909342
0001a0 5b 3a f4 3d 9a fe 1e be 14 7c 32 bd 30 1d d8 3d
       0.11925193 -0.1552681 -0.04357536 0.10552442
0001b0 2d 80 45 be 21 a7 37 bb 9c 39 b0 bc fe 96 65 3d
       -0.19287176 -0.00280232 -0.021511845 0.0560522
0001c0 e6 89 52 3e c0 ef 1a 3d 46 ea 34 3e 83 44 71 3d
       0.20560417 0.0378263 0.17667493 0.05890323
0001d0 b0 69 19 3e ce 69 8f 3c 17 98 0a 3e c4 d3 ac 3d
       0.14981723 0.017506506 0.1353458 0.084388286
0001e0 f6 30 ce 3d 2f cd 76 3d 06 c1 3b 3e 28 cb 7b 3d
       0.10067932 0.060254272 0.18335351 0.06147304
0001f0 b9 18 47 be db 2a a5 3e f8 08 3a be 30 c9 0d 3e
       -0.19443025 0.3225926 -0.18167484 0.13846278

lstm.weight_ih_l0_reverse f4 [128, 28]
000000 f3 14 d6 3c b8 9f 7a 3d 90 dd 68 bd de 0f 66 3b
       0.026133036 0.061187476 -0.056851923 0.0035104672
000010 03 6f df bd ca 00 df 3c 88 6b 13 3e d0 fb c6 bb
       -0.10909846 0.027222056 0.14396489 -0.006072499
000020 7f 19 2e 3e f7 71 95 bc cf a4 a8 bd 6a c5 86 bd
       0.17001913 -0.01824282 -0.0823456 -0.065806225
000030 bf 06 a6 bc fb 9f 2d 3e f5 6b 99 bd 3b ce 2f bd
       -0.020266889 0.16955559 -0.07491294 -0.042921286
000040 64 d2 0f 3d a5 d6 62 bb 0c 47 07 3d c1 be bb bd
       0.035112754 -0.0034612801 0.03302674 -0.09167243
000050 ec b9 17 be 07 8e b9 3d b9 70 e0 bc 42 b3 ee 3c
       -0.14817017 0.09060293 -0.0273975 0.029138211
000060 6e 9d 09 3e 00 08 c1 3d b9 b8 5e 3c 7c 20 49 bd
       0.13438961 0.09425354 0.013593846 -0.049103245
000070 72 0e 46 bd 3b 9b cb bd 10 fb c3 3d 66 6e 1d 3e
       -0.04835362 -0.09941717 0.09569371 0.15374145
000080 35 25 58 3c a4 90 dc bd 4b 7b 72 3d 81 18 3e 3c
       0.013192465 -0.107697755 0.059199613 0.011602522
000090 52 62 f6 bd 02 88 09 3e 76 e4 48 3d 27 6b c9 bd
       -0.12030472 0.13430789 0.049046002 -0.09834891
0000a0 45 a9 0e 3e 37 de b4 3d 61 4f 81 bd f1 e1 a3 3d
       0.13931759 0.088314466 -0.063139684 0.08002079
0000b0 64 7e 0b be 69 60 10 3e cd 19 d6 bd f8 40 2b be
       -0.13622433 0.14099278 -0.1045414 -0.16724002
0000c0 f9 37 91 bd a1 a1 09 be 86 4d a5 3d 0c 6b 23 3e
       -0.07090754 -0.13440563 0.08071427 0.15958804
0000d0 71 b4 de 3a c5 e0 c9 bd 68 dd 14 bd 15 ef 0d 3c
       0.0016991032 -0.098573245 -0.036343962 0.008662959
0000e0 4f 0a 19 3e 55 59 a1 bb 52 72 ef bd c3 73 01 be
       0.14945339 -0.0049239793 -0.11691727 -0.12641816
0000f0 fa e8 66 bc 82 01 9f 3d 6d 2e bf bc 30 8e 6f bc
       -0.014093632 0.077639595 -0.023337567 -0.0146213025
000100 ba 3e 3c 3e fd 4d 12 3e e3 13 1e 3e 43 97 64 bc
       0.18383303 0.14287563 0.15437274 -0.013952079
000110 75 a3 20 3c 72 b0 4e 3d 2a 27 08 3d 27 c5 9c bc
       0.009804596 0.05046124 0.033240475 -0.019136978
000120 d8 69 21 3d 8d d2 5e bc 17 b1 08 be 84 4e 0b 3e
       0.03940758 -0.013600004 -0.13348804 0.1360417
000130 07 ab fc 3d a9 fb 3a 3e 42 ca 60 bd 14 52 1d 3e
       0.123373084 0.18260063 -0.054880388 0.15363342
000140 1f 7d 03 3e cd dc 27 bd a2 71 dc 3c 7d ba 86 bd
       0.12840699 -0.040982056 0.026909653 -0.065785386
000150 08 4e 21 bd cb 88 64 bd 48 7b 34 bd 1c ea 47 bd
       -0.039381057 -0.05579452 -0.044062883 -0.04880725
000160 82 44 bb bd b5 51 0a be e4 f1 41 3e 37 46 56 bd
       -0.09143926 -0.13507731 0.1893993 -0.052313056
000170 8a c3 48 bd 23 6e 08 bd f7 d4 a1 bc 71 9a 11 bd
       -0.049014606 -0.03330816 -0.01975487 -0.035547677
000180 de 1a 06 3e 02 b1 d3 3b f9 aa 57 3e 2d 58 85 bc
       0.13096187 0.00646031 0.21061315 -0.016277397
000190 f4 ca 53 bd df 52 e5 3d de 15 df 3d 4d 6c 96 bd
       -0.051707223 0.11197447 0.10892843 -0.073448755
0001a0 c2 66 dd 3d 10 9d b5 3d 5f 57 af bd 97 35 0d 3e
       0.10810615 0.08867848 -0.085615866 0.13789974
0001b0 61 a4 1d 3d 8b 68 52 bd 55 db 70 3d 6e e2 ad 3d
       0.038486842 -0.05136923 0.05880292 0.08490454
0001c0 c2 10 1c 3d c8 c2 f2 bd d2 b1 cc 3c 41 3a 94 3c
       0.03810192 -0.11853558 0.024987135 0.018094184
0001d0 1e ae 28 3d 58 4e b6 bb b9 4c a4 bd 38 d6 49 3d
       0.041181676 -0.0055635385 -0.08022446 0.04927656
0001e0 ad 6d d6 3c 8c db 8d bd a2 c1 1d 3e 3d 6c ef 3c
       0.026175344 -0.06926641 0.15405896 0.029226417
0001f0 50 c4 a5 3d 8f a3 c4 3a 1a 2c 31 be c3 69 93 bd
       0.08094084 0.0015002358 -0.1730198 -0.07197907
000200 5e d4 15 3e f7 6f c0 bd 52 28 db 3b 13 9e 02 3e
       0.14631793 -0.093963556 0.006688156 0.12755613
000210 1e 12 f2 bd 95 cf 2c 3e 06 19 fc 3c 05 9d 11 3e
       -0.11819862 0.16876061 0.03077365 0.14220054
000220 4a 09 18 bd b3 bd ba 3d 31 b4 aa 3b 71 e9 66 3d
       -0.037118234 0.091182135 0.005209469 0.05637497
000230 c8 b1 e0 bd 0b c3 c1 bd 5d 5b 21 3e ff 02 7c bd
       -0.10971409 -0.094610296 0.15757509 -0.061526295
000240 94 84 fb 3d 8f bf 01 be ba a7 19 3d 4a 05 10 3d
       0.12281147 -0.1267073 0.037513472 0.035161294
000250 31 ee f9 bd 66 36 14 3e df 32 cb bd 1b 07 ea 3b
       -0.122036345 0.14473876 -0.09921812 0.0071419603
000260 57 0f 1d bd 4a 67 aa bc 72 50 45 3c e0 6c 01 3e
       -0.038344707 -0.020801205 0.012043105 0.12639189
000270 d9 eb d5 bc 04 df 98 3d fc 2b 5e 3b c8 f0 c8 3b
       -0.026113437 0.07464412 0.0033900728 0.006132219
000280 78 2c d7 3c 95 8f 9f 3d 2d 0a 84 3c 0f 5c be 3b
       0.026266322 0.07791058 0.016118133 0.005809314
000290 35 b7 80 3d 1e c7 18 be af 4c be 3c ca f1 6e 3d
       0.06284944 -0.14919707 0.023229925 0.058336057
0002a0 5b c0 8d bd da c7 fc bd 1a 5e 1c 3e 67 ce a0 bd
       -0.069214545 -0.12342806 0.15270272 -0.07851868
0002b0 c1 ef 1c 3e 55 da a0 3d 53 79 01 3e c7 52 d9 bd
       0.15325834 0.078541435 0.12643938 -0.10611492
0002c0 c5 b2 92 3d 7d cb ba bd 8d a8 b9 bd 8f c2 ba bd
       0.07163004 -0.091208436 -0.09065352 -0.0911914
0002d0 89 d2 f8 bc c0 96 df bd 46 e1 11 3e b9 8c c0 bd
       -0.030373828 -0.10917425 0.14246091 -0.09401841
0002e0 a2 e7 8a 3c 95 87 1e 3d 84 ab 07 3e 8f f5 6d bd
       0.016956154 0.03870352 0.13249022 -0.05809551
0002f0 62 ad 0c be 12 73 9e bd 1c e9 34 3c e0 1e 0d be
       -0.13738015 -0.07736792 0.011041906 -0.13781309
000300 d5 e3 3f 3d 0c 88 d4 bb ad 8a 79 3d 16 e7 2a be
       0.046848137 -0.0064859446 0.060923267 -0.16689715
000310 1b ed 80 bd 7f 69 d7 bd ee c1 54 be fd 74 16 be
       -0.06295224 -0.10518169 -0.20777103 -0.14693065
000320 6e 3f 60 3d ef ef 91 bd 91 99 f2 bb 39 d0 c2 3d
       0.05474799 -0.07125842 -0.0074035604 0.095123716
000330 b4 f2 15 be a1 4a 1b 3c e2 91 97 3d 60 f4 1b bc
       -0.14643365 0.009478242 0.07400872 -0.009518713
000340 5e ae 2c be 8a 96 52 3c 31 02 ea bc ac 72 47 3e
       -0.16863391 0.012853274 -0.028565498 0.19477338
000350 07 e6 aa bc ff 24 11 3d 9d 94 63 3d eb 55 1a 3e
       -0.020861639 0.035435673 0.05556165 0.15071838
000360 b2 31 85 3d e9 d1 fb 3d e8 c4 db bd 23 d5 7b 3d
       0.06503619 0.122958966 -0.10730916 0.06148256
000370 bc 4d 08 3d ac 93 c1 bd d0 4c 2e bd 28 73 b2 bd
       0.03327726 -0.09451994 -0.042553723 -0.087133706
000380 d5 88 48 be 57 2c 3f bd ab 11 f3 bd 30 4b 22 3d
       -0.19583447 -0.046673145 -0.11868604 0.039622486
000390 9c 1b 20 be 35 ab 05 3e be 5d fa bd c5 b6 8a bd
       -0.15635532 0.13053592 -0.12224911 -0.06773142
0003a0 ff eb 7d 3d 30 99 74 bd b8 0e 36 be 70 29 45 be
       0.06199264 -0.059716403 -0.17779052 -0.19254088
0003b0 2b 41 8d 3b 8a dc 4c 3c 54 c8 40 be c8 db a5 3d
       0.004310747 0.0125037525 -0.18826419 0.080985606
0003c0 5d 90 1e bd 38 3f 91 3c 31 e2 d9 3d 6f fb 26 3e
       -0.038711894 0.01773034 0.10638846 0.16306852
0003d0 7a a3 38 bc c3 c8 a8 bd dc 9a 3a 3d 36 56 de 3c
       -0.011269445 -0.08241417 0.04555784 0.027140718
0003e0 4b df 8d 3d 5c 33 92 bc 66 f1 00 3e 08 73 e4 bd
       0.069273554 -0.017846756 0.12592086 -0.11154753
0003f0 bf 47 84 3d 8f f9 c7 bd 9c df 30 3d 3c ba d9 3d
       0.06458997 -0.097643964 0.043182 0.106312245

lstm.weight_hh_l0_reverse f4 [128, 32]
000000 bd c1 e9 3c 62 fa 7c be 80 7f 51 be 5e a6 56 be
       0.028534764 -0.24704888 -0.20458794 -0.20961902
000010 7f 2f 75 b9 67 67 a2 be f8 78 ec 3c f7 22 19 bd
       -0.00023382714 -0.31719515 0.028866276 -0.03738686
000020 63 fc b0 bd 67 ed 1f 3e b5 4b b3 bc df 32 eb 3d
       -0.08641889 0.15617906 -0.021886686 0.11484312
000030 d4 79 83 3e 81 6d 7b be f8 eb 7f bd 7c d3 40 3c
       0.25678885 -0.24553491 -0.062480897 0.011769172
000040 dd 84 37 3d 19 f8 15 be e6 cb 4a be 3a 48 2e 3e
       0.044804443 -0.14645423 -0.19804344 0.1701974
000050 ff d7 08 3e 3e 05 30 3d 07 14 58 3d 1c 7f 34 be
       0.13363646 0.04297375 0.052753475 -0.17626613
000060 11 8d 2e bc 5e 64 4d be d7 83 54 bd 4f fa 7a 3e
       -0.01065375 -0.20057818 -0.051883545 0.24509548
000070 ed 52 83 3e 2e b1 89 bc 21 db 86 3e 26 20 91 bd
       0.25649205 -0.016808119 0.26339057 -0.0708621
000080 f0 68 43 3d e6 7c 17 be a3 2c e6 bd 53 85 aa bc
       0.047707498 -0.14793739 -0.112389825 -0.020815527
000090 c2 18 0d 3e e8 dd 82 be 31 43 5f 3e 43 15 02 3d
       0.13778976 -0.25559926 0.21802975 0.031758558
0000a0 f5 b3 6a bd ea 73 5c 3e 22 3d 6d 3d cd a1 21 be
       -0.057300527 0.21528593 0.05791963 -0.15784378
0000b0 ac 79 d3 bd 8b d6 03 bb 4e 71 51 bd 99 ba ca bd
       -0.103259414 -0.0020116891 -0.051133446 -0.09898872
0000c0 40 35 cb 3d 80 43 93 bd 4d 22 fd 3d 2e f8 02 3e
       0.09922266 -0.07190609 0.12360058 0.12789986
0000d0 c5 7a bc 3d 64 25 56 3b 0d 76 3a 3e ae f0 46 be
       0.09203104 0.0032676095 0.18209095 -0.1942775
0000e0 74 82 61 3e ed e3 2d be ad d9 b0 3d da c7 65 bc
       0.2202242 -0.16981478 0.08635268 -0.014024699
0000f0 4f 52 24 bd c5 c6 5e bd 03 4f 24 3e e8 e3 f0 bc
       -0.040117558 -0.05438878 0.16045766 -0.02940555
000100 79 ab 18 3e 0f 39 4a be 2e 95 3b be 66 50 93 be
       0.14909162 -0.19748329 -0.18318626 -0.28772277
000110 9a 1c de 3d 62 3d 11 be bc cb 7d 3e 05 60 48 bd
       0.10845299 -0.14183572 0.2478475 -0.048919696
000120 d3 2a dc 3b 26 76 79 bd e8 aa 68 3d 63 2e bc 3b
       0.006718972 -0.06090369 0.056803614 0.0057428344
000130 c2 2e 4b 3e 39 8f 0c be 3d 51 30 be 82 2a 2d be
       0.19842055 -0.1372651 -0.1721849 -0.16910747
000140 a7 73 35 3e 5d 95 48 be ee 50 32 3e d9 86 06 3e
       0.17719899 -0.19588228 0.17413685 0.13137378
000150 9b 41 20 3e ca 3b 74 3e e1 0e 8f 3e b8 f2 37 be
       0.15650027 0.23850933 0.2794104 -0.17963684
000160 16 ba 1f 3e db 86 5b be 47 72 6c bd ed 40 f6 3d
       0.1559833 -0.21438162 -0.05772617 0.12024102
000170 af 37 55 3e f9 af 71 be 95 c9 8d 3e 89 43 6f be
       0.20822023 -0.23602284 0.27692857 -0.23365606
000180 af be a1 3e b3 4b 9c be c1 a1 40 be 7c 0d 78 be
       0.31590793 -0.30526504 -0.18811704 -0.24223894
000190 3c c6 2c be fc 2f 8d bd 69 4c 9b 3d 59 43 d9 3d
       -0.16872495 -0.06893918 0.075829335 0.10608549
0001a0 6b 07 45 bc 07 d7 79 3e 57 c8 5a ba 53 f8 56 3e
       -0.012025694 0.24398433 -0.0008345893 0.20993166
0001b0 01 55 7c 3e cc 4a 81 be 5a 50 19 be ad 8c 08 3d
       0.24641801 -0.25252378 -0.14972058 0.033337284
0001c0 c5 62 81 3d 80 58 41 be 96 3f e7 bd fc 3a e6 bc
       0.06317667 -0.18881416 -0.11291425 -0.028104298
0001d0 3a 5c 96 3e 0c f0 b5 bd 0c d1 7f 3e 96 0e 28 be
       0.29367238 -0.08883676 0.24982089 -0.16411814
0001e0 ce c2 96 3d d3 a0 97 3d ad b4 fd 3d 79 ec 45 3e
       0.07361375 0.07403722 0.12387977 0.19328488
0001f0 e3 05 5c 3c 25 c6 92 be c7 8a 91 3b 9a 99 38 3d
       0.013429138 -0.28666797 0.0044415924 0.04506836
000200 bd e3 d5 bc a8 28 40 3d 48 26 0c 3e 09 29 a2 3d
       -0.02610957 0.046913773 0.13686478 0.07917983
000210 7d 96 7c 3e 00 a0 be bd 5a 1a 36 be b0 32 c0 bd
       0.24666782 -0.09307861 -0.1778349 -0.09384668
000220 8d 19 cc 3d 5e c3 c0 3a 41 c4 75 bd 39 a9 ab 3d
       0.09965811 0.0014706661 -0.060001615 0.08381886
000230 8e 0b e5 3c 9e 6d 4c 3e 2b 00 23 3e d3 b6 75 bd
       0.027959611 0.1996369 0.15918033 -0.059988808
000240 71 af cb 3d ce a8 5b 3e 35 88 1e be f6 23 20 be
       0.09945572 0.21451113 -0.15481646 -0.15638718
000250 5c 29 99 3d c2 84 10 3d 0e 04 6f be a7 b3 91 3c
       0.07478592 0.035282858 -0.2334139 0.01778586
000260 26 a2 56 bc e6 76 ef bc 07 5f 96 3d 70 38 d2 3d
       -0.013100183 -0.0292315 0.07342344 0.10264671
000270 a0 42 be bd 16 00 1b 3e e3 3f 0e be e3 99 90 bd
       -0.092900515 0.15136752 -0.13891558 -0.070606016
000280 d2 ba a7 3d 2f 2a 65 3d ea bf 81 bd bd b0 eb bc
       0.0818993 0.055948433 -0.06335433 -0.028770799
000290 06 5f 32 3e 63 5d 46 3e 86 e5 fd bd c0 b9 d9 3d
       0.17419061 0.19371562 -0.12397294 0.10631132
0002a0 da 2f 98 bc 3a 09 27 be 89 bc ec 3d fb 8f 95 bc
       -0.018577505 -0.16312113 0.11559398 -0.018257132
0002b0 cb 39 46 be 7a d7 1a 3e 42 8c ad bd aa 96 26 3d
       -0.19357984 0.1512126 -0.08474018 0.04067103
0002c0 94 63 49 bb 6f 9d 3b bc b7 d1 44 be b6 b2 87 bc
       -0.003072952 -0.011451109 -0.19220625 -0.016564708
0002d0 b4 04 b3 3d 89 6a 22 be a4 d1 51 be 83 ab 96 bd
       0.087411314 -0.15860952 -0.20490128 -0.07356932
0002e0 2d 72 80 bd 4d be 0d be 8d 89 b4 bd 7e 36 9c bd
       -0.06271777 -0.13842125 -0.08815298 -0.07627581
0002f0 f9 39 00 be e5 b5 7d 3d 29 20 0e 3d b7 4e 0b bd
       -0.12522115 0.061941046 0.03469864 -0.034010615
000300 5f a6 cd 3d c1 29 b9 3d c7 42 80 be b1 6c 3f 3d
       0.100414984 0.09041167 -0.25050947 0.046734516
000310 b5 47 8b 3d 15 66 fe bd 7a ce b5 bc 67 76 94 bd
       0.068007864 -0.12421814 -0.022193182 -0.07249146
000320 74 15 32 bd c3 18 65 3e 9e d7 02 be bd 0e a3 3d
       -0.04347749 0.22372727 -0.12777564 0.079617955
000330 ff a1 5b 3e d9 00 0e be af 95 d2 bd d5 df 18 be
       0.21448515 -0.13867511 -0.10282456 -0.14929135
000340 eb 97 8b 3d 2a 6f 97 bd 45 4e 88 bd d3 2b 23 3e
       0.068160854 -0.0739425 -0.06655554 0.15934686
000350 a3 16 63 3d f1 58 26 3e b8 5a 16 bc b1 4f df 3d
       0.05544151 0.16244866 -0.0091769025 0.10903872
000360 21 15 25 3e 73 2f 9c bd 6a 86 0d be 93 f0 d6 3d
       0.16121341 -0.07626238 -0.13820806 0.10495105
000370 ae c7 fe 3d 9a ee 75 be 8e d1 97 bd 23 9d 0b 3e
       0.1244043 -0.240168 -0.07413016 0.13634162
000380 4c 9b 75 be 1c 35 50 3e ef 25 fc 3d 87 0a 85 3d
       -0.23985022 0.2033276 0.12311923 0.064961486
000390 55 e5 2b 3e 06 50 06 3e 53 50 fd bd 0f f2 88 bc
       0.16786702 0.13116464 -0.12368836 -0.016716985
0003a0 2a 82 82 bc 6e 45 5a be 98 61 02 be e4 76 32 3e
       -0.015931208 -0.21315548 -0.12732542 0.17428166
0003b0 3d db 88 3d cd 79 a4 3d 20 58 58 3e 33 69 81 bd
       0.066824414 0.08031044 0.21127367 -0.06318893
0003c0 b8 45 9d 3b 4c 08 4a bd 0b 8e 36 3e cd 74 08 3e
       0.004799571 -0.04932432 0.17827623 0.13325806
0003d0 9b 8b 65 be c7 2a a6 bc 03 04 18 be cc fe 03 3e
       -0.22416537 -0.02028407 -0.1484528 0.12890166
0003e0 8e 1a 5a 3b 82 ab ce 3c ec 26 49 3c 5f e1 d7 3c
       0.0033279988 0.025228266 0.012277346 0.026352582
0003f0 47 1c e7 bd 78 8e 95 bc 97 2f 7c 3d 57 41 01 3e
       -0.1128469 -0.018256411 0.061568823 0.12622581

lstm.bias_ih_l0_reverse f4 [128]
000000 9f 79 e0 3d b1 8e 0c 3d 20 9a 95 3e dd c2 47 3e
       0.109606974 0.03431577 0.2921915 0.19507928
000010 c3 a0 46 be 06 e5 59 bd ae f9 79 3e 37 5f 1f be
       -0.19397263 -0.05319693 0.24411651 -0.15563665
000020 d3 e3 77 3d c9 7f 84 3e d2 3c c0 bd 0c 8f 83 3d
       0.060520004 0.25878742 -0.093866006 0.064237684
000030 8d bc 25 3e 6e 1c 8e 3b 34 9d 21 bd 93 03 f1 3d
       0.16185208 0.004336885 -0.03945656 0.1176826
000040 f6 84 b4 bd 02 cf 27 3d 80 cb 7d 3d e2 02 c4 bd
       -0.08814423 0.040968902 0.06196165 -0.09570862
000050 03 34 67 3d 5f e0 55 bd 12 b0 f9 3d 4c 15 94 bd
       0.056446087 -0.05221593 0.12191786 -0.072306246
000060 4a 68 b1 3d f8 3b be bd 42 b8 ea bd 16 0d 5b be
       0.0866247 -0.09288782 -0.11460926 -0.2139171
000070 71 74 13 3d af 12 63 bd 88 30 19 3e f3 dd 48 be
       0.03599972 -0.05543774 0.1495992 -0.19615917
000080 b8 80 25 3e f0 34 70 3d ad 73 53 3e ca 9b dc bc
       0.16162384 0.058644235 0.20649596 -0.026929755
000090 9c c8 17 be 4e a5 ab bd 6f 9c 3b 3e f7 b9 04 be
       -0.1482262 -0.08381139 0.18321393 -0.12961565
0000a0 fc eb 23 be 17 86 34 3e 5b bb 82 bd c3 1b 6c 3d
       -0.1600799 0.17629276 -0.063833915 0.057643663
0000b0 1d aa 2e 3e 45 50 2c bd 6a 47 f8 3c 95 cc 01 3e
       0.1705708 -0.04206874 0.03030749 0.12675698
0000c0 07 ec ff bc 6a 60 c7 3d 30 3f 47 be eb 3c 96 3d
       -0.031240476 0.097351864 -0.19457698 0.07335838
0000d0 39 a2 a1 3c c8 35 c8 bd 3e 86 0b 3e a5 0d cc 3d
       0.019730674 -0.09775883 0.13625428 0.0996354
0000e0 1a df e5 bd d1 d6 5e bd bf 9c 59 3d be 2d c8 bd
       -0.11224194 -0.054404084 0.053128 -0.0977435
0000f0 13 43 59 3d 61 00 1a be 82 9d 57 3e 78 b8 af bd
       0.053042483 -0.15039207 0.21056178 -0.085801065
000100 04 30 db 3d bb 37 8a be 97 32 54 be f0 2e 17 be
       0.10702518 -0.26995644 -0.20722423 -0.14763999
000110 1e c0 8d be 4d 2f 50 be 24 68 82 3e 24 ea fa 3d
       -0.27685636 -0.20330544 0.25470078 0.1225169
000120 45 0d 4b 3e ff 92 f6 3d 47 65 10 3e b5 b7 72 bd
       0.1982928 0.12039756 0.14101134 -0.059257228
000130 26 03 89 3e 4b 1b 62 be 9b cd 45 bc bb 3d 09 bd
       0.26760215 -0.22080724 -0.012072946 -0.033506136
000140 1a 9a 5f 3e f5 9d 85 be c5 08 b2 bd 8e 25 57 3e
       0.21836129 -0.26097074 -0.08693079 0.2101042
000150 18 fc 07 3e 6b 8e 57 3d 05 cb 76 3e 55 99 c1 bd
       0.1327976 0.052626055 0.24100883 -0.09453074
000160 75 b1 76 3e 88 79 0f 3d 64 9e ed bd b6 55 00 3e
       0.24091132 0.03502801 -0.11602476 0.12532696
000170 e6 60 89 bd a3 e8 08 be 41 e0 7d 3e 5d bd 32 3d
       -0.06707935 -0.13369994 0.24792577 0.043637622
000180 3b 69 7d 3e ec 49 b7 3d 3b 5e 7a 3c cc 36 43 bd
       0.24747173 0.08949646 0.015281255 -0.04765968
000190 ac 29 73 bd 95 c7 dc bd fc a7 71 3e 70 30 44 3c
       -0.059365913 -0.10780255 0.23599237 0.011974439
0001a0 fb 6b 62 bd 01 bc 3a 3d 62 c8 8a 3d df ab 13 be
       -0.05527876 0.04558945 0.06776501 -0.14421032
0001b0 a2 6d cc 3d dc 34 98 3c e0 f6 ca bd ef d3 f4 3d
       0.09981848 0.018579893 -0.09910369 0.119544856
0001c0 95 17 9e 3d 3a 1d 97 3c 4a c7 a9 bc e7 f1 43 be
       0.07719342 0.018446553 -0.020724911 -0.19135247
0001d0 00 0f 9f 3d 19 08 15 be bc 15 32 3e 38 ab 50 bd
       0.07766533 -0.1455387 0.17391104 -0.050944537
0001e0 fc 0e f5 3d 57 ae b7 bc a1 92 21 be 26 2f 27 be
       0.11965749 -0.022421999 -0.1577859 -0.1632658
0001f0 c6 f9 b1 bd 7b ba a1 3d a1 8e 54 bc a0 84 a3 bd
       -0.086902186 0.078968965 -0.0129734585 -0.079842806

lstm.bias_hh_l0_reverse f4 [128]
000000 86 ea 1e 3e 02 08 77 bd b1 dd 48 3e 99 d9 70 3e
       0.15519151 -0.06031037 0.19615819 0.23520507
000010 5c 44 fd bc 48 0a 73 3d 19 87 07 3e d2 6f 15 be
       -0.030916385 0.059335977 0.1323513 -0.14593437
000020 c4 17 54 be e2 bb b1 bc 89 43 13 3d a7 16 b7 bd
       -0.20712191 -0.021696035 0.03595308 -0.089398675
000030 3f 33 0a 3e 3f e5 8e 3d fa bf 53 be 4b 25 66 bd
       0.13496111 0.06977319 -0.20678702 -0.05618791
000040 ab 8b 20 3e 3f d0 06 bd 81 0c 00 be ce 4f f7 3c
       0.15678279 -0.032913443 -0.1250477 0.030189421
000050 03 66 b8 bd f1 ef 63 bc 8e 92 ec 3c c8 09 4d be
       -0.09003832 -0.013912187 0.028878476 -0.20023263
000060 e0 8e e1 bc 49 0d de bb 2c a1 ee bd ca 97 42 bd
       -0.027533948 -0.006776486 -0.11651835 -0.04750804
000070 ce 70 68 bc 7a c0 bd bd f7 68 19 3d 16 50 23 3d
       -0.014187051 -0.092652276 0.037453618 0.039871298
000080 fc e7 8c bd 43 a7 fe 3d 4f 5b 46 3e 04 6f d0 3d
       -0.06880185 0.124342464 0.19370769 0.101774246
000090 4d 53 73 be 62 9e 1e be 00 cf 0a 3e 6a a3 4a be
       -0.23762245 -0.15490106 0.13555527 -0.197889
0000a0 d7 50 f4 3d 4f 02 0e bd 8b e1 c4 3d 83 e3 71 be
       0.119294815 -0.03467017 0.096133314 -0.23621945
0000b0 a1 a8 19 3e e7 7f dc 3b 44 25 84 bd a7 9f d9 bd
       0.15005733 0.0067291143 -0.0645242 -0.106261544
0000c0 8a 16 16 3e 1f be 13 3e a2 db ae bd d6 6d 19 be
       0.14657035 0.14427994 -0.085379854 -0.14983305
0000d0 32 4a 5d 3d 05 f1 04 be e1 91 14 3e 3f 9f c6 3d
       0.054025836 -0.12982567 0.14508773 0.096983425
0000e0 e7 d2 8d bc 4e f2 72 3d 75 11 4a bc df 1e 4e be
       -0.01731248 0.05931311 -0.012333264 -0.20128964
0000f0 3f e5 b8 3d 4f 96 c1 3d 7b 35 02 3a fe d1 42 3d
       0.090281 0.09452497 0.00049670757 0.047563545
000100 b1 11 94 3e 36 46 06 be 37 28 e2 bc fe 23 84 be
       0.28919747 -0.13112721 -0.027607067 -0.2580871
000110 e2 c3 90 3d ff d9 fc bd f9 9d be 3d 2f dc 3c bc
       0.07068612 -0.12346267 0.09307475 -0.011527105
000120 7a 4b bd 3c 98 f0 4e 3e 1e 56 c7 3d 91 35 4e 3e
       0.02310728 0.20208967 0.097332224 0.20137621
000130 f6 45 cc 3d 4d 81 dc bd 11 b0 45 be 57 d1 8b be
       0.099742815 -0.1076685 -0.19305445 -0.2730815
000140 18 91 35 3e c0 0e 05 be 23 93 0f 3e cf f7 04 3d
       0.1773113 -0.12993908 0.14020972 0.03246289
000150 26 91 0b 3e 99 44 57 3e 8b 18 0f 3e 4e 4a 19 bd
       0.13629588 0.21022262 0.13974206 -0.037424378
000160 85 83 8e 3d 88 df d7 bd 2f a1 52 3d 39 ae 93 3c
       0.06958679 -0.10540682 0.051423248 0.018027412
000170 4d 76 78 3e ee b6 65 be 69 b0 46 3e 7c ec 81 be
       0.24263878 -0.22433063 0.19403233 -0.25375736
000180 d7 60 1d 3e b5 c4 02 3e be 9a 48 3e 1d d7 27 3d
       0.15368973 0.1277035 0.1959028 0.040976632
000190 98 86 b7 bd fb 24 42 be b9 94 01 bd cb 31 62 be
       -0.089612186 -0.1895942 -0.031635974 -0.22089307
0001a0 5f 1c c9 ba 86 51 8f 3e c8 78 06 3e eb 54 0a 3d
       -0.0015343538 0.27991885 0.13132012 0.03377239
0001b0 54 d6 7c 3e c4 1c e0 3d 36 20 06 3e 04 22 2a bd
       0.24691135 0.109429866 0.13098225 -0.041536346
0001c0 0d ff 58 bc 23 3d 49 bd 6a 94 f2 bd 4b 99 da 3d
       -0.013244403 -0.04913057 -0.11844714 0.106737696
0001d0 66 d0 ec 3d bb 8b b9 3d 41 97 88 bc 7b 99 80 3d
       0.11563186 0.090598546 -0.016673686 0.06279274
0001e0 57 c0 5b 3e 81 20 7e be 01 49 c4 3d 70 5f 5e be
       0.2146009 -0.24817087 0.09584237 -0.21716094
0001f0 f2 98 14 3d a7 fa 27 3e e7 26 0d 3e 23 50 da bd
       0.036278673 0.1640421 0.13784371 -0.10659816
